pyrotch学习/wr.pth (torch, 644495 bytes, 8 tensors)

weight f4 [200, 100]
000000 53 65 07 b9 b8 fd a9 bb 32 92 a1 bb 8c 55 1e bc
       -0.0001291235 -0.0051877163 -0.004930758 -0.009663951
000010 7e 87 fb bc 83 4f 94 3d ca 88 67 3d 24 c8 99 bb
       -0.030704256 0.07241728 0.056526937 -0.004693048
000020 03 44 58 3d 59 5f 97 3d 51 fc 8d 3d 77 85 df 3c
       0.052799236 0.07391233 0.06932891 0.02728532
000030 8b ab 20 3b a5 c8 24 3d 80 11 b2 3c 05 8f 09 bd
       0.002451631 0.040230412 0.02173686 -0.03358366
000040 0e 38 75 3d 09 9e d4 bc a9 51 73 bd 6c 50 12 3d
       0.05986791 -0.025954263 -0.05940405 0.035721228
000050 11 cf aa bd 1f e4 a4 3d f2 f1 84 bc 1e e0 9c bd
       -0.08340276 0.08051323 -0.01622865 -0.076599345
000060 f9 f6 3d 3c 40 4a 88 bd b1 b2 10 bd eb d2 a2 3d
       0.011594527 -0.06654787 -0.035326663 0.07950386
000070 c7 d9 15 3d 2a 72 c2 bd 09 c4 33 bd 6e 82 9b 3d
       0.03658464 -0.09494431 -0.043888126 0.07593237
000080 bc 6a a2 bc d1 b5 81 bd 98 e3 10 bd b9 07 52 3d
       -0.019826286 -0.06333507 -0.0353733 0.051276896
000090 b5 4b 81 3d 00 5c 31 3d 20 8f ba bd d7 94 d9 bb
       0.06313268 0.04330063 -0.0910933 -0.0066400575
0000a0 de 0b ae 3d 9f ed 21 bd 8d a2 2a 3d 2a 45 84 bc
       0.08498357 -0.039533254 0.041658927 -0.016146261
0000b0 85 9a 96 3d 37 37 73 bd 2c 61 12 3d f0 3a cf bd
       0.07353691 -0.05937883 0.0357372 -0.10118663
0000c0 77 5a 12 bd b7 4f 89 bc 44 cc 33 3c 4e 20 a7 bd
       -0.035730805 -0.016761644 0.010973994 -0.081604585
0000d0 7f 70 c0 bd 21 60 06 bd cb 90 19 bd 76 19 f3 bc
       -0.09396457 -0.03280652 -0.0374916 -0.029675227
0000e0 00 9b b9 bc 8e bb c5 3d a4 6a 8d 3d 2f 24 27 3d
       -0.022656918 0.09654914 0.06905106 0.04080599
0000f0 5f 56 d8 3c 51 49 96 bd 1f 93 7d 3d 02 cf 61 3d
       0.026408372 -0.07338203 0.061907884 0.05512906
000100 c7 f8 a1 bd 73 06 4d 3c b9 c5 0d bd a7 b2 bc 3d
       -0.07908779 0.012513745 -0.03461239 0.09213763
000110 2a 13 b0 bc a5 fe d5 bc 08 c3 96 bd 12 84 44 bd
       -0.021493513 -0.0261224 -0.07361418 -0.047977515
000120 57 de 6f bd 4d 84 e0 3a 05 72 83 3c 1f 6b 9f 3d
       -0.05856165 0.0017129272 0.01604558 0.077841036
000130 53 19 e5 ba be 4c fe 3b 9e 6c 8d 3d 40 86 6b bc
       -0.0017478861 0.007760613 0.06905483 -0.014375269
000140 44 94 dc 3a b5 6c 56 3b d2 f9 55 bd af 69 00 bd
       0.0016828855 0.0032718603 -0.0522402 -0.031350788
000150 17 17 c6 3b 6c a4 8d bd 1a d0 24 3d d2 93 07 bb
       0.006045233 -0.069161266 0.040237524 -0.0020687473
000160 41 7a 1c bc 79 34 b3 3d 7f db 79 bd bf 52 4b bd
       -0.009550632 0.08750243 -0.061000343 -0.04963946
000170 c0 47 d6 3b 37 fa 66 3d 42 fb ea 3b 14 b8 f6 3d
       0.006539315 0.056390967 0.0071710655 0.12046829
000180 5f 6f 2f 3d 6d 89 00 3e fd 07 82 3d 70 a3 9d 3d
       0.04283082 0.12552424 0.0634918 0.07697189
000190 a3 49 6c bd 17 3e 27 bd 9a 4b 02 3d 8e ab 68 3d
       -0.057687413 -0.040830698 0.03181038 0.056804232
0001a0 d7 f3 c6 3d c9 fd a7 3d 60 a6 76 bd a0 a1 a0 3b
       0.097144775 0.082027026 -0.06021726 0.0049020797
0001b0 00 a9 c6 3b 7b 1c a5 bd fd f2 bc 3d 45 14 bc 3d
       0.006062627 -0.08062073 0.09226034 0.091835536
0001c0 26 18 38 3d b3 12 45 bd d5 f2 97 bd ba c4 c8 bd
       0.044944905 -0.048113536 -0.074193634 -0.098031476
0001d0 aa 6d 43 3d ad 33 9a bd d4 cb 12 bd 00 30 cb bd
       0.047712006 -0.075293876 -0.035838917 -0.09921265
0001e0 ea ce 28 bd e8 e1 46 bc 08 97 f1 bc 72 c6 70 3d
       -0.041212954 -0.012138821 -0.029490963 0.058783002
0001f0 1b 39 89 3d 28 f9 9d bd ae 38 10 3d ca d8 6c bd
       0.06700345 -0.077135384 0.035210304 -0.057823934
000200 8a e8 71 bd 60 85 f0 bb b0 5e 31 3c a2 1a 74 3d
       -0.059059657 -0.0073401183 0.010825798 0.05959571
000210 c5 b1 b9 bd ed 6a 34 bd f6 a6 01 3d cd 29 66 bd
       -0.0906711 -0.044047285 0.031653367 -0.056192208
000220 b2 d0 7b 3d fa 1d 39 3d 88 fd c0 bc 44 b2 ce 3c
       0.061478324 0.045194604 -0.023558393 0.025231488
000230 00 8c 8d ba 11 2f b0 3d 38 c3 9c 3c c8 43 9f bc
       -0.001079917 0.08602727 0.019136056 -0.0194415
000240 8a 27 4b 3d 08 ed 87 bc 30 05 ab bd 0b cb 80 3d
       0.049598254 -0.016592517 -0.08350599 0.062887274
000250 8c 35 8d 3c 10 1b 2e bd d3 67 a0 bd 48 e5 f7 bc
       0.017237447 -0.042506278 -0.07832303 -0.030260697
000260 b4 f0 86 bd f8 ee a3 3c 00 c3 7b bb c2 b4 80 bd
       -0.06588879 0.02001141 -0.003841579 -0.06284477
000270 85 5f 82 3d b1 84 ad 3d 63 42 9c bd 48 34 91 bd
       0.06365875 0.084725745 -0.0762985 -0.0709005
000280 9d 4e 8b bd 22 9f 97 bd a0 7a a5 3c 62 8a 48 3d
       -0.06802104 -0.07403399 0.020200074 0.048960097
000290 bd b2 57 bd 33 7c b0 3d 2a 23 4a bd 04 95 de 3c
       -0.052660692 0.08617439 -0.04934994 0.027170666
0002a0 d8 08 3c 3c c0 f0 0d 3b 60 6d a1 bd 7a db 48 bd
       0.011476718 0.002165839 -0.0788219 -0.049037434
0002b0 c6 9e 15 3d a0 89 21 3b 6c 00 af bc 60 53 16 3b
       0.03652837 0.0024648681 -0.021362506 0.002293788
0002c0 fe ec 4c 3d 91 47 ba 3d a0 0d 82 bd e0 0a cc bb
       0.0500307 0.090956815 -0.06350255 -0.0062268823
0002d0 d6 32 53 3d 68 f0 43 3c e4 15 f3 3c e8 b3 3e bc
       0.051562153 0.011959173 0.029673524 -0.011639573
0002e0 b4 6a e8 bc 39 a3 bf 3d e0 7a 35 bd 07 c9 3c bd
       -0.028371193 0.09357304 -0.044306636 -0.046090152
0002f0 3e 3c 7f 3d e4 1e fa 3c 94 de c2 bc 58 03 9e 3c
       0.06231331 0.030532308 -0.023787774 0.019288704
000300 11 ba bd 3d ac 3f e8 bc 32 4a 28 3d 42 e8 a2 bd
       0.09264005 -0.028350674 0.041086383 -0.07954456
000310 30 18 60 bd b7 aa bb bd a6 03 a0 bd 82 75 63 3d
       -0.054710567 -0.09163421 -0.07813196 0.055531986
000320 6e 76 af 3c c7 34 37 bd bd d8 22 bd ea 0b b2 3d
       0.021418776 -0.044728067 -0.03975748 0.08693679
000330 ba d0 14 3d d3 b4 ed 3b 98 f7 ad 3d c2 62 87 bd
       0.03633187 0.007254222 0.084944904 -0.066106334
000340 ed 20 0d bd d7 40 0e 3d 71 f1 c4 bd 37 3e a8 bd
       -0.03445523 0.034729805 -0.09616364 -0.082149915
000350 e0 16 c5 bd 5c e0 b4 3d 93 4f 7f 3d 98 06 3f bd
       -0.09623504 0.08831856 0.062331747 -0.046637148
000360 04 0a 46 bd e2 85 d6 3b cb 51 ac 3d 12 1e 85 bd
       -0.048349395 0.006546722 0.08414038 -0.06499876
000370 06 5e 81 3d 72 28 2c bd ca ec 17 bd 7a 19 a4 bd
       0.06316762 -0.04203076 -0.037091054 -0.08012672
000380 85 f6 3d 3d 49 08 83 3d f9 00 7c ba ea e5 af 3d
       0.046377677 0.06398065 -0.0009613182 0.085887745
000390 99 b1 d0 3c da 88 9f 3c 11 fb 36 bb ef d4 4b 3d
       0.02547531 0.019474436 -0.0027920643 0.049763616
0003a0 06 01 cf 3c 37 5e 85 3d 0f 2f 8e bc 06 dc 8f 3c
       0.025269043 0.06512111 -0.017356424 0.01756097
0003b0 bb 74 0c 3d d2 d3 a0 bd a4 ef 8c bd 03 07 82 3c
       0.03429101 -0.078529015 -0.06881645 0.015872484
0003c0 d3 23 bf 3d 85 1b 7a bd a6 aa 82 ba 75 5f 4b bd
       0.09333005 -0.0610614 -0.000996907 -0.04965158
0003d0 f5 e5 1f 3c 96 f9 48 3b d7 b4 12 3c 44 ec e1 3c
       0.009759416 0.0030666343 0.008954248 0.02757848
0003e0 78 98 01 3d 0e 93 85 bd e3 d1 a8 bd 7a e8 a7 bd
       0.031639546 -0.06522189 -0.08243158 -0.08198638
0003f0 cf 4b d7 bb c2 f9 b6 bd 81 5a 63 3d 7a f8 d1 bd
       -0.0065703164 -0.08934356 0.055506233 -0.10252471

bias f4 [200]
000000 1d b6 81 bb 00 77 33 bb 98 a3 1a 3e 54 7c d0 bc
       -0.003958477 -0.0027384162 0.15101469 -0.02544991
000010 1b 96 94 bd 28 72 51 bc a1 76 d7 3c a4 77 b0 3c
       -0.07255193 -0.012783565 0.026301684 0.021541424
000020 07 b4 55 bd 81 59 6e 3d c4 a1 0f 3e 94 90 8b 3c
       -0.05217364 0.058190826 0.14026552 0.017036714
000030 74 20 86 bd 37 74 9b bd a0 31 0c 3c 00 32 f3 3d
       -0.06549159 -0.075905256 0.008556753 0.11874771
000040 c2 0c a7 3c 82 c2 98 3c 1b 83 c5 3d d3 80 26 3e
       0.020391826 0.018647436 0.09644147 0.1626008
000050 5c fd a8 bd 24 b1 9f bd da 38 4d 3e ed 1d 29 3e
       -0.082514495 -0.07797459 0.20041218 0.16515322
000060 a0 0d 84 3b 40 f2 8b be 57 34 4d bd 45 0c c9 bd
       0.0040299445 -0.2733326 -0.050098743 -0.09816793
000070 f5 40 ee 3d cb bf b6 bd dd bc 12 3e d4 c5 a0 bb
       0.11633483 -0.089233 0.14329858 -0.0049063955
000080 57 ea b4 bc b3 b0 1b bd c2 cf 2e bd 2e ca d7 3d
       -0.022084398 -0.03801031 -0.042678602 0.105366096
000090 30 0e 50 bd b2 78 62 3d 35 7c bf bd 60 30 ab 3b
       -0.05079478 0.055290885 -0.093498625 0.0052242726
0000a0 f8 4c 48 be 6e b5 93 bd 68 13 f2 3d de 13 af bd
       -0.19560611 -0.07212339 0.11820108 -0.08548711
0000b0 56 b7 b7 3d 9a 62 bc 3d d3 0d 1b bd 1a 98 f2 3d
       0.089705154 0.09198494 -0.03785498 0.11845417
0000c0 21 d1 f5 3d 69 45 e0 bc f4 7a af bd 56 e2 c1 3d
       0.12002779 -0.027376847 -0.08568373 0.09466998
0000d0 f6 63 88 bd 68 ff c6 bc cb 91 5c 3c 12 ff 3f 3d
       -0.06659691 -0.024291709 0.013462494 0.046874113
0000e0 a6 db 34 be a6 94 14 3d aa 0b 9c bd 40 4a 56 bc
       -0.17661914 0.036274575 -0.07619412 -0.013079226
0000f0 23 fa 4d be be 2e 9e 3d 4f bf ca 3d a5 10 3e 3d
       -0.20114951 0.07723759 0.098997705 0.046402592
000100 21 b2 17 3e 73 09 56 bd dc 75 14 bc ad f4 57 bd
       0.14814045 -0.052255105 -0.009061303 -0.052723575
000110 79 d4 0a 3d ac 07 10 bd a3 39 a8 bd 17 20 31 bd
       0.033894036 -0.035163566 -0.08214118 -0.043243494
000120 ea 1d 4e be f7 1c 36 bd d8 eb 2e 3d 2b dc e5 3d
       -0.20128599 -0.044461217 0.042705387 0.11223634
000130 23 0d cb bc e4 fc 2e bd 87 96 4f 3c d2 0b af bd
       -0.024786538 -0.042721644 0.012670166 -0.085471764
000140 af a0 dd 3d 62 e5 be bd 08 4d a5 bc 7d 56 2b bd
       0.108216636 -0.09321095 -0.020178333 -0.04183053
000150 e5 d7 b3 3d f6 b7 07 3e 54 81 f5 3c 5a 93 30 bd
       0.08781413 0.1325377 0.029968895 -0.043109275
000160 17 51 e9 3d d3 10 80 bd d8 9c d6 bc ec 6d 96 bd
       0.1139242 -0.06253209 -0.026197836 -0.07345185
000170 e3 8a 18 bd 39 55 e7 3d e1 14 0c be 40 c1 0b bd
       -0.037241828 0.11295552 -0.1367984 -0.034119844
000180 0f 65 95 3d 74 1d bc bc ed 86 aa bd cb 8d da 3d
       0.07294666 -0.022963263 -0.08326516 0.10671576
000190 84 df b2 3c 37 43 85 3d 07 cc ca bd 6d c1 c1 bd
       0.021835096 0.06506961 -0.099021964 -0.09460721
0001a0 1d 7a 38 bd 4e 42 11 be 97 50 57 3c 82 2b 80 bc
       -0.04503833 -0.1418545 0.013141773 -0.015645746
0001b0 10 88 d8 3a b2 78 ac 3c 56 6e 09 bc 97 34 76 3d
       0.0016520042 0.021053646 -0.008388123 0.060108747
0001c0 8c d7 ec bc 62 1b ec bd 99 ef d9 3d 4b 93 97 3d
       -0.028911375 -0.1152866 0.10641403 0.07401141
0001d0 ed 91 1e bd 27 fe 30 bd 7d bd 3a 3e 80 8b 3d bd
       -0.038713384 -0.04321113 0.18236347 -0.046275616
0001e0 fd be a5 bd 90 c6 20 3d 77 1e 8f 3d 41 27 bb 3d
       -0.08093069 0.039251864 0.069882326 0.091383465
0001f0 77 eb 0f 3e a2 49 1c 3d 32 b3 52 3c 77 c5 26 3e
       0.14054666 0.03815616 0.012860106 0.16286264
000200 5b 5a e0 3d 00 32 bd bd 26 ab 9d bd 11 ce f9 3c
       0.10954734 -0.09238052 -0.076986596 0.030493768
000210 3b 73 2e bd 2c 4f 87 3c db e5 03 bd a6 12 72 3d
       -0.04259036 0.016517244 -0.03220163 0.059099816
000220 e9 7e fe 3d 73 1e c3 3d 78 52 77 bc d1 b1 12 3e
       0.1242655 0.09527292 -0.015095346 0.14325644
000230 77 40 97 3c 10 86 6f 3b 01 e9 93 bd ea 69 6f bd
       0.018463356 0.0036548413 -0.07222176 -0.058450617
000240 9e 08 9f bd f1 2d d5 3d dd f8 05 3e 45 23 76 3d
       -0.077653155 0.10409153 0.13083215 0.06009223
000250 0a 7d 2a 3d 5c 18 df 3d 57 1f 8b 3d 02 04 82 bd
       0.041623153 0.10893318 0.06793087 -0.06348421
000260 f0 93 0d 3e 83 53 1d be 7a d6 02 3e df 58 30 3d
       0.13825965 -0.15363888 0.12777129 0.043053504
000270 e8 a4 8d 3d 0f f9 a1 3d 5f 7a 19 3e dd dd 15 3e
       0.06916219 0.07908832 0.14988087 0.14635415
000280 cf 42 88 bd 14 26 80 bc 14 79 a1 3d 8c fa 01 bc
       -0.06653368 -0.015643157 0.07884422 -0.00793327
000290 92 c1 08 3e 1e 67 11 be 00 c7 d5 bd 41 ed 6a 3d
       0.13355091 -0.14199492 -0.10438347 0.05735517
0002a0 c0 b0 c0 3c cc 7d 44 bb ce 4a 46 3d 91 48 d3 3b
       0.023521781 -0.0029982207 0.048411183 0.0064478596
0002b0 d3 13 99 bc f1 d1 c7 3d e3 b7 20 bd 27 84 46 bd
       -0.01868621 0.0975684 -0.039237868 -0.048465874
0002c0 f5 26 ea 3c 49 39 e7 3d b5 e8 5e 3d 85 37 c7 3c
       0.02858303 0.11290223 0.054421145 0.024318466
0002d0 5b 99 b6 bd 43 77 18 3e 26 e5 60 bd eb 5f a2 bd
       -0.08915969 0.14889245 -0.054906033 -0.07928451
0002e0 0b 53 ba 3d 96 05 8a 3c 94 74 7b 3d d0 34 7d bd
       0.090978704 0.016848367 0.061390474 -0.061817944
0002f0 ff 10 98 3d 46 a7 d9 3d 68 16 9d bc b0 ac 1d 3e
       0.07425117 0.10627608 -0.019175723 0.15397906
000300 3f 99 8f ba 20 b9 f3 3d 2c a6 a3 bc 01 fa c3 3c
       -0.0010955705 0.11900544 -0.019976698 0.023922922
000310 6c db ac bc df 18 26 bd 41 9d ea 3d 04 e8 4b be
       -0.021100722 -0.040551063 0.11455775 -0.19912726

weight f4 [400, 200]
000000 69 18 92 bc 08 c4 07 bd b3 0a 33 3d 0e 9b 8d bd
       -0.017833905 -0.033145934 0.043711375 -0.0691434
000010 58 b2 76 3c 22 27 1b 3d 23 1a c1 bc 62 20 44 bd
       0.015057169 0.037879117 -0.023572033 -0.047882445
000020 98 88 26 bd d8 43 e6 bc 2b 42 6f bc 4e dc aa bc
       -0.04065761 -0.028108522 -0.014603178 -0.020857003
000030 b4 e4 2c bb 69 01 60 bd 78 f0 00 bd a3 45 6c bd
       -0.0026381435 -0.054688845 -0.03147933 -0.0576836
000040 48 3b c3 3b 0f ab 88 3d 10 8c 43 bd 06 3a 01 bd
       0.0059579946 0.06673252 -0.047740996 -0.031549476
000050 4e 97 89 3d ad 39 81 bc 24 74 f2 3c e8 88 26 bd
       0.06718312 -0.015774572 0.029596396 -0.040657908
000060 74 f0 08 bc d1 55 43 3c 88 bd 27 3c 20 38 4b bd
       -0.00835811 0.011922316 0.010238059 -0.04961407
000070 93 0a d6 bc f2 65 52 3d 39 71 52 3d df 99 fc 3c
       -0.026128089 0.051366754 0.05137751 0.03083509
000080 52 37 2a bd 37 75 2a bd bc 7c 91 3c 06 7f 66 3d
       -0.041556664 -0.04161569 0.017759673 0.056273483
000090 00 ca bf ba 5c fe 83 3c ba ea 5c 3d 56 c8 6a 3d
       -0.0014632344 0.016112499 0.05393479 0.05731996
0000a0 3a 5d 5f bd 5c bc 8f 3c 61 56 06 3c a9 5e 93 bd
       -0.054532267 0.017545871 0.008199305 -0.07195789
0000b0 eb d6 ac bc 7b 43 d1 bc 16 f3 93 bd eb 15 86 3d
       -0.021098575 -0.025544873 -0.07224099 0.06547149
0000c0 17 16 01 3c e3 93 9a bb f0 e1 19 3d bc ac 6a 3d
       0.007878802 -0.0047173365 0.037568986 0.05729364
0000d0 70 9f b1 bc eb c1 82 bd 7a 39 0d 3b 00 2f f2 3b
       -0.021682471 -0.06384643 0.0021549151 0.0073908567
0000e0 ef 74 40 bd 80 bb c3 bc c4 a5 a1 bc a0 58 24 bb
       -0.046986517 -0.023893118 -0.019732364 -0.0025077239
0000f0 7a 52 46 3d fa d7 48 bd eb 80 34 bd 94 b7 05 bb
       0.0484185 -0.049034096 -0.04406826 -0.002040361
000100 d5 16 4c bb 80 28 79 3c 8f 4b 1c 3c 14 f9 c5 3c
       -0.0031141539 0.01520741 0.009539499 0.024166621
000110 c0 52 39 3d 20 4c a0 3b e2 16 60 3c c3 dd 89 3d
       0.045244932 0.0048918873 0.013677331 0.06731751
000120 d7 1f 2d 3c 02 e3 6c bd ec 26 e7 bb 5d ae 0b 3d
       0.010566673 -0.05783368 -0.0070542004 0.034101833
000130 ba 4c 86 3d 80 4d 81 bc c9 68 8b bc 00 58 82 39
       0.06557603 -0.015784025 -0.017017739 0.00024861097
000140 61 67 48 bb 7c 97 07 3d 7f 4b 5f bd 01 33 7e 3d
       -0.0030579197 0.03310345 -0.054515358 0.06206036
000150 82 ac 1f bd c0 7c fd 3c 00 ac e0 3c ee de 7f 3d
       -0.038982876 0.030943274 0.027425766 0.06246846
000160 14 0c 72 bd 62 5c 0d 3c fe 3e c7 bc 65 30 6d 3d
       -0.05909355 0.008627983 -0.02432203 0.05790748
000170 22 e8 09 bd 51 5a cd bb a0 71 eb 3c 96 b1 61 3d
       -0.033668645 -0.00626687 0.028740704 0.055101
000180 d2 85 80 3d d1 04 05 bd 90 8a 58 3c 1e 07 3a 3d
       0.06275524 -0.032475296 0.01321663 0.045416944
000190 82 82 3e 3d 3e ee 86 3c 14 a7 63 bc 82 c5 d6 3c
       0.04651118 0.016471025 -0.013894815 0.026217226
0001a0 50 cb 12 bc 01 51 63 bd 5e af 52 bd cf 06 37 bd
       -0.008959606 -0.055497173 -0.051436774 -0.044684228
0001b0 37 a2 d2 3a 5d c8 c5 3c cd 9d ae 3b bc 99 ad bc
       0.0016070072 0.024143392 0.00532887 -0.02119147
0001c0 10 6c c1 3c cd e0 c9 3c 14 2f 9d bc 24 73 c4 3c
       0.023611099 0.024643326 -0.019187488 0.023980685
0001d0 51 e8 d7 bc e4 d6 0b 3d 8b 2d 5c 3d ea 07 6a bd
       -0.026355894 0.034140483 0.05375437 -0.057136454
0001e0 bc 2b f6 3c b1 cf 99 3a 1d 7a 68 bd 08 7f 79 3d
       0.030050151 0.001173487 -0.05675708 0.060912162
0001f0 65 ff 28 bd c4 ab 4f 3c 14 bc 3e 3d 7c 69 06 3c
       -0.04125919 0.012675229 0.046566084 0.00820386
000200 57 76 ae 3c 90 fb 94 bb 60 f0 31 bb 01 96 2c 3d
       0.021296663 -0.00454659 -0.0027151331 0.042135242
000210 88 42 47 3d d0 59 fb 3b 3f c1 91 3c 7e a4 0f 3d
       0.048647434 0.0076706186 0.017792342 0.03506898
000220 7b 56 06 3d 3b 90 76 bb 7c 1e 49 3d 30 32 7d bc
       0.032797318 -0.003762259 0.049101338 -0.01545386
000230 f5 74 4c 3d 19 eb 42 bd e4 93 37 3c a8 8c 0d 3c
       0.049916226 -0.047587488 0.0112046935 0.008639492
000240 1a ab 51 bd dc a7 0d 39 f2 53 85 3d 34 a9 7d 3d
       -0.051188566 0.0001350934 0.06510152 0.061928943
000250 30 30 c0 bb 99 2b d8 3c 67 8f 42 3c a3 64 60 3d
       -0.0058651194 0.026387976 0.01187501 0.054783475
000260 8e 18 1a 3d 1f 69 a9 3c b7 ad 26 3c 45 51 18 3d
       0.037621073 0.020680008 0.010173253 0.03718688
000270 82 29 b1 bc 18 69 ec bc d1 b0 6a bd d6 a8 fb b9
       -0.021626238 -0.028858706 -0.05729753 -0.00048000243
000280 ea 49 ad ba 1e 97 2d bd cd 76 fc 3c 84 71 90 bd
       -0.0013220881 -0.042380445 0.030818367 -0.070529014
000290 c9 07 d9 bc 75 3a bf bc 63 82 ad bb ed b4 5d bd
       -0.02649297 -0.023343304 -0.0052950843 -0.054127622
0002a0 d2 87 49 bd d3 41 32 3c ec c1 6a 3d 97 7b 4b bd
       -0.049201794 0.0108799515 0.057313845 -0.04967841
0002b0 3f a3 49 3d 7b f5 dc 3c 42 93 4d 3d ef 13 88 3d
       0.04922795 0.026972523 0.050189264 0.06644427
0002c0 0f d0 50 bd c9 e6 d5 3b b2 09 a4 3c d8 35 22 3c
       -0.05097967 0.006527756 0.020024154 0.009900533
0002d0 4a b7 e2 bc 6f a8 f7 3b d1 eb 5a 3d 75 0d 33 bd
       -0.02767529 0.0075579206 0.05344755 -0.043714006
0002e0 29 7a 36 3d eb 3d 17 3d 9d 79 19 3d 08 65 45 3c
       0.044550095 0.036924284 0.037469495 0.0120480135
0002f0 74 a4 a1 bc 49 ba 92 3d c0 19 99 bc b6 17 32 bd
       -0.019731738 0.07164437 -0.018689036 -0.043479644
000300 23 6b 2f 3d eb cf 32 3d 28 9d 04 bc dd 2e fe bc
       0.042826783 0.043655317 -0.00809411 -0.031028206
000310 f4 26 91 bb c0 0a bb 39 77 7f 00 bd f4 ed 36 3d
       -0.0044296924 0.0003567543 -0.03137156 0.044660524
000320 92 42 c0 3c 64 e8 87 bd b4 22 f5 bc f4 12 19 3d
       0.023469243 -0.06636122 -0.029923774 0.03737159
000330 f6 1c e3 3c 73 39 85 3d 8d ad 30 bd f8 36 03 3d
       0.02772377 0.06505098 -0.04313426 0.032034844
000340 ba d7 0c bc 04 e3 50 bc 2b b9 53 bd d0 83 ed bb
       -0.008596355 -0.012749437 -0.05169026 -0.0072483793
000350 cc 92 09 bd b2 7f 0f 3d 60 2f 5d 3c 8e 10 84 bd
       -0.033587262 0.03503389 0.013500065 -0.0644847
000360 65 b5 6d bc 72 69 90 bc 75 cb 53 3d 44 77 d3 3c
       -0.01450858 -0.017628405 0.051707704 0.025813706
000370 2d d0 7d bd 49 c9 cc bc ef 4c dc bc 7b 4f f8 bc
       -0.06196611 -0.024998324 -0.026892154 -0.030311337
000380 78 a3 8a bd 1e 7d cf bc cc ca 80 bc 1b 96 51 bd
       -0.067694604 -0.025328215 -0.015721701 -0.051168542
000390 a3 2f a1 bd 00 95 bf ba 26 8d 85 bc cc 97 1c 3c
       -0.07870414 -0.0014616549 -0.016302656 0.009557676
0003a0 0a e1 82 bb 6c ec 29 bd 0d 3c 87 3d fb a7 00 3d
       -0.003994112 -0.041485235 0.06603251 0.0314102
0003b0 95 4b 8b bd 64 53 24 bd 2c 86 15 3d 55 29 80 bd
       -0.068015255 -0.04011859 0.03650491 -0.062578835
0003c0 d5 51 40 bd 0c ca ab bc 98 a5 c8 bb b9 73 6c 3d
       -0.04695304 -0.020970367 -0.006123256 0.05772755
0003d0 14 e6 74 bd fe e4 aa 3b cd 91 7e 3d 42 d2 6a 3d
       -0.059789732 0.0052152863 0.062150765 0.057329424
0003e0 e2 d3 80 bd be fc 20 3d 74 e6 ed bb 7f 83 b3 3c
       -0.062904134 0.039303534 -0.007260138 0.021913288
0003f0 94 da 27 3d 76 b2 41 3d d9 c6 1f ba 40 36 c3 bb
       0.040979937 0.047289334 -0.0006094999 -0.005957395

bias f4 [400]
000000 aa b7 80 3d ab f0 8c 3d e8 80 ae bd 2d 56 7a 3c
       0.06285031 0.06881841 -0.08520681 0.015279335
000010 c6 d2 0e 3e cb 3e 1f bd 94 a8 5d 3c c6 39 dd bc
       0.13947591 -0.038878243 0.013528962 -0.027005088
000020 80 04 2d bd b9 20 0f bd 35 c6 aa bc f6 82 dc 3d
       -0.04224062 -0.034943316 -0.020846466 0.10767166
000030 c5 87 c4 3c 0e 36 9c bd 62 b8 43 bd e4 3c db 3d
       0.023990521 -0.076274976 -0.047783263 0.10704973
000040 c9 37 0b 3d 3e 2e f7 3c 8b 9b c4 3c aa 6b a2 bc
       0.033988748 0.030173417 0.02399995 -0.019826729
000050 91 0c 68 3c ce 7e 92 bc ef 6f 1e bb 01 aa 87 bb
       0.014163152 -0.01788273 -0.0024175604 -0.004140139
000060 5c 16 22 3d 30 99 b6 bb 67 50 aa bd 25 cc 98 3d
       0.039572105 -0.0055724606 -0.08316117 0.074608125
000070 88 82 ee bc be d6 c9 3d ed e0 23 bd 51 8e c1 3c
       -0.029114977 0.09855412 -0.040009428 0.023627432
000080 9f fc 31 bd e7 d2 d2 3d 84 0b 9d 3d 08 fc bf 3c
       -0.04345381 0.10294133 0.07668212 0.023435608
000090 f0 49 03 3d 64 25 2c bd 0b 46 85 bd 44 75 84 3d
       0.032052934 -0.042027846 -0.065075 0.06467679
0000a0 23 2b e1 3d 14 e4 a9 3d b6 b2 67 bc 71 7b 31 3d
       0.10994556 0.082954556 -0.014141729 0.043330614
0000b0 67 94 30 3d 77 a0 89 3c b5 44 0b bd e7 16 88 bd
       0.043110278 0.016800148 -0.03400107 -0.06644993
0000c0 29 d9 f7 3d 67 3c 7b bd 64 55 8d bd e9 e9 85 3d
       0.12101967 -0.0613369 -0.069010526 0.065387554
0000d0 5a e3 4e 3d b0 6b 31 3d 41 4a 05 3e 86 34 79 3c
       0.050509788 0.04331559 0.13016607 0.0152102765
0000e0 30 00 ec 3b 0e 62 26 3d fe 38 87 bd 17 3e f2 bd
       0.007202171 0.040620856 -0.06602667 -0.11828249
0000f0 7d 44 36 3d e0 e9 68 3c 10 9f 85 bd 64 e7 b7 3d
       0.04449891 0.014215916 -0.065244794 0.08979681
000100 9e ab af bd 8e 54 c9 bc 5d a0 ea 3c cf a6 cb bd
       -0.08577655 -0.024576452 0.02864092 -0.099439256
000110 ef c6 7a bd fb 73 23 bd 42 fa 0f 3e 7c 34 21 3c
       -0.061224874 -0.03990553 0.1406031 0.009839173
000120 99 f7 88 3c eb 3a da bc 02 4d 36 bd 95 dc c3 3b
       0.016719626 -0.026639422 -0.044507034 0.005977223
000130 3e 44 b3 3c d0 f9 cf 3c 03 67 84 bd 5a 26 c5 3d
       0.021883126 0.025387675 -0.064649604 0.096264556
000140 00 ad a2 39 7d 1a c3 3c f2 68 08 3d 87 57 d3 3d
       0.00031027943 0.023816342 0.03330321 0.10319429
000150 23 18 45 bd c0 d3 ca 3d fc 51 54 3c bf 21 75 bc
       -0.04811872 0.09903669 0.012959 -0.014961659
000160 41 9e ac bd c6 93 ce bc bc 00 36 bd 65 70 8b 3d
       -0.08428622 -0.025216948 -0.044434294 0.06808547
000170 40 3e 15 bc 99 1e 84 3d aa 10 90 bd 22 7c b1 3d
       -0.00910908 0.064511485 -0.070344284 0.086662546
000180 c4 96 83 3d 40 71 f6 3d 5d fb 60 bd 4f aa 9e 3d
       0.06425241 0.120333195 -0.05492722 0.077473275
000190 f5 23 8e bd c7 1d 80 3d 14 f3 99 bc 62 dc fc 3c
       -0.06940452 0.062556796 -0.018792666 0.030866805
0001a0 85 d6 28 3c 62 57 29 bd 7a 8f 9a 3d 38 62 56 3d
       0.010305052 -0.0413431 0.07546897 0.052339762
0001b0 be f3 3d bd 19 82 94 3c 1f de 0e 3d b9 79 a2 3d
       -0.04637503 0.018128442 0.0348798 0.07933373
0001c0 8b 15 48 bd 16 df 41 bd 49 50 a2 3b 9a e4 e3 3b
       -0.04884867 -0.047331892 0.0049534184 0.0069547417
0001d0 a6 45 75 bd 50 13 30 bd 44 47 8a 3d da ea 61 3d
       -0.059880875 -0.042987168 0.06751874 0.055155613
0001e0 fa ab 02 bc 37 81 2e bd be 05 4e bd d1 70 1c bd
       -0.007975573 -0.042603698 -0.050298445 -0.038193528
0001f0 59 a0 00 3e 5a 92 a9 3d 50 cd c0 3c 40 ff d3 3c
       0.12561168 0.082798675 0.0235354 0.025878549
000200 f4 1a f8 bc 39 49 a6 3d 40 4c f1 bc 37 1d ce bb
       -0.03028629 0.08119435 -0.029455304 -0.006290104
000210 04 80 b0 3d 1e 72 be 3d 73 91 9a 3d a5 d1 e7 3c
       0.08618167 0.0929911 0.075472735 0.028298208
000220 2b 37 56 bd 13 b7 cd 3d 66 70 8b 3d f3 4d 94 3d
       -0.052298706 0.10044684 0.06808548 0.0724143
000230 1f ed e4 3d 56 e6 8b 3d 00 00 36 bd 8e 20 2b bc
       0.1117804 0.068310425 -0.044433594 -0.010444773
000240 0a 29 78 3c 4c 25 ff 3c ae 01 70 3d b6 dd e5 3c
       0.015146503 0.031145714 0.058595352 0.028059822
000250 52 62 64 3c e8 ad 5b bc 0e 0a 05 3d 57 44 80 bd
       0.013939457 -0.013408162 0.032480292 -0.06263035
000260 ba 9c 9f bd bc 41 4b bd 89 a7 82 bd c7 1d 89 bd
       -0.07793565 -0.049623236 -0.06379611 -0.06695133
000270 4d d3 7b 3d 64 85 2e bd ac 10 11 3d aa 19 1d 3d
       0.06148081 -0.04260768 0.03541629 0.038354553
000280 9e 33 e5 bc e9 cf 8a 3d b8 45 24 3c 00 e3 03 bc
       -0.027978715 0.06777937 0.010026388 -0.0080497265
000290 00 27 16 3b 8a b2 d5 3c 30 a2 ea 3d c0 52 6c bb
       0.002291143 0.02608611 0.11456716 -0.0036060065
0002a0 f2 f3 2b bc 25 d8 91 3d 5f 65 ca 3d 25 10 3d bd
       -0.010495173 0.071213044 0.09882616 -0.046157975
0002b0 34 26 93 3b 0e aa 8d 3d 33 cf 9c 3d 0c 91 3a bd
       0.004490638 0.06917201 0.076567076 -0.045548484
0002c0 fc 59 0e bd 35 37 64 bd 16 bd 8e bc 4f 22 7f bd
       -0.034753785 -0.055716712 -0.017424148 -0.06228858
0002d0 89 14 58 3d 87 dc 7f bc 82 c1 8e bc e5 4b 0d 3d
       0.05275396 -0.015616543 -0.017426256 0.034496207
0002e0 a0 be 04 3d 64 02 49 3d d3 4a b5 3d 8e 7b 75 3d
       0.032408357 0.049074546 0.08852162 0.059932284
0002f0 93 26 4b bd b1 1a 53 bd f7 1e 98 3d 5c d3 21 bd
       -0.049597334 -0.051539127 0.07427781 -0.03950821
000300 c0 75 9a 3a 93 e7 82 bd 96 91 f3 3c 0e ee 2f bd
       0.001178436 -0.063918255 0.029732507 -0.042951636
000310 5d ec 04 bd 08 04 83 bd 30 34 8c 3d 06 05 46 3d
       -0.032451976 -0.06397253 0.068458915 0.048344634
000320 05 e5 ac 3d e3 09 cd bd 79 db 88 3d 12 58 00 3d
       0.084421195 -0.10011651 0.06682486 0.03133399
000330 94 ef 0a bd 81 a8 f2 3c 2d 58 9b bd 63 6c 5d bd
       -0.033919886 0.029621365 -0.075851776 -0.054058444
000340 84 05 79 3c 93 d5 51 bd 87 0a e6 3d 44 a8 fc bd
       0.015199069 -0.05122907 0.11232477 -0.123367816
000350 a3 ff 68 3d 8a 0b 93 3d 52 32 67 bd 02 e6 d0 bc
       0.05688442 0.07179935 -0.056444474 -0.025500301
000360 c8 e6 4d 3c 87 07 22 bd ad 12 50 3d 00 4d 4a bc
       0.01256723 -0.03955796 0.05079906 -0.01234746
000370 37 77 13 bd 03 a8 88 3c ce 73 b6 3b c4 5e af 3d
       -0.036002364 0.016681677 0.005568004 0.08562997
000380 e7 86 bf bd 0a 8f 46 3c 9c 00 b5 3c 4f 3e f5 3d
       -0.093519025 0.012119064 0.022095017 0.11974775
000390 ca 09 cf bc ac 00 7a bd a1 53 4a 3d 52 fc 65 bd
       -0.025273222 -0.061035797 0.04939616 -0.056148835
0003a0 96 b6 a2 3d 51 fc 38 bc a8 6c 0a bd 39 f8 48 3d
       0.07944982 -0.011290626 -0.03379503 0.04906485
0003b0 24 92 33 bc e8 f4 1c bd 25 1d 34 3d d2 02 8c bd
       -0.010960136 -0.0383195 0.043973107 -0.068364754
0003c0 6e 0d 10 3d b7 b6 fe 3c b3 94 bc 3d 5d 04 79 3c
       0.035169058 0.031092985 0.092080496 0.015198794
0003d0 63 30 d1 bd 86 ab ae 3c 0d c5 3b bd 20 41 2f bb
       -0.10214307 0.021322023 -0.04584222 -0.0026741698
0003e0 82 6f 01 3d 27 16 d6 bb 4d 05 b9 bc 49 0c da bc
       0.031600483 -0.0065334025 -0.022585535 -0.026617186
0003f0 f7 5c 1c bd 78 a3 40 3d 29 c3 59 bd a3 1b 96 3c
       -0.038174596 0.047030896 -0.053164635 0.018323725

weight f4 [128, 400]
000000 ec 6b 67 3c e0 18 79 bb 1b 0b 26 bd 3d 65 2a bd
       0.014124852 -0.0038009211 -0.040537935 -0.041600455
000010 42 8d b8 3c 28 5a 3a bc 7b 83 1b bd 1b 5b 46 bd
       0.022528294 -0.011374034 -0.037967186 -0.04842673
000020 1b 47 1a bd a0 53 0e 3b e8 10 b9 bb 8d 6d d9 bc
       -0.037665468 0.0021717325 -0.0056477673 -0.026541496
000030 ce 08 e4 3c 04 f3 54 3c 48 f5 2a bc 4d 1c 0b bd
       0.02783623 0.012997393 -0.010434456 -0.033962537
000040 d2 b6 be 3c d0 76 c5 3b 00 df 02 bd 80 fa 5a ba
       0.023280535 0.0060261264 -0.03195095 -0.00083533674
000050 4d c1 d1 bc ed 70 46 bd d6 82 13 bd ea 5e d5 3c
       -0.025604868 -0.04844754 -0.036013447 0.026046235
000060 11 1b 0e 3d 42 66 88 3c 3e f5 27 bd 16 82 c3 3c
       0.03469378 0.016650323 -0.041005366 0.02386574
000070 f3 79 af bc 79 4e 43 3d 76 cf 80 3c a9 a0 2e 3d
       -0.021420455 0.04768226 0.015723925 0.042633686
000080 bd c9 35 3d 13 a7 f8 bc 06 aa 99 3c 82 d3 80 3c
       0.044381846 -0.030353105 0.018757831 0.015725855
000090 73 51 c7 bc a6 b9 0e bd 87 9d 0b 3d 43 f4 45 3d
       -0.02433083 -0.034845017 0.034085777 0.04832865
0000a0 7d fb 18 3d b8 fe 55 bc db 10 19 3d 00 ae 70 ba
       0.037349213 -0.013061218 0.03736959 -0.00091812015
0000b0 35 9f 18 bd 4c 01 2a 3c 19 cc 03 3d 02 5c de 3c
       -0.037261207 0.010376286 0.032177065 0.027143482
0000c0 ee 0b df 3c 68 38 ad 3b 20 f1 2c bc b3 14 48 bd
       0.027227368 0.005286265 -0.010555536 -0.048847865
0000d0 ec 36 69 3c c0 e1 ec bc 8c f4 77 3c e8 64 27 bc
       0.014234286 -0.02891624 0.015133988 -0.010216929
0000e0 22 ec 12 bd d2 99 a0 3c b4 33 2b 3c 41 15 32 3d
       -0.035869725 0.019604597 0.010449339 0.0434773
0000f0 af 69 1d 3d 28 d4 93 bb 83 f1 e9 bc 63 53 b3 bc
       0.038430866 -0.004511375 -0.028557545 -0.021890348
000100 18 18 3d bd 8b bf 45 bd 64 0c 93 bc ca 0c 3f bd
       -0.046165556 -0.048278373 -0.017950244 -0.046643056
000110 4d 66 37 bd a2 76 bb 3c f0 c4 c2 bc 8c 4f 7d 3c
       -0.044775296 0.022883717 -0.023775548 0.01546086
000120 03 af 46 bd 98 95 06 bd 99 b2 1b 3d 16 b0 c9 3c
       -0.048506748 -0.032857507 0.03801212 0.024620097
000130 fa 05 f3 bc 9a e4 9c bc d0 f1 fa 3b 52 ef 81 3c
       -0.029665936 -0.019151974 0.007658221 0.015861187
000140 cc 2a 71 3c ed 67 b0 bc 14 8f 66 bc b9 51 07 3d
       0.014719676 -0.02153393 -0.014072198 0.03303692
000150 83 64 23 bd 82 72 e6 3c ad 4c 06 3d bd 2f 9b bc
       -0.039890777 0.028130773 0.032787967 -0.018943662
000160 ec 1f 6f bc da ff c9 3c 11 3d 00 3d d2 42 bd 3c
       -0.014595013 0.024658132 0.031308237 0.023103151
000170 90 70 b6 bc 07 f7 43 bd 83 07 b8 bc 89 1e 18 3d
       -0.02227047 -0.047843006 -0.02246452 0.037138496
000180 64 01 73 3c a7 e9 46 3d 06 0d 90 3c b0 28 75 3b
       0.0148318745 0.048562672 0.017584335 0.0037408285
000190 f6 09 2b bd 74 77 7b bc 1e 48 99 3c 7a c7 ea bc
       -0.041757546 -0.015348304 0.018711146 -0.028659571
0001a0 bd 66 3b 3d b4 6c 60 3c 34 e1 0e bc 50 cb 5a bb
       0.045752276 0.013697792 -0.008720685 -0.0033385344
0001b0 00 98 cb 39 7f 19 00 3d 86 94 93 3c 74 ff 39 3c
       0.00038832426 0.031274315 0.018015157 0.011352409
0001c0 40 af 63 3a a2 41 bf 3c 23 d6 cc bc c0 fe 78 bc
       0.0008685477 0.023346726 -0.025004452 -0.015197456
0001d0 a6 3f dc 3c 1a 5d ef 3c d8 15 3f bd 22 47 42 bd
       0.026885819 0.029219199 -0.04665169 -0.04743112
0001e0 15 f4 42 bd 3b 72 21 3d 34 5c 56 bc 7d 8f 15 bd
       -0.047596056 0.03941558 -0.013083506 -0.036513794
0001f0 0a e9 8e 3c 1d 97 10 bd 72 f4 cc 3c 67 89 2c 3d
       0.017445106 -0.035300363 0.025018904 0.042123225
000200 c0 2b f2 bb b0 fd 5f bb bb 7b 15 3d 9a 94 89 3c
       -0.0073904693 -0.003417831 0.03649495 0.016794492
000210 fc 50 66 3c 12 70 24 bd d3 24 a9 bc 47 45 46 bd
       0.014057394 -0.04014594 -0.020647442 -0.04840591
000220 aa 59 85 bc 21 1c 4b 3d 26 8b 12 bd bb 7d 16 bd
       -0.016278107 0.049587373 -0.035777234 -0.036741
000230 aa b3 35 bd db 8c 2b bd 30 b2 90 bc 0d b8 07 3d
       -0.044360794 -0.041882377 -0.017663091 0.03313451
000240 3f 56 0a 3d 8a e9 df bc 07 5d 40 bd 40 66 b4 bc
       0.033773657 -0.02733304 -0.046963718 -0.022021413
000250 41 a8 18 3d 47 23 c5 bc 08 82 31 bc 90 8b f0 bb
       0.037269834 -0.024064673 -0.0108342245 -0.007340856
000260 80 2b a7 bc 3a 1e 43 bd 61 44 12 3d 20 c2 48 bd
       -0.020406485 -0.04763625 0.035709742 -0.049013257
000270 90 aa 2f bd b8 c3 66 bc 94 1b 2e 3c 34 68 78 bc
       -0.04288727 -0.014084749 0.010626692 -0.015161563
000280 09 c7 14 3d 34 ae 1a bc 32 f8 87 3c 16 c3 92 3c
       0.036322627 -0.009440947 0.016597841 0.01791529
000290 f4 44 04 bd 4e b1 ca 3c 96 99 94 3c 00 c7 17 bd
       -0.03229232 0.024742749 0.018139642 -0.037055016
0002a0 e0 ad 05 bd fd d5 12 bd 21 52 46 3d f1 09 2e 3d
       -0.032636523 -0.035848606 0.048418168 0.04248995
0002b0 8a 1a d4 3c 51 e9 44 3d 0e d3 9e 3c 1f 92 2e 3d
       0.025891561 0.04807407 0.019387748 0.04261982
0002c0 30 f6 cc bb b0 f2 2d bd e0 f3 3f bc 9f 9b 4c 3d
       -0.006254934 -0.042467773 -0.011715859 0.0499531
0002d0 5c 48 94 bc fb ce 45 3d eb 25 47 3d 1a df d5 bc
       -0.01810091 0.048293095 0.048620146 -0.02610736
0002e0 70 68 eb 3b 22 1b f8 3c e9 88 41 3d 12 c0 d0 3c
       0.007184081 0.030286375 0.04724971 0.025482211
0002f0 77 26 c5 bc d7 5b d3 bc f2 4b 17 bd 40 fc e0 bb
       -0.024066193 -0.025800629 -0.03693766 -0.006866008
000300 00 1e 14 ba 44 11 5c 3c c0 14 9a bc f3 2f 44 bd
       -0.00056502223 0.013431851 -0.018808722 -0.04789729
000310 c0 d5 86 bb 6e aa 9d 3c 31 f2 1e 3d a6 b9 01 bd
       -0.0041148365 0.019246306 0.03880519 -0.03167119
000320 dd 2c dd bc b0 04 12 bb 5a 97 f9 bc b7 6b 3e bd
       -0.026998932 -0.0022280626 -0.030467678 -0.046489444
000330 cd c3 d9 bc c0 48 d5 bb 2c 1e 17 3c 47 db b1 bc
       -0.026582623 -0.0065089166 0.009223502 -0.021711005
000340 c0 b6 1a 3c 18 63 85 bb 46 75 cc 3c 1e b8 08 bd
       0.009442985 -0.004070651 0.024958264 -0.033378713
000350 93 04 20 bd 8a 23 bd bc 6a c2 31 bd d8 a8 97 3b
       -0.039066862 -0.023088235 -0.0433983 0.004628282
000360 44 10 6d 3c 20 e1 43 bc 85 63 06 bd 17 90 9b bc
       0.01446921 -0.011955529 -0.032809753 -0.018989606
000370 50 3f 46 3b 28 2e 0b bc ed 42 1e 3d b8 7a 0f bc
       0.003025014 -0.008494891 0.038638044 -0.008757286
000380 eb b0 2e bd d4 b2 50 3c c7 77 21 3d 62 af 80 3c
       -0.04264919 0.012737948 0.03942087 0.015708629
000390 00 17 33 3b 72 b5 94 3c 16 51 8a 3c d0 66 1f 3b
       0.0027326941 0.018152926 0.016884368 0.0024322756
0003a0 b0 23 00 bd c9 3d 3e 3d 40 3a dc bb 18 c1 1b bc
       -0.031284034 0.04644564 -0.006720811 -0.009506486
0003b0 98 55 b3 3b d7 40 cd bc f3 a0 e7 bc 9a d9 0b bd
       0.00547285 -0.025055332 -0.028274989 -0.034143068
0003c0 7d e2 ef bc 7d 78 36 3d b3 4e fa bc 25 f0 14 3d
       -0.029282803 0.0445485 -0.030555105 0.036361832
0003d0 d5 fd 1d 3d a1 ce 20 3d 62 a9 c8 3c 2c 45 05 3c
       0.03857215 0.039259557 0.02449483 0.008134168
0003e0 46 ed e0 3c 71 df 28 3d 2d 94 b9 bc 1a 1e 0e bd
       0.02745689 0.041228715 -0.022653664 -0.034696676
0003f0 4d 75 1e bd 80 15 9b 3b e7 a6 ca bc 66 25 98 3c
       -0.038686085 0.0047327876 -0.024737788 0.01857252

bias f4 [128]
000000 77 31 a9 bc a4 f6 c3 bd 89 69 60 3c 2e ba 13 3c
       -0.02065347 -0.09568527 0.013697037 0.009016557
000010 b0 3e cd bc c6 b0 34 bc 9d e7 35 bd ed 8c 8e 3c
       -0.025054306 -0.011028474 -0.044410337 0.017401183
000020 f1 a0 ae 3d c4 7d 75 3e 62 1d 24 bd 3a e6 1f 3e
       0.08526791 0.23973757 -0.040067084 0.15615168
000030 40 e0 78 bd 48 cc 61 3d f4 93 3c 3d 0f 43 5f 3c
       -0.060760736 0.05512646 0.046039537 0.013626828
000040 70 a3 fa bb 4f ea c7 3c 28 10 30 bb 2c 88 37 bc
       -0.007648878 0.02440372 -0.0026865099 -0.0112018995
000050 4a b8 43 bd 59 b1 1e bd 1f ce d3 3c 1b e4 e9 bc
       -0.047783174 -0.03874335 0.025855122 -0.028551152
000060 9e ea 90 3c 0f eb 15 bd 16 58 df 3d ad 27 b1 3d
       0.01769 -0.036601122 0.10905473 0.08650146
000070 c0 a1 13 bd 40 50 1a bd 0f f8 cf 3a 10 db b2 3d
       -0.03604293 -0.03767419 0.0015866774 0.08733189
000080 f4 be 06 bd 45 11 e5 bc 94 c1 25 3e d1 37 c9 3c
       -0.03289695 -0.027962336 0.16187125 0.024562748
000090 d7 db 3a bd 98 42 1b 3e 5d 5e 6e bc 9f e9 d8 bb
       -0.045619812 0.15162122 -0.014548865 -0.0066196467
0000a0 fb 45 27 bd 58 e7 17 bd 59 88 0e 3e d6 00 d1 bb
       -0.040838223 -0.03708586 0.139192 -0.0063782735
0000b0 a7 e7 fa 3a 34 8e 99 bd d8 2c 3e 3d 52 70 ad 3c
       0.0019142524 -0.07497826 0.046429485 0.021171723
0000c0 04 67 6d 3c ec 75 d0 3c 98 21 fb b8 d8 4d 0d 3c
       0.014489893 0.025446855 -0.0001197487 0.008624516
0000d0 ed a8 05 3c 38 fe da 3d 26 5e 92 3d f4 e4 48 bc
       0.008157951 0.1069302 0.07146864 -0.012261618
0000e0 40 dd eb 3c f0 6a d3 bb 4f cf 87 bd 9b 21 e1 3d
       0.028792024 -0.006451957 -0.06631338 0.10992738
0000f0 41 28 2e 3d 60 49 aa 3d 27 7b ab 3d ed 35 af 3d
       0.042518858 0.083147764 0.08373099 0.085552074
000100 3b c9 17 bd 49 de 49 3a 69 50 2e 3e a7 66 45 bd
       -0.037057143 0.00077006646 0.17022862 -0.0481936
000110 de 3e ea 3c bc 45 40 bd 89 0a db 3d e1 b0 54 bc
       0.02859443 -0.046941504 0.10695369 -0.012981624
000120 92 a7 dd 3c 4a 86 18 3e 39 63 2c bd 5a bb 06 bd
       0.027057443 0.14894977 -0.042086814 -0.032893516
000130 e1 3a 13 bd 59 2a b9 3d 46 42 45 3e 36 29 5b bd
       -0.035944823 0.0904128 0.19263563 -0.0535061
000140 a6 39 ec 3c cb 20 df bd e4 bc 95 3c 72 c6 a7 3c
       0.028836083 -0.10894927 0.018278547 0.020480368
000150 90 60 23 bd e3 e7 dd 3d 29 4a 07 bd a3 e6 88 3e
       -0.03988701 0.108352445 -0.03302971 0.26738462
000160 ea d6 63 3d 11 46 ef ba 49 46 1d 3e ae 37 0e bd
       0.05562488 -0.0018255134 0.15358843 -0.03472107
000170 36 26 31 3e 94 5a 20 3d c6 3e 99 bd e8 f4 e2 3b
       0.17299733 0.039148882 -0.07482676 0.0069261678
000180 7a 32 57 bc 9c 04 11 3e f0 0e ff 3c 59 70 b2 3d
       -0.013134593 0.14161915 0.031135052 0.08712835
000190 d9 b7 40 3d c7 42 53 3e a5 5d 45 3d 74 30 8f 3d
       0.04705033 0.20630942 0.04818501 0.069916636
0001a0 5d a4 25 bd e7 c5 1d 3e 74 59 1b 3c 80 ae 36 ba
       -0.040439952 0.15407525 0.0094817765 -0.00069687515
0001b0 fd b3 67 bc 30 d6 df bc 04 ff 2a bd 8a 5e 0b bd
       -0.014142034 -0.027323812 -0.041747108 -0.034025706
0001c0 d4 be 0d 3c 35 e6 99 bc 03 1d 81 3d 67 ed d0 3d
       0.008651454 -0.01878653 0.06304362 0.10201531
0001d0 2b 8d 45 bd 71 b6 ae 3c f0 ae ac bc ec 9d 06 3d
       -0.04823033 0.02132723 -0.02107951 0.03286545
0001e0 9d db 19 3c 5f b8 f9 3c 1d a1 16 3d 01 c6 0f 3d
       0.009390739 0.030483423 0.036774743 0.03510094
0001f0 cb a5 c7 3c 7e d5 98 3c 83 3d b8 bc c3 17 48 bb
       0.024371048 0.018656489 -0.022490269 -0.0030531741

weight f4 [64, 128]
000000 cc 37 8a 3c c4 1d da 3c 4f 76 9b 3d c7 44 86 bd
       0.01687231 0.026625521 0.07590925 -0.06556087
000010 fe 7e 48 3d 80 9f 1e 39 ee 19 01 3d 60 56 ea bc
       0.048949234 0.00015127473 0.03151887 -0.02860564
000020 1e d2 73 bc 0d 0c d8 3d 3f 02 5d 3d fb ae c6 bc
       -0.014881639 0.105491735 0.05395722 -0.024253359
000030 3f d8 b1 bd e3 77 ab bc 52 05 91 3d 73 da 98 3d
       -0.08683824 -0.02093119 0.07081093 0.07463541
000040 22 86 15 bd d2 72 3f 3d 62 24 a9 3b 24 b9 5f bd
       -0.036504872 0.04674036 0.005161808 -0.054619923
000050 ee 82 86 bc 52 48 af 39 78 60 67 bc 07 6e 21 bd
       -0.016419854 0.00033432484 -0.014122121 -0.03941157
000060 1c 00 60 bd d4 52 a5 3c 3a 9d e7 3d 35 2a f2 bc
       -0.054687604 0.020181097 0.113092855 -0.029561142
000070 48 e2 1c bd 78 4a 3f bc 2d 1a bc bc cd 93 fb 3d
       -0.038301736 -0.01167547 -0.0229617 0.1228405
000080 51 04 38 bd 9e c2 b3 3c 2b a5 bc 3d 1a 2e ca bc
       -0.04492599 0.021943387 0.09211191 -0.024680186
000090 fc 6b e5 3c 06 5d 4c 3b b1 ae 92 3d b5 af 98 ba
       0.028005593 0.0031183376 0.07162226 -0.0011649044
0000a0 e8 b6 1a 3c d1 60 86 3d 39 cf 6a 3d d8 63 a7 3c
       0.009443022 0.06561435 0.05732653 0.020433351
0000b0 9e 1b d6 bc 48 bf 0d 3c 3f b9 73 bd 33 13 9b bd
       -0.026136216 0.008651562 -0.059502836 -0.07572021
0000c0 2b 9c 88 3d 11 23 91 3d 18 6f 81 3d da 47 12 3d
       0.06670412 0.070867665 0.063200176 0.035713054
0000d0 0f 5f 8d bb 2c ef 47 3d 02 0e aa 3d c9 12 d2 3a
       -0.0043143104 0.048812076 0.08303453 0.0016027327
0000e0 ee 0d 16 3d 07 53 9e bd a7 cb 9e 3d a8 cd f8 3d
       0.036634378 -0.0773068 0.07753687 0.12148601
0000f0 63 bd dd bc e7 17 8d 3d 1b 70 87 3d b8 fa 90 3d
       -0.027067846 0.06889325 0.06613179 0.07079071
000100 a3 4e a7 3d 70 89 ef bb 2f 89 25 bc e6 ed 00 3d
       0.08169296 -0.007310085 -0.010103508 0.031476878
000110 c2 98 55 3d 9c d8 cf bc 22 22 0b 3d 3a 7a 1a 3c
       0.052147634 -0.025371842 0.0339681 0.009428555
000120 4d 18 a6 bd 86 63 06 3e fc 90 da bc bc 32 04 3d
       -0.08110104 0.13123903 -0.026680462 0.032274947
000130 ea 99 2a bd bb 58 9a 3d 9a 33 8f 3d 5b 1a b0 bd
       -0.04165069 0.07536455 0.06992264 -0.08598777
000140 b1 e9 64 3d 35 7a 7a bd 26 48 84 bd d0 cc b9 3c
       0.055886928 -0.061151702 -0.06459074 0.02268067
000150 80 bd 4c 3a 5f 89 85 3d 49 97 a4 3d 50 c1 f9 3d
       0.000781022 0.06520342 0.08036668 0.121950746
000160 e9 24 11 bd c1 81 25 bd c7 ae bf ba 33 97 b2 3d
       -0.03543559 -0.040406946 -0.0014624231 0.08720245
000170 88 74 08 3d dd ca 2d 3c 7d b0 6b bd 48 62 83 3d
       0.033314258 0.010607448 -0.05754136 0.0641523
000180 80 b3 05 3b fb 2c 3c 3d 0c d2 ae 3c 1d 93 62 3d
       0.002040118 0.045941334 0.021340393 0.05531608
000190 93 56 80 bd 25 36 eb 3d 63 9b 90 3d c4 06 36 3d
       -0.06266513 0.114849366 0.07060888 0.044440046
0001a0 66 79 68 bd d8 cd b1 3d 85 99 8b bd ba 00 80 bd
       -0.0567564 0.0868184 -0.06816391 -0.062501386
0001b0 8a 3a d4 3c ae dc 80 bd 24 ea 14 3d 0f c8 d9 bc
       0.02590682 -0.06292091 0.036356106 -0.026584653
0001c0 68 fc 26 bd b2 76 2b bd a1 7e 51 bc cc 74 0a 3e
       -0.040768057 -0.041861244 -0.012786538 0.13521117
0001d0 cc 07 bd bc 1c a7 90 bc f6 22 8d bd d0 a4 a2 3c
       -0.023075007 -0.017657809 -0.06891434 0.01985398
0001e0 5a 73 de 3a a3 12 58 bc b5 3e 83 3d 2d 4e 1f bd
       0.0016971633 -0.013188037 0.06408445 -0.038892914
0001f0 ff 3c 1f bd 28 b8 b6 3c cf e6 91 3d b5 a6 93 bc
       -0.03887653 0.02230461 0.07124101 -0.018023828
000200 06 9d 2b 3d 22 7f 73 bd a9 3a f8 bc 70 67 3e 3d
       0.041897796 -0.059447415 -0.030301409 0.046485364
000210 c9 a3 3d bd ad 2c 4d 3d 64 b0 a1 bd 22 60 0e 3c
       -0.046298776 0.050091434 -0.07894972 0.008689912
000220 90 2c be 3d 4c 59 06 3e ad 00 36 3c fa 9e 9e 3d
       0.09285843 0.13120002 0.01110856 0.07745166
000230 bb 86 a9 bd f6 4f 38 b9 6f da 93 bd 76 d4 61 bd
       -0.08277651 -0.00017577395 -0.07219397 -0.05513426
000240 7c 3c 87 bc ef ec 59 bd ba 2d 91 3d 22 60 60 3d
       -0.016508333 -0.053204473 0.070888 0.05477918
000250 a6 19 b0 3d d0 5a 12 bd e3 54 ad bc 58 78 9a 3c
       0.08598642 -0.035731137 -0.021158641 0.018856212
000260 eb 03 31 bd 9e b2 31 3d 5a cd 4b 3d 47 15 d7 3d
       -0.043216627 0.043383233 0.049756385 0.10502105
000270 d1 eb b1 bd 40 81 2d bc 35 6f 8e bd 08 84 06 bc
       -0.086875565 -0.010589898 -0.06954805 -0.00821019
000280 48 db 5f bd d6 d5 f8 bc 3f e8 d9 3d 7e 31 2b 3c
       -0.054652482 -0.030375402 0.106400006 0.010448812
000290 8a 0a 98 bd 27 d0 5e 3c 73 b2 23 3a 07 ee 25 bd
       -0.07423885 0.013599432 0.00062445475 -0.040510204
0002a0 85 73 38 bd 13 fa 4a bd f5 db 8f 3d 6e 7d c2 3a
       -0.045032043 -0.049554896 0.07024375 0.0014838406
0002b0 4e 84 20 3d ee 82 9c bd 84 32 85 3b 6e d0 4a 3d
       0.039188676 -0.0764216 0.00406486 0.04951518
0002c0 a8 fe 88 3c 46 1e 4f bd 9f df 1a 3b 08 9a 3d bc
       0.016722992 -0.05056598 0.0023631824 -0.011572368
0002d0 3e 71 ac 3d 03 b4 2c 3d 28 73 77 bd 22 47 7e bd
       0.08420037 0.04216386 -0.060412556 -0.062079556
0002e0 13 09 92 3d 7d 26 92 3d 9d 88 86 3d 6c ca 2d bd
       0.07130637 0.07136247 0.06569026 -0.042429373
0002f0 20 88 28 3c 71 f0 87 3d 48 11 b7 bc 21 21 0c 3d
       0.010286361 0.066376574 -0.022347108 0.03421128
000300 a0 00 ce 3b 91 e6 5d bd 7c f8 ac 3d cf c1 9c 3d
       0.0062866956 -0.054174963 0.08445832 0.076541536
000310 85 2f 7f bd 5f eb b0 3d 7c 89 89 3d 54 21 67 3d
       -0.062301178 0.086386435 0.06715676 0.05642827
000320 6c 3b ab bc 6a 09 b6 3d 2c ff 0e bd 00 47 b5 3b
       -0.020902358 0.08888514 -0.03491132 0.0055321455
000330 3c c7 4d bd 65 cb 7d 3d f3 70 95 3d 7c c2 88 3d
       -0.050238833 0.06196155 0.07296934 0.0667772
000340 fe 6b 8e 3d d7 21 4e b9 57 57 0d bd 0c 89 05 bc
       0.069541916 -0.00019658297 -0.034507122 -0.00815035
000350 a0 ef 58 bc c8 67 ad bc 41 67 ff bc 7f fb ba 3d
       -0.013240725 -0.02116765 -0.031177165 0.0913
000360 a5 80 79 3d 25 9d 4f bd ae ed 53 3d b2 38 42 3d
       0.0609137 -0.050686974 0.05174034 0.04741735
000370 4b a1 99 3d 21 f0 6e b9 68 d2 18 3c 05 40 11 3c
       0.07501467 -0.00022786904 0.0093275085 0.008865361
000380 d1 70 42 3c c2 6f e1 3c 0e 01 8c bd 52 b5 94 bd
       0.011867718 0.02751911 -0.06836139 -0.072611466
000390 e5 e9 92 bd ed 5b 03 3e 01 44 a6 3d be 8f 16 3d
       -0.07173518 0.12828036 0.081184395 0.036758177
0003a0 e1 d7 85 3d 22 c3 31 3c 0b 88 b0 3d d7 93 8e bd
       0.06535316 0.010849746 0.08619698 -0.06961792
0003b0 3b 7f 8b 3d d5 70 af bd 3b 99 aa bc 0d ef 36 bd
       0.06811377 -0.08566443 -0.02082502 -0.04466157
0003c0 12 40 5c 3d 83 d0 90 3c 2b 58 c2 bb 8c 12 29 3d
       0.05377204 0.017677551 -0.0059309206 0.041277453
0003d0 66 cf f5 bc dd 9e 93 3d 83 66 4c bd cc 86 ad 3c
       -0.030006122 0.07208035 -0.04990245 0.02118244
0003e0 88 88 2b bc 87 4e 86 bd e2 54 d2 3c 43 05 51 3d
       -0.010469563 -0.06557947 0.02567524 0.05103041
0003f0 4c 77 8b bd 1c 47 11 bd 7a 40 52 3d 01 80 76 3d
       -0.068098634 -0.035468206 0.05133102 0.060180668

bias f4 [64]
000000 ef 61 cf 3d 57 05 85 3e a1 1d ac 3d 13 4e e8 3d
       0.10126101 0.25980636 0.08404089 0.113430165
000010 0c a0 4d 3e 47 8f 75 3e 54 5e 9f 3e bc 1f 68 3e
       0.20080584 0.23980437 0.31126654 0.22668356
000020 06 64 4b 3e 9d 6f bb 3e 27 fa 71 bd 5c fe 4e bd
       0.19862375 0.36608592 -0.059076454 -0.050535545
000030 ff 03 96 bd 89 a6 a0 3d 63 c4 60 3e 25 9a 98 3e
       -0.07324981 0.07844264 0.21949916 0.29805103
000040 02 ec 81 3e 5f 44 cc bc 71 fb 95 3d eb 2f 2b be
       0.25375372 -0.024934946 0.07323349 -0.16717498
000050 ab cf 9f bc 26 72 35 bd 8a e5 8e 3d 42 46 63 3e
       -0.019508203 -0.044298314 0.06977375 0.2219477
000060 4c 85 7f bd 17 74 93 bc e2 0c 20 be be 4c f8 3c
       -0.06238298 -0.017999692 -0.15629914 0.030310031
000070 c2 7f c1 3c 25 29 7c bd a1 8b 20 bd 20 a9 6e 3d
       0.02362049 -0.061562676 -0.03919566 0.05826676
000080 a2 a1 c6 3d ef eb b6 bd d9 65 52 bd 58 bd f0 3c
       0.09698798 -0.089317195 -0.05136666 0.029387161
000090 e5 30 18 bd 8e 2f 0c be 00 77 43 3b d8 39 8f 3d
       -0.037156004 -0.13690016 0.0029825568 0.06993455
0000a0 ac 17 69 3e 7e 74 e0 3d 64 c5 33 3d 70 cb 7d be
       0.22762936 0.10959719 0.04388942 -0.24784636
0000b0 52 fa 92 bd da 7d f0 bc 68 4b 75 bd ed d0 4d 3d
       -0.07176651 -0.029356886 -0.059886366 0.050248075
0000c0 dc 76 97 3e 26 e7 bd bc 0f cd 5b bd 0b d4 16 bd
       0.2958287 -0.02318151 -0.053662356 -0.036823314
0000d0 62 ce 8d bd de b1 17 3d ec 13 72 bd 96 80 8f 3e
       -0.0692413 0.03703486 -0.05910103 0.2802779
0000e0 a2 03 7d 3e 70 fc 06 bc 1c fc ac bd 75 ad 64 bd
       0.24708417 -0.008238897 -0.084465235 -0.055829484
0000f0 50 e2 24 3e ce ed 5d 3d f5 dc 8e 3e ed 35 97 3e
       0.16101956 0.054181866 0.27902952 0.2953333
