pyrotch学习/wr20-20-40000epoch.pth (torch, 817871 bytes, 8 tensors)

weight f4 [200, 100]
0	0xbd099ba4	-0.033595696
1	0xbc599010	-0.013278976
2	0xbda39d02	-0.07988931
3	0xbc7f72a8	-0.015591301
4	0xbd0748c0	-0.033028364
5	0x3d82074d	0.06349049
6	0xbdbf5e07	-0.09344106
7	0xbd4590ba	-0.048233725
8	0x3d9a0f55	0.075224556
9	0xbbfdd3e0	-0.0077462047
10	0x3c130d00	0.008975267
11	0x3d3f850a	0.046757735
12	0xbc5d1600	-0.013494015
13	0x3db307ef	0.087417476
14	0xbd901162	-0.070345655
15	0xbce49bb8	-0.027906284
16	0x3db51921	0.088426836
17	0x3d4fdb0a	0.050746
18	0x3bc8d8d0	0.0061293617
19	0x3cb23028	0.021751478
20	0xbd8036cd	-0.062604524
21	0xbdaad9be	-0.08342312
22	0x3dbc805f	0.09204172
23	0x3adf2080	0.0017023236
24	0x3d2d8442	0.04236246
25	0xbd8bf27c	-0.068333596
26	0xbd839e04	-0.064266235
27	0xbd44f2b7	-0.048083033
28	0xbd8cd63b	-0.06876799
29	0xbd7fb580	-0.06242895
30	0x3cba32c8	0.022729293
31	0xbc0a66d8	-0.008447371
32	0xbd32e5e3	-0.04367627
33	0x3dbff1e7	0.09372311
34	0x3d98715d	0.07443497
35	0x3dafb031	0.08578528
36	0xbd48235a	-0.04886184
37	0x3c06ee70	0.008235559
38	0xbd02c17c	-0.031922802
39	0xbd99dd50	-0.07512915
40	0xbd1135ea	-0.035451807
41	0xbd960c9e	-0.07326625
42	0x3ce305fc	0.027712815
43	0xbcf48fe8	-0.029853776
44	0x3db387c9	0.08766133
45	0xbb740940	-0.0037236959
46	0x3d1d354e	0.038380913
47	0xbd0d151c	-0.03444396
48	0xbdbf95ba	-0.0935473
49	0xbd2960d0	-0.041352093
50	0xbc1c66a8	-0.0095459595
51	0xbda255d3	-0.07926526
52	0x3d58b0fe	0.052903168
53	0x3d5edab2	0.054407783
54	0x3c152750	0.009103611
55	0xbd5178aa	-0.051140465
56	0xbc22cf10	-0.009937063
57	0xbd5b0dad	-0.05347984
58	0xbd73cb90	-0.059520304
59	0xbdbdff92	-0.09277262
60	0xbda7857b	-0.08179756
61	0xbd831516	-0.06400506
62	0x3c8c0a40	0.017094731
63	0xbd0d175a	-0.034446098
64	0xbd80de3d	-0.062923886
65	0x3d10e2de	0.035372607
66	0xbdb96ba8	-0.09053737
67	0x3d5724a2	0.05252517
68	0xbb3704c0	-0.0027926415
69	0x3bb96eb0	0.005658947
70	0x3d3f197e	0.04665517
71	0x3d1517ba	0.03639958
72	0xbb394940	-0.002827242
73	0x3da8836f	0.08228194
74	0x3c7c4858	0.0153981075
75	0xbd8bcc9c	-0.068261355
76	0x3c919e38	0.01777564
77	0x3d09f496	0.03368052
78	0xbdc17535	-0.094461836
79	0x3d549842	0.051903017
80	0xbcba3bcc	-0.022733591
81	0x3ca8a258	0.020585224
82	0x3a245800	0.00062692165
83	0x3d6f74ee	0.058461122
84	0x3d46e386	0.048556827
85	0x3b084e00	0.0020798445
86	0xbd59cf37	-0.05317613
87	0x3da5c883	0.08094885
88	0xbd858b74	-0.06520739
89	0xbdb411a7	-0.087924294
90	0x3dca69eb	0.098834835
91	0x3c908eb8	0.017646179
92	0xbdb62aaa	-0.08894856
93	0xbd00997c	-0.031396374
94	0x3d1a01ae	0.037599258
95	0xbd3d05ea	-0.04614822
96	0x3d293a66	0.04131546
97	0x3cbcf08c	0.02306392
98	0xbcfac0e8	-0.030609563
99	0x3dbdf5c9	0.092753954
100	0xbdaed313	-0.08536353
101	0x3d5c9e32	0.053861804
102	0x3cb1da98	0.021710679
103	0xbd9e1c4e	-0.077202424
104	0x3d8d2521	0.068918474
105	0x3c076d90	0.008265868
106	0x3d8501d5	0.0649449
107	0xbd8b13b8	-0.067908704
108	0xbd825552	-0.0636393
109	0xbd470df3	-0.048597287
110	0xbccce238	-0.025010213
111	0xbc3362e8	-0.010948874
112	0xbd0fa4b0	-0.035069168
113	0x3d6c40d2	0.057679005
114	0xbc302f58	-0.010753475
115	0x3cc379d4	0.023861803
116	0x3d9ef069	0.07760698
117	0xbc882e34	-0.016623594
118	0x3d07c742	0.03314901
119	0xbc6965b0	-0.014245436
120	0x3d8de7bb	0.06928965
121	0xbdb1dc23	-0.08684566
122	0xbd96bf9b	-0.073607646
123	0x3cb92534	0.022600748
124	0xbcef86ac	-0.029239021
125	0xbd668b40	-0.056285143
126	0x3dcbae7b	0.09945389
127	0x3c8f2938	0.01747571
128	0xbc8827d8	-0.016620561
129	0x3d8a13e5	0.06742076
130	0x3d7f52b2	0.062334724
131	0xbcb63c6c	-0.022245608
132	0x3d1c468e	0.038153224
133	0xbd917713	-0.0710279
134	0xbdb9f1ba	-0.09079309
135	0xbd615c70	-0.055019796
136	0xbdc991eb	-0.09842285
137	0xbdb0bc15	-0.08629624
138	0xbd78a6b0	-0.06070584
139	0x3cf44aa4	0.029820748
140	0x3c472098	0.012153767
141	0x3d88c707	0.066785865
142	0x3cc43494	0.023950852
143	0xbd64aca3	-0.0558287
144	0xbdbbaedb	-0.091642104
145	0xbd749bbd	-0.059718836
146	0x3c345c80	0.011008382
147	0x3db797b7	0.08964484
148	0xbc358328	-0.011078633
149	0x3b312960	0.0027032718
150	0xbdb9b227	-0.09067183
151	0xbd2aa517	-0.04166135
152	0x3d512bd6	0.051067196
153	0xbca5668c	-0.0201905
154	0xbd8a6210	-0.06756985
155	0x3d01c2fa	0.031680085
156	0x3c741e18	0.014899753
157	0x3d9ba08f	0.075989835
158	0x3d3ea692	0.046545573
159	0x3c853974	0.016262747
160	0xbd8d5eba	-0.06902833
161	0x3cd10aa4	0.02551777
162	0x3cb2a318	0.021806285
163	0xbd608c27	-0.05482116
164	0xbdc2c7d0	-0.095107675
165	0x3c850308	0.016236797
166	0xbda84ac5	-0.08217386
167	0xbd6f1f70	-0.05837959
168	0xbd81fa04	-0.06346515
169	0x3d9a8e1f	0.07546639
170	0xbd9f38c3	-0.07774498
171	0x3d305b02	0.04305554
172	0xbc76c040	-0.015060484
173	0x3d313fe6	0.04327383
174	0x3da741b7	0.08166831
175	0x3d88e96d	0.066851474
176	0x3db7bbd9	0.08971376
177	0xbce91618	-0.028452918
178	0x3dc2e89d	0.09517024
179	0x3d9eb93f	0.07750177
180	0xbba9bde0	-0.0051801056
181	0xbdb1802a	-0.086670235
182	0xbdc8c1e2	-0.09802605
183	0xbcd64ee8	-0.026160672
184	0xbce115a8	-0.027476147
185	0x3c3faf10	0.011699453
186	0x3d1b22c2	0.037874945
187	0x3db3f16d	0.08786283
188	0xbda8def3	-0.08245649
189	0xbda4d2be	-0.080480084
190	0x3d885a03	0.066577934
191	0xbd6eb35d	-0.058276523
192	0xbc828514	-0.015932597
193	0xbc982f88	-0.018577352
194	0x3d15e3b6	0.036594115
195	0x3d9b5793	0.07585063
196	0xbd3c1343	-0.045916807
197	0x3dbdb72b	0.09263452
198	0xbdb791a8	-0.089633286
199	0xbd49a957	-0.04923376
200	0x3cfcc71c	0.030856661
201	0x3d988a31	0.07448233
202	0x3a846200	0.0010100007
203	0xbbd9d160	-0.006647274
204	0x3d921687	0.07133203
205	0x3b400540	0.0029300004
206	0xbd0e6900	-0.034768105
207	0x3d989829	0.07450897
208	0xbc8d1d94	-0.017226018
209	0xbda7ca8a	-0.08192928
210	0x3d036bc6	0.032085203
211	0xbc92238c	-0.017839216
212	0x3d885043	0.06655934
213	0xbdbd33c8	-0.09238392
214	0xbd8dffe0	-0.0693357
215	0x3cf80a84	0.030278452
216	0xbb3e1940	-0.002900675
217	0x3d60f8ca	0.054924764
218	0xbc978698	-0.018496796
219	0x3bed4ad0	0.0072415844
220	0xbcaa51b4	-0.020790912
221	0x3dc4a5b3	0.09601917
222	0x3d446d0a	0.04795555
223	0x3adecc80	0.0016998202
224	0xbd91e90b	-0.071245275
225	0x3bf1a900	0.0073748827
226	0x3c070b90	0.008242503
227	0xbd33a897	-0.04386195
228	0x3afd5800	0.0019328594
229	0x3ca01e8c	0.019545816
230	0xbd03f234	-0.032213405
231	0xbd9990db	-0.07498332
232	0x3c4dc270	0.012558565
233	0xbd470300	-0.048586845
234	0xbdbbc6f8	-0.0916881
235	0xbd09b3dc	-0.033618793
236	0xbd490fda	-0.049087383
237	0x3cf0ee74	0.029410578
238	0x3c8cab20	0.017171443
239	0x3d8cbf79	0.06872458
240	0xbdc04dd8	-0.093898475
241	0xbd7918aa	-0.060814537
242	0xbd2f637a	-0.042819478
243	0x3c4f2cb0	0.012644932
244	0xbd49abfd	-0.049236286
245	0x3d866403	0.065620445
246	0x3d07c996	0.03315123
247	0x3d5fcbe2	0.054637797
248	0x3dc31e47	0.09527259
249	0xbd2b232a	-0.041781582
250	0xbd08b8a6	-0.03337922
251	0xbdc38da5	-0.09548501
252	0xbbb87820	-0.0056295544
253	0x3d37603e	0.044769518
254	0x3d93e905	0.07222179
255	0xbccc8ce8	-0.024969533

bias f4 [200]
0	0xbc41baf0	-0.0118243545
1	0x390e8600	0.00013592094
2	0xbd6f0e0d	-0.05836301
3	0xbc668f44	-0.014072243
4	0x3e171491	0.14753939
5	0xbccaeab4	-0.024770118
6	0xbd1161ff	-0.035493847
7	0x3c8183eb	0.015809974
8	0x3dde150e	0.108438596
9	0xbd78f45a	-0.060779907
10	0xbd5eeffa	-0.05442808
11	0x3de7c75a	0.1131732
12	0x3d6ffb08	0.05858901
13	0x3cba4386	0.022737276
14	0x3bf2148d	0.0073877038
15	0xbc9f4caa	-0.019445736
16	0x3d336f4f	0.043807324
17	0x3b975660	0.004618451
18	0x3d09d999	0.033654783
19	0x3bcf7264	0.006330775
20	0x3db1bd2f	0.08678662
21	0xbcb45cec	-0.022016965
22	0x3dd112cd	0.10208664
23	0x3d7ff959	0.062493656
24	0x3dc69604	0.09696582
25	0x3db66d8f	0.089076154
26	0xbc4e16c0	-0.012578666
27	0x3e1922b6	0.14954647
28	0x3c6e4007	0.0145416325
29	0x3e4c5cea	0.19957319
30	0xbc215e74	-0.00984918
31	0x3dad96d5	0.084760346
32	0xbca30b74	-0.019902922
33	0xbd098862	-0.03357733
34	0x3e091766	0.13387832
35	0x3d934dda	0.071925834
36	0x3d8fb5c8	0.07017094
37	0xbd539977	-0.051660027
38	0xbccf24c8	-0.025286093
39	0xbd89180d	-0.066940404
40	0x3d3b62b6	0.045748435
41	0x3dae9667	0.08524781
42	0xbd61c0c3	-0.055115473
43	0xbc64c57b	-0.013963099
44	0x3d8dac3a	0.06917615
45	0x3c235f33	0.009971428
46	0xbd7eaa00	-0.062173843
47	0xbdc40427	-0.095711045
48	0x3dbd2243	0.092350505
49	0x3c002dc8	0.007823415
50	0xbd998ecb	-0.07497939
51	0x3c3627b0	0.011117861
52	0x3d1420f3	0.036164235
53	0x3d9426ca	0.07233961
54	0x3e02bb1f	0.12766694
55	0x3c80d034	0.015724279
56	0xbdb70105	-0.08935741
57	0x3dd3d105	0.10342602
58	0x3e06d16a	0.13165823
59	0xbd0dad20	-0.034588933
60	0x3e148ef8	0.14507663
61	0xbce958ac	-0.028484665
62	0xbcdb738f	-0.026788501
63	0xbd5bb7e3	-0.053642165
64	0x3d8cef68	0.068816006
65	0xbdab63d6	-0.083686516
66	0xbc698de4	-0.014255021
67	0x3e355250	0.17707181
68	0x3b1671b9	0.0022955968
69	0x3dbc9c59	0.092095084
70	0xbc1e4a28	-0.009661235
71	0x3d34ba59	0.044123027
72	0x3da35dd3	0.0797688
73	0xbb238360	-0.0024950132
74	0x3e16c0cf	0.14721988
75	0x3d628b2a	0.0553085
76	0x3def7cb2	0.116937056
77	0xbd98bb3b	-0.074575864
78	0xbdb2e9d0	-0.087360024
79	0x3db37a69	0.08763582
80	0x3a3aba47	0.00071230944
81	0x3d5e56c1	0.054281954
82	0x3d190614	0.037359312
83	0x3d0e74fd	0.034779537
84	0x3e0cfa3d	0.13767333
85	0x3e323d32	0.17406157
86	0xbc3feb58	-0.011713825
87	0x3e1839ee	0.14865848
88	0xbd66e013	-0.056366038
89	0x3c981e97	0.018569274
90	0xbd0f2694	-0.0349489
91	0x3e20c9e6	0.15702018
92	0x3b2261dc	0.0024777567
93	0x3d91052a	0.07081063
94	0xbbad06e0	-0.0052803606
95	0x3dc36a53	0.09541764
96	0x3d941ee0	0.072324514
97	0x3d6036d3	0.054739784
98	0xbd28d3d3	-0.041217636
99	0xbdb9d037	-0.09072917
100	0x3e0035cf	0.12520526
101	0xbc9a723e	-0.018853303
102	0xbd322683	-0.04349376
103	0xbdaf0fd0	-0.08547938
104	0x3d81daac	0.063405365
105	0x3de3f3c9	0.11130483
106	0xbc9b3d18	-0.01895003
107	0xbdb0ee6c	-0.08639225
108	0x3c9ae420	0.018907607
109	0x3d27f3fa	0.04100416
110	0xbd1b8153	-0.03796513
111	0xbdadde88	-0.0848971
112	0x3c205098	0.00978484
113	0x3dff65b2	0.12470569
114	0xbcd044d8	-0.025423452
115	0xbccffdab	-0.025389513
116	0x3d53a70e	0.051672988
117	0xbbddea2f	-0.0067723016
118	0x3e041080	0.12896919
119	0x3ca16def	0.01970574
120	0xbd1a9991	-0.03774411
121	0xbda5b963	-0.08092
122	0xbdc19aa3	-0.09453323
123	0x3e2e591b	0.17026179
124	0xbd854dc8	-0.06508976
125	0xbd4f1748	-0.050559312
126	0x3dabf233	0.08395805
127	0x3c4281a8	0.011871733
128	0x3d794ba1	0.06086314
129	0x3d6d1eaa	0.05789057
130	0xbb904139	-0.0044023064
131	0xbda5e3e2	-0.08100106
132	0xbd93be7f	-0.072140686
133	0x3d349062	0.044083007
134	0x3823840c	3.8985207e-05
135	0xbcf89734	-0.030345537
136	0xbdb11bd3	-0.08647885
137	0x3cdbab0c	0.02681496
138	0x3dd94e31	0.10610617
139	0x3e1fe0ff	0.15613173
140	0x3d3cbb7a	0.04607723
141	0xbd31d900	-0.043419838
142	0xbce164c1	-0.027513864
143	0x3dffe9f5	0.12495796
144	0x3d877c87	0.066155486
145	0x3e1b3165	0.15155561
146	0x3e1fde1d	0.15612073
147	0x3d7a77d3	0.06114943
148	0x3e583fa7	0.21118031
149	0xbd8adcb2	-0.067803755
150	0x3db5ca36	0.08876459
151	0x3d8b243e	0.06794022
152	0xbd45afbc	-0.048263296
153	0x3c37e758	0.01122459
154	0xbd5efbfd	-0.054439534
155	0xbd5dbc5d	-0.054134715
156	0x3e36a838	0.17837608
157	0x3d99d77f	0.07511806
158	0xbc478ac0	-0.012179077
159	0xbc853e6c	-0.016265117
160	0xbcc08054	-0.023498692
161	0xbc24eb82	-0.010065915
162	0x3d6ab25f	0.057299014
163	0xbdb99600	-0.09061813
164	0x3e2e73cf	0.17036365
165	0x3da02b1d	0.07820723
166	0xbdbf2fcf	-0.09335291
167	0xbd224d9a	-0.039624788
168	0x3da6e594	0.08149257
169	0x3cbc0027	0.022949291
170	0x3dac234d	0.084051706
171	0xbd3174b0	-0.043324172
172	0x3a67defb	0.00088451774
173	0xbd9bd4f0	-0.07608974
174	0xbcc3f359	-0.023919748
175	0x3ddcb2b2	0.10776271
176	0xbd859c40	-0.06523943
177	0xbdcb658a	-0.099314764
178	0x3d66b1d5	0.056321938
179	0x3d7fb1c1	0.06242538
180	0x3d95a923	0.07307651
181	0x3c59d5bc	0.013295587
182	0xbc848a08	-0.0161791
183	0xbd0a3720	-0.033743978
184	0x3db50bcf	0.08840143
185	0xbceacf40	-0.028663278
186	0x3d5301f3	0.05151553
187	0xbc423b98	-0.011855029
188	0xbdade808	-0.08491522
189	0xbd102b04	-0.035197273
190	0x3d11a5d9	0.035558555
191	0x3d8b282d	0.06794772
192	0x3c85d777	0.016338093
193	0x3d533570	0.051564634
194	0xbd918b6b	-0.0710667
195	0xbd9d3e75	-0.07677928
196	0xbdbea597	-0.093089275
197	0x3ba062af	0.0048945765
198	0xbdcd09be	-0.10011624
199	0x3db0d5ed	0.08634553

weight f4 [400, 200]
0	0xbcba95dc	-0.022776537
1	0xbba61c70	-0.005069308
2	0x3d09afcc	0.03361492
3	0xbd88b5a7	-0.066752724
4	0x3d778835	0.06043263
5	0x3cb131d8	0.021630213
6	0xbd6d90d7	-0.05799946
7	0x3cab0f42	0.020881299
8	0xbb935c26	-0.004497069
9	0x3b901540	0.0043970644
10	0x3cd54204	0.026032455
11	0xbd5964c2	-0.053074606
12	0x3d2d410f	0.042298373
13	0xba7dba93	-0.0009678986
14	0x3d874287	0.06604486
15	0xbc3daf67	-0.011577464
16	0x3d84f015	0.064911045
17	0xbce63e40	-0.028105855
18	0xbd7ac8fe	-0.061226837
19	0x3bc2b44e	0.005941904
20	0x3c342587	0.010995275
21	0xbcca3d32	-0.024687383
22	0xbd0a5fc7	-0.033782747
23	0xbc73c353	-0.014878112
24	0xbd291d0a	-0.04128746
25	0x3d4cac78	0.049969167
26	0x3b952810	0.004551895
27	0xbd1111f7	-0.035417523
28	0xbcf94415	-0.030427972
29	0x3d562107	0.05227759
30	0xbd88a04a	-0.06671198
31	0x3cba3d78	0.022734389
32	0x3d40c838	0.047065943
33	0x3d2072c8	0.039171964
34	0xbc968d85	-0.018378029
35	0x3d0a99dd	0.03383814
36	0xbd885bd8	-0.06658143
37	0xba8ea6c0	-0.0010883436
38	0xbd0b2f7e	-0.03398084
39	0x3d902639	0.070385404
40	0x3d6099b2	0.054834075
41	0x3d0c57cd	0.03426342
42	0xbcad1b4a	-0.021131177
43	0x3d3687c9	0.04456309
44	0x3d46df0b	0.048552554
45	0x3c18992c	0.009313863
46	0xba9a0e80	-0.0011753589
47	0x3d728c5a	0.05921588
48	0xbd6a3fb2	-0.05718965
49	0x3d172837	0.036903586
50	0x3d42a1dc	0.047517642
51	0xbd8cb086	-0.06869607
52	0x3b1355d8	0.0022481587
53	0x3b704b65	0.0036666032
54	0x3cdb1a9f	0.026746092
55	0xbb9a2af0	-0.0047048256
56	0x3cce7a40	0.025204778
57	0x3d80ee38	0.062954366
58	0x3d5ad766	0.053428076
59	0x3d7e7992	0.062127657
60	0x3b7ded46	0.0038746162
61	0x3cc8e604	0.024523742
62	0x3d4e082a	0.050300755
63	0xbce17af8	-0.027524456
64	0x3d791eef	0.060820516
65	0x3d502aae	0.050821953
66	0xbd84f605	-0.06492237
67	0x3c2ba538	0.010476403
68	0xbc9b2727	-0.018939568
69	0x3d077d5e	0.033078544
70	0xbd06cd57	-0.03291067
71	0xbce0cc45	-0.027441153
72	0xbcd3aa09	-0.025837915
73	0x3c4d1db8	0.0125192925
74	0x3c35348e	0.011059893
75	0xbd8808b3	-0.06642284
76	0x3d7641d3	0.06012137
77	0x3d3240be	0.043518774
78	0xbd19b955	-0.037530262
79	0xbd67b286	-0.056566738
80	0xbd6b1816	-0.057396017
81	0x3d06e1fe	0.032930367
82	0xbd0150c2	-0.031571157
83	0xbd1b092c	-0.037850544
84	0x3cca25c3	0.02467621
85	0x3c838127	0.016052796
86	0xbd5387e7	-0.05164328
87	0x3d203fc8	0.039123327
88	0xbd55c34a	-0.052188195
89	0x3c961a4e	0.01832309
90	0xb9abff00	-0.0003280565
91	0x3cfc29be	0.030781623
92	0x3d7a6180	0.06112814
93	0x3bb8f4af	0.005644403
94	0xbd5ad238	-0.053423136
95	0x3d92ace2	0.07161881
96	0xbc0d4f1a	-0.008624816
97	0xbd897a71	-0.06712807
98	0xbc17722c	-0.009243529
99	0xbd7ecdd6	-0.06220802
100	0xbbc1a78a	-0.005909865
101	0xbd5e697f	-0.054299828
102	0xbd10b595	-0.03532942
103	0x3cebc838	0.028781995
104	0x3d89ce60	0.06728816
105	0x3d699efb	0.05703638
106	0x3cd74b30	0.02628097
107	0x3d0dc743	0.03461386
108	0xbcc656be	-0.024211284
109	0x3d909144	0.07058957
110	0xbc1ed22c	-0.009693664
111	0x3cbc6ed0	0.023002058
112	0x3c2e0888	0.010622151
113	0x3d17348e	0.036915354
114	0x3c463acb	0.012098978
115	0xbd54c9a6	-0.05195012
116	0x3b215360	0.0024616346
117	0xbd2f19a2	-0.042749055
118	0xbd1b849c	-0.037968263
119	0x3d904f3e	0.07046364
120	0x3d919b1b	0.07109662
121	0xbbe7efc0	-0.007078141
122	0x3d5b87d6	0.05359634
123	0xbd873793	-0.06602397
124	0xbd88d36f	-0.06680953
125	0xbd5d2497	-0.053989973
126	0xbd72ae96	-0.05924853
127	0x3c8da61c	0.017291121
128	0xbd3fb943	-0.04680754
129	0xbd852506	-0.06501202
130	0xbc9e9289	-0.019356983
131	0x3d3b5d9e	0.045743577
132	0xbd1327ca	-0.035926618
133	0x3ba8b1a0	0.0051481277
134	0x3cb57d7c	0.022154562
135	0xbcbb57d6	-0.022869032
136	0xbd3edac8	-0.046595365
137	0x3d54cc17	0.051952448
138	0xbab15708	-0.0013529966
139	0x3d564e46	0.05232074
140	0xbd4a5e81	-0.049406532
141	0xbcff1c50	-0.03114143
142	0x3d89f6f3	0.06736555
143	0xbd5e8d10	-0.054333746
144	0x3d6c9f91	0.057769362
145	0xbad60a69	-0.0016330007
146	0x3d1377d5	0.036002953
147	0xbc52f3ac	-0.012875479
148	0xbc0da97e	-0.008646367
149	0xbcb66edc	-0.022269659
150	0xbbf3d54e	-0.0074411994
151	0x3c2497c8	0.010045953
152	0x3ac82b95	0.0015271778
153	0x3d0507f2	0.03247828
154	0xbd521ac5	-0.05129506
155	0x3d764a5a	0.0601295
156	0x3d3cf907	0.04613593
157	0x3d49f7ee	0.04930871
158	0xbd2d4a58	-0.042307228
159	0x3d1efb11	0.038813654
160	0x3c30fd28	0.010802545
161	0xbd8b3e46	-0.06798987
162	0xbd79aa30	-0.06095332
163	0xbd3e6264	-0.04648055
164	0xbd715ca7	-0.05892625
165	0x3d297ef9	0.041380856
166	0x3d7e0bae	0.062022857
167	0xba8f9680	-0.0010954887
168	0xbc42e895	-0.011896272
169	0x3d5de036	0.054168902
170	0x3c797274	0.015225042
171	0xbd3233e6	-0.043506525
172	0x3d724ecd	0.05915718
173	0x3d89a3a9	0.06720669
174	0xbd614d1b	-0.055005174
175	0x3d02348d	0.031788398
176	0xbc43ef9c	-0.011958983
177	0x3d8442c7	0.06458049
178	0x3cca126a	0.024666984
179	0x3d911630	0.0708431
180	0x3d86a4c8	0.06574398
181	0xbd27b529	-0.040944252
182	0x3a20e800	0.00061380863
183	0xbcff4d48	-0.03116478
184	0xbcd54714	-0.02603487
185	0x3d822d69	0.063563175
186	0x3d116d50	0.03550464
187	0xbc1b6ec8	-0.0094868615
188	0xbd81ddcd	-0.06341133
189	0x3ba75090	0.0051060393
190	0xbb5e8af4	-0.0033957334
191	0xbd6688d7	-0.056282844
192	0x3cb97995	0.022640983
193	0x3d94ee30	0.07271993
194	0xbce1eac2	-0.027577762
195	0xbd328c9d	-0.04359113
196	0x3d42e4e0	0.047581553
197	0xbc9c24b0	-0.019060463
198	0x3d86b241	0.06576968
199	0xbcaf4733	-0.021396255
200	0xbd33ec68	-0.043926626
201	0x3c92215c	0.017838173
202	0x3d36c284	0.0446191
203	0xbc9e2534	-0.01930485
204	0xbcb1a1d0	-0.021683604
205	0xbd8c281f	-0.0684359
206	0xbd3a996c	-0.04555647
207	0x3c1a2a80	0.009409547
208	0xbd2f46e3	-0.042792212
209	0xbc3f34bc	-0.011670288
210	0x3cd496b8	0.025950775
211	0x3cfccb10	0.030858546
212	0x3c41b738	0.011823468
213	0xbd830868	-0.06398088
214	0xbd848821	-0.06471277
215	0x3d7de716	0.06198796
216	0x3cce05d0	0.025149256
217	0xbd0c38fc	-0.034234032
218	0xbd7ba335	-0.061434943
219	0x3bfe1570	0.0077540204
220	0x3d21978e	0.039451174
221	0x3c0d5e60	0.008628458
222	0xbd17f24f	-0.037096318
223	0xbce18972	-0.02753136
224	0x3d6a0052	0.05712921
225	0xbd497200	-0.049180984
226	0x3c9a4078	0.01882957
227	0x3d117976	0.035516225
228	0x3cd53c3c	0.026029699
229	0xbd0ff6bc	-0.035147414
230	0x3c96ed84	0.018423803
231	0x3d55e3bc	0.052219138
232	0xbd35a0ba	-0.044342734
233	0x3d8cf8c7	0.06883388
234	0x3cd3a978	0.025837645
235	0xbd211cc8	-0.03933409
236	0x3d6b1c52	0.057400055
237	0x3cd2abb8	0.025716648
238	0x3d140b34	0.036143497
239	0xbd8cde04	-0.068782836
240	0x3d77312a	0.06034962
241	0xbd4c3f0a	-0.049864806
242	0x3d21ddf4	0.03951831
243	0xbc9b484a	-0.018955369
244	0xbb6cee40	-0.003615275
245	0x3d8bb1e9	0.06821043
246	0xbd0a2e07	-0.0337353
247	0xbd72e596	-0.05930098
248	0xbca1db14	-0.019757785
249	0x3d58f0ba	0.05296395
250	0xbd870a7b	-0.06593796
251	0x3d414c28	0.04719177
252	0x3d29307c	0.041306004
253	0x3d2c27ea	0.042030253
254	0xbd1a59a2	-0.037683137
255	0xbcb6042a	-0.022218782

bias f4 [400]
0	0xbca72f7f	-0.02040839
1	0xbd8bbcf6	-0.06823151
2	0xbd85e901	-0.065385826
3	0x3d6c6ad2	0.05771906
4	0x3ca4a22c	0.02009686
5	0xbd30efa0	-0.043197274
6	0xbd24f185	-0.040269393
7	0xbd8297f2	-0.063766375
8	0x3d4f5e09	0.05062679
9	0x3d9f511f	0.077791445
10	0xbd7d0075	-0.061768014
11	0x3dc4e0e3	0.09613206
12	0xbc8de3d4	-0.017320551
13	0x3e024b26	0.1272398
14	0x3c34fd9e	0.011046795
15	0xbd3d445b	-0.046207767
16	0x3c3a5fd8	0.01137539
17	0xbd60234e	-0.05472117
18	0x3d1bb461	0.03801382
19	0x3d2df446	0.042469285
20	0x3da3ccde	0.0799806
21	0xbd32bd12	-0.043637343
22	0x3c4f3008	0.012645729
23	0x3d4639dd	0.048395026
24	0x3d0fb0fc	0.035080895
25	0xbc8837da	-0.016628195
26	0x3dc378d4	0.095445305
27	0xbd62bf91	-0.055358473
28	0x3d41acab	0.04728381
29	0xbc448338	-0.011994176
30	0xbcdc6d24	-0.026907511
31	0xbd02e88a	-0.031960048
32	0xbd4597f4	-0.048240617
33	0x3d297132	0.041367717
34	0x3d87786a	0.06614764
35	0x3d6b3a1d	0.057428468
36	0xba8bb09b	-0.0010657491
37	0x3d823c5a	0.063591674
38	0x3d99bf1a	0.07507153
39	0xbce6fe58	-0.028197452
40	0xbd24f5f7	-0.040273633
41	0xbc55359c	-0.01301327
42	0xbd3e98d6	-0.046532474
43	0x3e0a2d2d	0.13493796
44	0x3d34c600	0.04413414
45	0x3de4eeee	0.11178385
46	0xbcb6fc92	-0.022337232
47	0xbd61069d	-0.054937948
48	0xbc82e0bc	-0.015976302
49	0xbd854dba	-0.06508966
50	0xbd074c96	-0.033032022
51	0x3da46795	0.08027569
52	0x3deac3b2	0.11463107
53	0x3dcb890c	0.09938249
54	0xbd8ec5c3	-0.06971314
55	0x3dbdf23e	0.0927472
56	0x3d8d3ac3	0.068959735
57	0xbccf5738	-0.025310144
58	0x3dd1ff8e	0.10253821
59	0x3db2901f	0.08718895
60	0xbcd3f70a	-0.025874633
61	0xbcf9f38a	-0.030511636
62	0x3cc40ab9	0.023930894
63	0x3d05d30b	0.03267197
64	0xbd078642	-0.033087023
65	0xbc2809a0	-0.010256201
66	0xbd2e63e8	-0.042575747
67	0x3e037ce4	0.1284061
68	0x3d59e44d	0.05319624
69	0xbd1b98d4	-0.037987545
70	0xb947fc00	-0.00019071996
71	0x3d14fcd6	0.036373936
72	0xbbffc8b0	-0.0078059062
73	0x3e16e7d3	0.14736871
74	0x3d86e665	0.06586913
75	0x3e201b42	0.15635398
76	0xbcd5472a	-0.02603491
77	0x3ca7756a	0.02044173
78	0x3d80e717	0.06294077
79	0xbcd1a0ea	-0.025589425
80	0x3cf0fc34	0.029417135
81	0xbc1b0ccc	-0.0094635
82	0xbd44b45d	-0.04802357
83	0xbd8b61d2	-0.06805767
84	0x3dc8bbcf	0.09801447
85	0xbcd1df04	-0.025619037
86	0xbd1c8b9b	-0.038219076
87	0x3d311c41	0.043239836
88	0x3dc2c2c6	0.09509806
89	0xbc8c962a	-0.017161448
90	0x3d8f943c	0.07010695
91	0xbd803a6d	-0.06261144
92	0xbc3be3ac	-0.011467855
93	0x3ba37290	0.004988022
94	0xbd0c838f	-0.03430515
95	0x3e11122a	0.14167085
96	0x3dfa5401	0.12223054
97	0x3cac354b	0.021021506
98	0x3e155bfd	0.14585872
99	0xbd40c476	-0.04706236
100	0x3dc9f50e	0.098611936
101	0x3c2ddfba	0.010612423
102	0xbd4a13ad	-0.04933517
103	0x3c0a6a7b	0.0084482385
104	0x3c9b18d4	0.018932737
105	0x3a951fc0	0.001137726
106	0xbd161542	-0.036641367
107	0x3d091ed0	0.03347665
108	0xbd1ea461	-0.038730983
109	0xbcdb611e	-0.026779708
110	0xbb4054c0	-0.002934739
111	0x3d0824d9	0.033238266
112	0x3cd9583b	0.02653133
113	0x3dc7a0b0	0.097474456
114	0xbd08000f	-0.03320318
115	0x3e30a705	0.17251213
116	0x3cbcd2c9	0.023049729
117	0x3d1bfa31	0.038080398
118	0xbd8ed2e6	-0.069738194
119	0x3d8a35ef	0.06748568
120	0x3dc353da	0.09537478
121	0x3d854888	0.06507975
122	0x3da63816	0.08116166
123	0xbd211d4d	-0.039334584
124	0x3dacd755	0.08439509
125	0xbd409298	-0.047014803
126	0xbd7f7ed5	-0.062376816
127	0xbd71821b	-0.05896197
128	0x3d932451	0.07184661
129	0xbc79baf0	-0.015242323
130	0x3e02524e	0.12726709
131	0xbd6ba6fe	-0.057532303
132	0xbd10f8b4	-0.03539343
133	0x3b673720	0.003528066
134	0xbd528477	-0.05139586
135	0xbcdee8a6	-0.027210545
136	0x3d796a7f	0.06089258
137	0xbd70067f	-0.058599945
138	0xbd7e2b3e	-0.062052958
139	0xbd804655	-0.06263415
140	0x3d49134e	0.049090676
141	0xbcdddcfa	-0.027082909
142	0xbd5fab95	-0.054606993
143	0x3d917c39	0.07103772
144	0x3b92b3f0	0.0044770166
145	0xbd67ec4a	-0.056621827
146	0xbd5e886c	-0.05432932
147	0xbd269740	-0.040671587
148	0x3d1fd623	0.039022576
149	0xbd2499e8	-0.04018584
150	0x3cfe3464	0.031030841
151	0x3b821f50	0.003971018
152	0xbd317884	-0.043327823
153	0x3c8c482d	0.01712426
154	0xbd6f3c02	-0.058406837
155	0xbd02d043	-0.031936895
156	0x3d860806	0.06544499
157	0xbd01cdd7	-0.031690445
158	0xbd718796	-0.058967195
159	0x3c1a8118	0.009430192
160	0x3d62254e	0.055211358
161	0x3da2d157	0.07950085
162	0x3b117780	0.0022196472
163	0x3db50cb3	0.08840313
164	0xbd311e77	-0.043241944
165	0x3d1230a4	0.03569092
166	0x3d21ab6a	0.039470114
167	0x3d2014b5	0.039082248
168	0x3e28cb10	0.16483712
169	0xbd6cd14e	-0.057816796
170	0x3dbb1485	0.09134773
171	0xbc610df0	-0.013736233
172	0x3bc6e17b	0.00606936
173	0xbd0862ba	-0.033297278
174	0x3d75f132	0.060044475
175	0x3d1e1f5e	0.038604133
176	0x3db29f7b	0.08721825
177	0x3d8beffd	0.068328835
178	0xbd1aed9d	-0.037824262
179	0x3d107de1	0.035276297
180	0x3d410695	0.047125418
181	0x3da9d13c	0.082918614
182	0x3caefbcc	0.0213603
183	0xbc4ac684	-0.012376431
184	0x3d65410f	0.055970248
185	0xbd6ee5fa	-0.05832479
186	0xbd8eda66	-0.0697525
187	0xbb298c40	-0.002587095
188	0xbd6b860e	-0.05750089
189	0xbd90555a	-0.070475295
190	0xbd871baa	-0.065970734
191	0xbd703bed	-0.0586509
192	0x3b3f2900	0.0029168725
193	0xbd8cd8b2	-0.06877269
194	0x3d1d4c85	0.038403053
195	0x3d723aa3	0.05913795
196	0xbd0c8ce2	-0.034314044
197	0xbcbbd3f8	-0.022928223
198	0x3ca0aa48	0.019612446
199	0x3d29f5f9	0.041494343
200	0x3c524bc8	0.0128354505
201	0xbcad03d0	-0.021119982
202	0x3c8559ba	0.016278137
203	0xbce10012	-0.027465854
204	0xbd0f216f	-0.034943994
205	0xbd8eb1e0	-0.06967521
206	0xbcc66583	-0.024218326
207	0x3e4092fd	0.18806072
208	0x3d11f1f8	0.03563115
209	0xbd3eb68b	-0.046560805
210	0x3d25afba	0.04045079
211	0xbd7f65cf	-0.06235295
212	0xbbbcd4c0	-0.0057626665
213	0xbc34195e	-0.010992376
214	0x3e356678	0.1771487
215	0xbd1abdb5	-0.037778575
216	0xbc8009f4	-0.015629746
217	0x3d003226	0.031297825
218	0x3e19dbac	0.15025204
219	0x3d5ff1f5	0.054674108
220	0x3d907c2c	0.07054934
221	0x3db559a9	0.08854992
222	0x3de07673	0.109600924
223	0x3bf243dc	0.0073933434
224	0x3dc96fb0	0.09835756
225	0x3dd140d6	0.102174446
226	0x3d070b8c	0.032969996
227	0x3cb27804	0.021785744
228	0x3dd42e25	0.10360364
229	0x3ddac842	0.106827274
230	0xbd037986	-0.032098316
231	0xbd701bac	-0.05862014
232	0x3d3f3747	0.046683576
233	0xbd9748cf	-0.07386934
234	0xbd5dcb28	-0.054148823
235	0x3b18376c	0.0023226393
236	0xbd5fb657	-0.054617252
237	0x3c689f4d	0.0141981365
238	0x3d540b48	0.05176857
239	0xbbd8b900	-0.0066138506
240	0x3b5d8620	0.0033801869
241	0xbc02ed30	-0.00799112
242	0xbd0a2c09	-0.0337334
243	0x3d13b2a0	0.036059022
244	0xbd2dc08c	-0.042419955
245	0xbca8653a	-0.020556081
246	0xbc0465da	-0.008080924
247	0xbcdd3fb2	-0.027007911
248	0x3daa5823	0.08317592
249	0xbd436a01	-0.047708515
250	0x3d198b64	0.03748645
251	0xbcc43fbe	-0.023956176
252	0x3d4be6f0	0.049780786
253	0x3c5798e0	0.013159007
254	0x3d9c2634	0.07624474
255	0x3d69f1bd	0.057115305

weight f4 [128, 400]
0	0x3b37a39f	0.002802111
1	0x3d15656f	0.036473688
2	0xbcfb862a	-0.030703623
3	0xbcd7de05	-0.026350984
4	0xbcfe68ad	-0.031055773
5	0x3b8dff90	0.004333444
6	0x3c8521be	0.016251441
7	0xbd2c7885	-0.042107124
8	0xbbf9cd3d	-0.0076233433
9	0x3c027a99	0.0079638
10	0x3bf95b58	0.007609766
11	0x3c22bcdb	0.009932722
12	0xbd0abd9b	-0.033872228
13	0xbc91c4c8	-0.017794028
14	0xbcb4e95d	-0.022083933
15	0x3ca97682	0.020686392
16	0x3b9d3d3b	0.004798559
17	0xbc807410	-0.015680343
18	0xbd0e8084	-0.03479053
19	0xbb1b98dc	-0.0023742234
20	0xbc24272c	-0.010019105
21	0xbc8291ec	-0.015938722
22	0xbd144ec6	-0.036207937
23	0x3d1b8539	0.037968848
24	0x3d2d7b69	0.04235402
25	0x3c703213	0.014660376
26	0x3cec54ec	0.028849088
27	0x3cbbdb72	0.022931788
28	0x3c8860d8	0.016647741
29	0xbd035025	-0.032058854
30	0xbb966830	-0.004590057
31	0xbcf034aa	-0.029321987
32	0xbcce843d	-0.02520954
33	0x3d3c5b6f	0.045985635
34	0x3cf726d3	0.03016988
35	0xbd1ef57e	-0.03880834
36	0x3cb37027	0.021904064
37	0xbbf37000	-0.007429123
38	0xbbd4c457	-0.006493132
39	0x3d3e8f34	0.046523288
40	0x3ca29d32	0.019850347
41	0xbca31f20	-0.019912302
42	0x3d1422c7	0.03616598
43	0x3cc0c588	0.02353169
44	0x3d323f93	0.04351766
45	0x3a12c6b0	0.0005599065
46	0xbc5c0848	-0.013429709
47	0x3ce3fa2e	0.027829256
48	0x3c485680	0.012227654
49	0xbcd7f6da	-0.026362825
50	0xbb84d680	-0.0040538907
51	0xbd0b8f19	-0.034072015
52	0xba8195e5	-0.0009886591
53	0xbd1d3f1a	-0.038390256
54	0xbd24272b	-0.040076416
55	0x3d0215bd	0.031759012
56	0xbd39399e	-0.045220964
57	0x3d06244d	0.032749463
58	0x3cfb29ff	0.030659674
59	0x3ca92c1d	0.020650918
60	0x3cbdeed2	0.023185167
61	0x3c9210f9	0.017830359
62	0xbb31eff1	-0.0027151073
63	0xbd363482	-0.04448367
64	0xbb633320	-0.0034667924
65	0xbcf3365a	-0.029689003
66	0xbc78491a	-0.0151541475
67	0xbd34758f	-0.044057425
68	0xbd236978	-0.039895505
69	0x3b7dee30	0.0038746707
70	0xbd15c0a0	-0.036560655
71	0xbcec322f	-0.028832523
72	0x3cb937f2	0.022609685
73	0x3c4cfd67	0.012511588
74	0xbd49e811	-0.04929358
75	0x3cc490f3	0.023994898
76	0xbd433b1d	-0.047663797
77	0x3d483553	0.04887898
78	0xbcaf9c93	-0.021436965
79	0xbc519a18	-0.0127930865
80	0xb9b7dc4d	-0.00035068617
81	0x3d0ae061	0.03390539
82	0xba3afe80	-0.00071332604
83	0xbbcfd3e8	-0.0063424
84	0xbce0d68d	-0.027446056
85	0xbc71f3e0	-0.014767617
86	0x3c10b9e0	0.008833379
87	0xbc5236f2	-0.012830483
88	0xbd1c35a3	-0.03813709
89	0xbd4b6175	-0.04965349
90	0x3d352e37	0.044233527
91	0xbca2d337	-0.019876106
92	0xbc3dc900	-0.011583567
93	0x3c50e2e4	0.012749407
94	0x3cf53b96	0.02993564
95	0x3cb65e2b	0.0222617
96	0xbd1e308d	-0.03862052
97	0xbd0e5a4c	-0.034754083
98	0x3cc22a2c	0.02370175
99	0xbd4bf06b	-0.049789827
100	0xbc5bafe9	-0.0134086395
101	0xbd3f33d2	-0.04668028
102	0x3d3919a1	0.045190457
103	0x3c40b6dc	0.011762347
104	0x3886a400	6.420165e-05
105	0xbd0738e0	-0.033013225
106	0xbb0eef30	-0.0021810047
107	0xbd3b2fcd	-0.045699883
108	0xbce83090	-0.028343469
109	0xbac2f539	-0.0014874107
110	0xba540c64	-0.00080890046
111	0xbcd4c683	-0.025973564
112	0x3d02f37e	0.031970493
113	0x3b6d5ba6	0.0036217957
114	0xbb69ec00	-0.0035693645
115	0xbc75f196	-0.015011212
116	0x3cc71070	0.02429983
117	0x3d3112e6	0.043230914
118	0xbd2d6eff	-0.042342182
119	0xbb366e81	-0.0027836862
120	0x3d2c3eb8	0.042052
121	0x3c8ff111	0.017571004
122	0xbccdb232	-0.025109384
123	0xbc9def57	-0.019279165
124	0xbd162043	-0.03665186
125	0x3d470921	0.04859269
126	0x3cd926be	0.026507732
127	0x3c236008	0.009971626
128	0x3d03b6bd	0.032156695
129	0xbd0b5f90	-0.034026682
130	0xbd529a34	-0.05141659
131	0x3ccd2a9e	0.025044736
132	0x3d074411	0.033023898
133	0x3d24a8cf	0.04020005
134	0xbcecb47d	-0.028894657
135	0x3d230069	0.039795313
136	0x3d340b33	0.043955993
137	0xbd0df6c2	-0.034659155
138	0xbca5f797	-0.020259662
139	0xbc879260	-0.01654929
140	0x3d47e337	0.048800673
141	0x3c8d0d66	0.017218303
142	0x3cdd6b5e	0.027028736
143	0xbbc5bda9	-0.006034572
144	0xbc8998aa	-0.016796429
145	0x3cac19ec	0.021008454
146	0xbcb8f637	-0.022578342
147	0xbce91583	-0.02845264
148	0x3c6087fe	0.013704298
149	0xbcd5d2b3	-0.026101446
150	0x3cf423fa	0.029802311
151	0xbcd66d23	-0.026175087
152	0xbcb30eaa	-0.021857578
153	0xbd0fab44	-0.03507544
154	0xbd431872	-0.047630735
155	0xbd3480aa	-0.044068016
156	0x3d486492	0.048924036
157	0xbd18828d	-0.037233878
158	0xbd1289e6	-0.03577604
159	0x3c5622c4	0.013069812
160	0x3d1ecf63	0.038771998
161	0x3d2b4738	0.041815966
162	0x3d181843	0.037132513
163	0xbc8dcab6	-0.017308574
164	0xbc24e7b6	-0.01006501
165	0xbbc8dc8b	-0.0061298064
166	0xbc45c798	-0.012071513
167	0x3d0c53f0	0.034259737
168	0xbb95a66a	-0.0045669572
169	0xba145399	-0.0005658209
170	0xbce65b7d	-0.028119797
171	0xbd0c551f	-0.034260865
172	0xbcbdecc8	-0.023184195
173	0xbd1ccf1b	-0.03828345
174	0x3cc06b4f	0.023488669
175	0x3c5fa591	0.013650314
176	0x3c3d003e	0.011535702
177	0xbc3285df	-0.010896175
178	0x3b932418	0.0044903867
179	0x3c88485a	0.016636062
180	0x3abb35ed	0.0014283039
181	0x3bf1f733	0.007384205
182	0xbbe3c8e7	-0.0069514397
183	0x3c7ad86c	0.015310388
184	0xbd08c963	-0.033395182
185	0x3a904c60	0.001100909
186	0xbd3c09cb	-0.045907777
187	0x3cdbcf02	0.026832107
188	0xbcd1a547	-0.025591506
189	0x3cc66c99	0.024221705
190	0x3c614ab7	0.013750724
191	0xbd1dcdf3	-0.038526487
192	0xbbf092b0	-0.0073417053
193	0x3d064945	0.03278472
194	0x3d1deb89	0.038554702
195	0xbd192aed	-0.037394453
196	0xbd48944f	-0.048969563
197	0x3b316800	0.0027070045
198	0x3c2e5af8	0.010641806
199	0x3d155a0e	0.036462836
200	0x3c794d94	0.01521625
201	0x3c4cf174	0.012508739
202	0x3cf98f4f	0.030463843
203	0xbd19fb8d	-0.037593413
204	0xbd456cd0	-0.048199475
205	0x3a9013c0	0.0010992214
206	0xbbbc935a	-0.0057548704
207	0xbcfe0f9d	-0.031013304
208	0xbcdb5438	-0.026773557
209	0xbcb07427	-0.02153976
210	0x3bc2c979	0.0059444276
211	0xbcf0095a	-0.029301334
212	0x3be514b0	0.0069909915
213	0xbc73609a	-0.014854575
214	0x3cae9c50	0.02131477
215	0xbcafb46d	-0.021448338
216	0xbd338ddd	-0.043836463
217	0xbd11b343	-0.035571348
218	0xbcee4262	-0.029084388
219	0x3c202e2d	0.009776634
220	0x3b8aa246	0.0042307703
221	0xbd425d00	-0.047451973
222	0xbcd93013	-0.026512181
223	0x3d3cd932	0.04610557
224	0x3be05491	0.0068460186
225	0xbb8be586	-0.0042693047
226	0xbd289e92	-0.04116685
227	0xbcd59114	-0.026070155
228	0x3d034ecd	0.032057572
229	0x3c423747	0.011853999
230	0x3ca7ccd4	0.020483412
231	0x3cb65a42	0.022259835
232	0x3bd39a7b	0.0064576245
233	0x3d0c4e8f	0.034254607
234	0xbd463578	-0.048390836
235	0x3d3da861	0.046303157
236	0x3d11bd65	0.03558101
237	0xbcccbab0	-0.024991363
238	0xbd23248d	-0.03982978
239	0x3c89bcb6	0.016813617
240	0xbd06fc7c	-0.03295563
241	0x3d42df69	0.04757634
242	0x3d169e6e	0.036772184
243	0x3cd999a2	0.026562516
244	0x3cbeac22	0.023275439
245	0xbcd69c30	-0.026197523
246	0xbb44ddff	-0.0030039547
247	0x3ca7f112	0.020500693
248	0x3ccccc49	0.024999755
249	0xbbd54b30	-0.006509207
250	0xbd3c57b3	-0.045982074
251	0xbd3b2082	-0.0456853
252	0xbb0cfd94	-0.002151345
253	0xbc1f63b8	-0.009728365
254	0x3c7e63ab	0.015526692
255	0xbd2a84fe	-0.041630737

bias f4 [128]
0	0x3cbb6e94	0.022879876
1	0xbc079a54	-0.008276541
2	0xbc2b3de0	-0.010451764
3	0xbc361c20	-0.011115104
4	0x3d739e58	0.05947718
5	0xbcb09320	-0.02155453
6	0x3c5af70b	0.013364564
7	0xbd4dcc81	-0.05024386
8	0xbc85fd20	-0.016356051
9	0x3e461331	0.19343258
10	0xbbb49c28	-0.0055117793
11	0x3db24c78	0.087059915
12	0x3d351bb3	0.04421587
13	0xbd4811d5	-0.04884513
14	0x3e685cb2	0.2269161
15	0xbd27bcc7	-0.040951516
16	0xbd2c5da3	-0.042081486
17	0xbc811bec	-0.015760385
18	0xbd65f81d	-0.056144822
19	0x3e22d5af	0.15901826
20	0xbce1294d	-0.027485514
21	0xbd3ca812	-0.04605872
22	0x3de79eef	0.11309611
23	0xbad1b092	-0.0015998057
24	0xbd12b488	-0.0358167
25	0x3d8662df	0.06561827
26	0xbc081fbf	-0.00830835
27	0xbc363618	-0.011121295
28	0x3de9920d	0.1140481
29	0xbb0c1c00	-0.0021378994
30	0x3db6bee2	0.08923127
31	0x3b912ad0	0.0044301525
32	0xbcfd1b10	-0.030896693
33	0xbbf0b949	-0.0073463065
34	0xbd0e4116	-0.03473004
35	0x3e18c221	0.14917804
36	0x3e04c6a3	0.12966399
37	0x3e325619	0.17415656
38	0xbd17db98	-0.037074655
39	0xbd162cb6	-0.036663733
40	0x3e14b3fa	0.1452178
41	0x3e365161	0.17804481
42	0xbc2e748c	-0.010647904
43	0xbb1b7060	-0.0023718104
44	0x3c361e97	0.011115692
45	0xbc861de2	-0.016371671
46	0x3c6c17f1	0.014410005
47	0xbd28e205	-0.041231174
48	0x3d499c1b	0.04922114
49	0xbb867628	-0.004103441
50	0xbcfdb207	-0.03096868
51	0x3d3c009d	0.045899022
52	0x3d20e0b5	0.039276797
53	0x3cb899c0	0.022534251
54	0xbd188a18	-0.03724107
55	0x3e7d68bc	0.24746984
56	0x3daa3412	0.08310713
57	0x3e12202d	0.14270087
58	0x3dbfb577	0.093607835
59	0xbc838883	-0.016056305
60	0x3c508304	0.012726549
61	0xbcbf75f7	-0.02337168
62	0xbceb2b07	-0.02870704
63	0x3c59b144	0.013286892
64	0xbd45f015	-0.048324663
65	0xbd2301e0	-0.03979671
66	0x3b69d7bb	0.0035681564
67	0x3cf44886	0.029819738
68	0x3d1406a1	0.036139134
69	0xbd4b2d90	-0.049604
70	0x3e4ea550	0.20180249
71	0xbb4b2976	-0.0031000054
72	0xbd014124	-0.031556264
73	0xbd51b1e5	-0.051195044
74	0xb9e2fee0	-0.00043295976
75	0xbd3ae46b	-0.045627993
76	0xbcfdae30	-0.030966848
77	0x3e96a9be	0.29426378
78	0x3d27f1bd	0.041002024
79	0x3e720581	0.23634912
80	0xbd1f071f	-0.03882515
81	0xbcece777	-0.028918965
82	0xbb6a01fc	-0.003570675
83	0x3df1df99	0.11810226
84	0xbb4fe630	-0.0031722896
85	0xbcd99800	-0.026561737
86	0xbced4d18	-0.028967425
87	0xbacf8e09	-0.0015835176
88	0x3c557d84	0.013030414
89	0xbcd268c7	-0.025684727
90	0x3cca7216	0.024712604
91	0x3d040254	0.032228783
92	0x3e5b97e5	0.21444662
93	0xbd262138	-0.040559024
94	0xbd42c158	-0.04754767
95	0x3d6257b0	0.055259407
96	0xbd4080e2	-0.046997912
97	0xbcf0ec40	-0.029409528
98	0xbca2c2d7	-0.019868298
99	0x3a320b42	0.00067918387
100	0x3e3c22fb	0.18372719
101	0xbb937ed8	-0.004501205
102	0x3e182552	0.14857987
103	0xbc6304ab	-0.013856093
104	0x3d0739ad	0.03301399
105	0xbcb8816d	-0.022522653
106	0x3c74c2b1	0.014938996
107	0x3be4d880	0.0069838166
108	0xbc1bb0ec	-0.009502631
109	0xbb139120	-0.002251692
110	0xba87a7ad	-0.0010349654
111	0xbd4a8efd	-0.04945277
112	0x3e48862b	0.19582431
113	0xbc9b0ea3	-0.018927878
114	0x3deab758	0.11460751
115	0x3e414b0c	0.18876284
116	0x3e5e3249	0.2169887
117	0x3e23c138	0.15991676
118	0x3c9f54fe	0.019449707
119	0x3c0e0208	0.0086674765
120	0x3deb10be	0.11477803
121	0xbcac957a	-0.02106737
122	0x3ce7d53f	0.028299926
123	0x3e9b5bdd	0.30343524
124	0x3e344c4b	0.17607228
125	0x3e3f1eea	0.18664137
126	0xbd74d030	-0.059768856
127	0xbce4a470	-0.027910441

weight f4 [400, 128]
0	0x3d38d899	0.04512844
1	0x3bf6a3f0	0.007526867
2	0xbcf43b66	-0.02981348
3	0xbc008398	-0.007843874
4	0xb7bf5e65	-2.281293e-05
5	0xbd649724	-0.0558082
6	0xbbe57a00	-0.007003069
7	0x3db33135	0.0874962
8	0x3d6bfd2e	0.057614498
9	0x3d1cdcd0	0.03829652
10	0xbb17fc00	-0.0023190975
11	0x3db2ee46	0.08736853
12	0xbbcbcac1	-0.0062192385
13	0xbc86ce20	-0.01645571
14	0xbd9134bb	-0.07090136
15	0xbc9742cd	-0.01846447
16	0xbda1fa34	-0.079090506
17	0x3d8c8ef7	0.06863206
18	0x3db40045	0.08789114
19	0x3aa1e6c6	0.0012352101
20	0x3c8d6dd0	0.017264277
21	0x3d6ce46a	0.05783502
22	0xbd32b474	-0.043629125
23	0xbccf6ce1	-0.025320472
24	0xbd2c5fdc	-0.042083606
25	0x3db52ff3	0.08847036
26	0xbd7c5976	-0.061608754
27	0xbd7fb02a	-0.062423863
28	0xbd69d8c6	-0.057091497
29	0x3cc8da10	0.024518043
30	0xbda04811	-0.078262456
31	0xbd9727cf	-0.0738064
32	0x3d9eff39	0.077635236
33	0x3d3365d5	0.043798286
34	0x3b1be7e0	0.0023789331
35	0x3cf5fc83	0.030027634
36	0x3d57f108	0.0527201
37	0x3dbcc652	0.09217514
38	0x3c9d9fdd	0.019241268
39	0xbda89a08	-0.08232504
40	0x3d05560d	0.032552768
41	0x3cc00eb0	0.023444504
42	0x3d63d912	0.055626936
43	0x3d20fb92	0.039302416
44	0x3bbae4e0	0.0057035536
45	0xbceb7098	-0.028740212
46	0x3daf621a	0.08563633
47	0xbda557ee	-0.08073412
48	0xbc6c990e	-0.014440788
49	0xbd39acb0	-0.045330703
50	0x3d148aa8	0.036265045
51	0x3cf9fdd8	0.03051655
52	0x3c541ee5	0.012946819
53	0x3d175743	0.036948454
54	0xbd6980df	-0.057007667
55	0x3ca2599b	0.019818118
56	0xbd67e2d5	-0.05661281
57	0xbc4a53d1	-0.012349085
58	0x3d74333f	0.059619185
59	0x3d4c886a	0.049934782
60	0xbd95d0a2	-0.07315184
61	0x3ba11900	0.0049163103
62	0x3d28d686	0.04122021
63	0xbd658fb6	-0.056045257
64	0xbd9339e2	-0.07188775
65	0xbc6848c7	-0.014177508
66	0x3da34d3b	0.07973715
67	0x3d7437c6	0.059623502
68	0xbd260da5	-0.040540356
69	0x3da06ebf	0.07833623
70	0xbd00e8a0	-0.03147185
71	0x3ca1a30f	0.019731073
72	0x3c865a9a	0.016400624
73	0xbdaa7f27	-0.08325034
74	0x3be7dff0	0.007076256
75	0xbd4031fb	-0.046922665
76	0x3c202e21	0.009776623
77	0x3d056220	0.032564282
78	0xbb9374d9	-0.0045000133
79	0x3dbe83ce	0.093024835
80	0xbc5b03f3	-0.013367641
81	0x3d38926a	0.045061506
82	0x3bc4bd30	0.006003998
83	0x3d5d55b8	0.054036826
84	0xbd8804a6	-0.066415116
85	0xbc9a2668	-0.018817142
86	0xbd258343	-0.040408384
87	0x3da58011	0.08081067
88	0xbc6cbc88	-0.014449246
89	0x3d98b169	0.07455713
90	0xbd69af74	-0.05705209
91	0xbd6f0006	-0.05834963
92	0x3db5f442	0.08884479
93	0x3d22363e	0.03960251
94	0xbd57703d	-0.052597273
95	0xbbd661db	-0.006542427
96	0x3c0ba388	0.008522876
97	0x3cf13eb4	0.029448844
98	0x3bbbeaf0	0.005734794
99	0x3d88a579	0.066721864
100	0x3c8e744d	0.01738944
101	0xbd9e126b	-0.07718357
102	0x3d8fa62f	0.07014119
103	0x3d6c013e	0.057618372
104	0xbd538ba3	-0.05164684
105	0xbcd89668	-0.026438907
106	0xbd1b7781	-0.037955765
107	0x3d2b85fe	0.04187583
108	0x3ca19094	0.01972226
109	0x3d0bb54e	0.034108452
110	0x3d2730c1	0.04081798
111	0x3d9be96f	0.07612883
112	0xbce6736a	-0.028131206
113	0xbd0b10d3	-0.03395159
114	0xbc71278a	-0.0147188995
115	0x3c2c649f	0.010522037
116	0x3d7f30e8	0.0623025
117	0xbd2ceaa7	-0.04221597
118	0xbd2c0b1e	-0.04200279
119	0xbc91865c	-0.017764263
120	0xbd7a66af	-0.061133083
121	0xbd609b53	-0.05483563
122	0xbb15ed35	-0.0022876982
123	0xbd17d645	-0.037069578
124	0x3dbcd205	0.092197455
125	0xbd5e6d12	-0.054303236
126	0x3ccef20b	0.0252619
127	0x3cc6cd54	0.02426783
128	0xbdabac51	-0.08382476
129	0xbd87e32b	-0.06635126
130	0x3caf8020	0.0214234
131	0x3d988951	0.07448066
132	0xbd951dda	-0.07281084
133	0xbd2d3f8c	-0.04229693
134	0xbd53707b	-0.05162094
135	0x3b5c3d20	0.003360577
136	0xbcdfc034	-0.02731333
137	0x3ca0722c	0.019585691
138	0xbd3daf2d	-0.04630964
139	0x3d5c0d42	0.05372358
140	0x3d0718a0	0.03298247
141	0x3cabb6e4	0.020961232
142	0xbd3941ba	-0.045228697
143	0xbd31c1cd	-0.043397713
144	0xbd08cc7b	-0.033398133
145	0x3cf66218	0.030076072
146	0xbc179810	-0.009252563
147	0xbb6dca40	-0.003628388
148	0x3da418b1	0.08012522
149	0x3d4a919a	0.049455263
150	0xbd6d7bc0	-0.057979345
151	0x3d684e0a	0.05671505
152	0x3d0d285c	0.034462318
153	0x3d303cb6	0.04302665
154	0xbda17f94	-0.07885662
155	0x3ccd879c	0.025089078
156	0xbd86ab40	-0.06575632
157	0xbce1bb5a	-0.027555156
158	0x3cf1059c	0.02942162
159	0xbd56f337	-0.05247804
160	0xbd6179e9	-0.055047903
161	0x3c2d9e60	0.010596842
162	0xbd5a3071	-0.053268854
163	0x3d391fde	0.045196407
164	0x3cf23ba0	0.029569447
165	0xbd48e635	-0.049047668
166	0xbd3b2abf	-0.045695063
167	0xbd8556a7	-0.06510668
168	0x3da7824b	0.08179148
169	0x3d1d8a72	0.03846211
170	0x3c91a090	0.017776757
171	0xbda25eaa	-0.07928212
172	0x3ccdca54	0.025120892
173	0xbd2326a7	-0.039831784
174	0xbba63720	-0.0050724894
175	0xbd4df1b7	-0.050279345
176	0xbbb28560	-0.0054480284
177	0x3d822dc1	0.06356383
178	0x3d12e89c	0.035866365
179	0x3d17daea	0.037074007
180	0x3ca94278	0.020661578
181	0xbd0802b9	-0.03320572
182	0xbc10ec88	-0.008845456
183	0xbd3b4727	-0.045722153
184	0xbdad30dd	-0.084565856
185	0xbd09859c	-0.033574685
186	0xbd86f308	-0.06589323
187	0xbda67ae8	-0.08128911
188	0xbd4db438	-0.050220698
189	0x3db3027f	0.087407105
190	0x3c0d0318	0.008606695
191	0x3a99a800	0.0011723042
192	0x3d95aded	0.07308564
193	0x39994500	0.00029233843
194	0x3d8e5cdb	0.069513045
195	0x3d1764d2	0.036961384
196	0x3da1420d	0.07873926
197	0xbd85da6d	-0.06535802
198	0xbd22921e	-0.03969013
199	0x3a21bf00	0.0006170124
200	0xbd99847b	-0.07495972
201	0x3cad2704	0.021136768
202	0x3d378626	0.04480567
203	0xbb712240	-0.0036794096
204	0x3d060da4	0.032727852
205	0xbd6be1b6	-0.0575883
206	0x3ce4dda8	0.027937725
207	0xbd8f2e10	-0.069912076
208	0xbd2828ce	-0.04105454
209	0xbd8d1180	-0.068881035
210	0xbd097906	-0.033562683
211	0xbd7c3db8	-0.061582297
212	0x3d46482a	0.048408665
213	0xbca41ec4	-0.020034201
214	0x3d876839	0.06611676
215	0x3ca6eec4	0.020377524
216	0xbd285513	-0.041096758
217	0xbd806074	-0.06268397
218	0xbca5e158	-0.020249054
219	0xbcc2ec98	-0.023794457
220	0x3d8acf47	0.06777816
221	0x3cab3334	0.020898439
222	0x3cddc2d8	0.027070448
223	0x3d9e0efb	0.07717701
224	0x3da6358f	0.08115684
225	0x3d9ed7d7	0.07756012
226	0xbd999cd5	-0.075006165
227	0xbda35830	-0.07975805
228	0xbccd7890	-0.025081903
229	0xbd81f9dc	-0.06346485
230	0x3d367772	0.044547506
231	0x3d0d0c58	0.0344356
232	0xbc795198	-0.015217207
233	0x3d42a88e	0.047524028
234	0x3cc1b044	0.02364362
235	0x3d0df1b2	0.034654327
236	0xbc78f7d0	-0.015195802
237	0xbc470ef8	-0.012149565
238	0x3d82cd89	0.06386859
239	0x3d06ff5c	0.032958373
240	0xbd57aee3	-0.05265702
241	0xba55bf00	-0.00081537664
242	0xbd8d5254	-0.069004685
243	0xbdb1018e	-0.08642875
244	0xbd03c44c	-0.032169625
245	0xbd843c5c	-0.06456825
246	0x3daf0983	0.08546736
247	0x3d2e94c2	0.042622335
248	0xbd2ad45b	-0.041706424
249	0x3d361bf6	0.04446026
250	0xbd5cedc2	-0.05393768
251	0xbd27cfb5	-0.04096957
252	0x3ccdbe70	0.025115222
253	0x3d31161e	0.043233983
254	0xbd37c27a	-0.0448632
255	0xbd00bbd7	-0.031429138

bias f4 [400]
0	0xbd0ddabd	-0.034632433
1	0x3cd2a86c	0.025715075
2	0x3dae0fed	0.08499131
3	0x3c92d907	0.017925752
4	0x3e307595	0.17232354
5	0x3de7b783	0.11314299
6	0x3e06e940	0.13174915
7	0x3e1215db	0.1426615
8	0xbb0b2b00	-0.0021235347
9	0x3ccd69c8	0.025074854
10	0x3c56e7e4	0.0131168105
11	0x3c016430	0.007897422
12	0x3ccd7d0d	0.025084043
13	0x3d071da0	0.032987237
14	0x3da1fba9	0.079093285
15	0x3d6cac7b	0.057781678
16	0x3e313207	0.1730424
17	0xbd48afdd	-0.04899584
18	0x3e07beaf	0.13256334
19	0xbb12bbce	-0.0022389772
20	0x3e28e9b2	0.16495398
21	0x3c7b1f92	0.015327351
22	0xbc0a3918	-0.008436464
23	0xbcfe55f8	-0.031046852
24	0xbd5637a9	-0.052299175
25	0x3d5398e4	0.05165948
26	0x3e22a4e3	0.15883212
27	0x3e14ccb9	0.1453122
28	0xbdaa416e	-0.08313261
29	0xbcb24cb3	-0.021765089
30	0x3d9f6a96	0.077840015
31	0x3debf878	0.11522001
32	0xbcdd1668	-0.026988223
33	0xb66433fc	-3.4004906e-06
34	0xbd2749ec	-0.04084198
35	0xba6afe00	-0.00089642406
36	0x3e149656	0.14510474
37	0x3e04af33	0.12957458
38	0x3de82328	0.113348305
39	0xbc4f8100	-0.012665033
40	0x3e1616fb	0.14657204
41	0x3c7b3ba1	0.015334041
42	0x3d5320aa	0.051544823
43	0xbd748365	-0.05969562
44	0xbd2bd34a	-0.041949548
45	0x3de30948	0.11085755
46	0x3c9b7517	0.018976731
47	0x3d6c2f46	0.05766227
48	0x3e13167b	0.14364044
49	0xbd2c8731	-0.042121116
50	0xbda9370c	-0.082624525
51	0xbdaed198	-0.085360706
52	0x3dbd5bbb	0.09246012
53	0x3e001abe	0.12510201
54	0x3bc2aaaa	0.005940755
55	0x3da2efaf	0.07955872
56	0x3db8942f	0.09012639
57	0x3e3c9473	0.18416004
58	0x3e1ed44e	0.15510675
59	0x3e0fe860	0.14053488
60	0xbd13e433	-0.0361063
61	0xbc985f54	-0.018600143
62	0xbca0cd9e	-0.019629296
63	0x3cfb0ea7	0.030646635
64	0x3e0e1cb6	0.1387814
65	0x3d1fd072	0.03901715
66	0x3debc43b	0.11512037
67	0x3ce1f2ba	0.027581561
68	0x3e2e57ed	0.17025729
69	0x3de7a3d4	0.113105446
70	0x3e342dd1	0.17595603
71	0xbd75fa28	-0.06005302
72	0x3cf8ad6d	0.030356133
73	0x3db75946	0.089525744
74	0xbd0d19af	-0.034448322
75	0x3c3c664f	0.011499002
76	0x3e01c35c	0.1267218
77	0x3c3d8ab0	0.01156871
78	0x3dc2c7f5	0.09510795
79	0x3d85da72	0.06535806
80	0x3d97c1a1	0.07409979
81	0x3e07004b	0.13183706
82	0xbbc05be0	-0.0058703274
83	0xbd15e872	-0.03659863
84	0x3deace62	0.11465146
85	0x3bbe5263	0.005808161
86	0xbc96a1f6	-0.018387776
87	0x3dc138dd	0.09434674
88	0x3e117e7c	0.14208406
89	0x3dcf9b49	0.1013704
90	0x3c962e88	0.018332735
91	0xbd273c2b	-0.040828865
92	0xbbecbdf0	-0.0072247908
93	0x3da05afa	0.078298524
94	0xbd6185aa	-0.055059113
95	0x3db79de3	0.089656614
96	0x3d1613b5	0.036639888
97	0xbd62f94d	-0.055413533
98	0xbd9b401d	-0.07580588
99	0xbc8c6352	-0.017137203
100	0xbc2e6720	-0.010644704
101	0x3de856ed	0.11344705
102	0xbcb052e8	-0.021523908
103	0x3db53c14	0.088493496
104	0x3d2adc7b	0.041714173
105	0x3db40efc	0.087919205
106	0xbb0abc80	-0.0021169484
107	0x3e200904	0.15628439
108	0xbdb018bb	-0.08598467
109	0xbd0e8bb1	-0.03480119
110	0xbda6fb3d	-0.08153389
111	0x3dc33374	0.09531298
112	0x3de86035	0.11346475
113	0xbdae1485	-0.085000075
114	0xbc145a30	-0.0090547055
115	0x3c130b83	0.008974913
116	0xbcd2c97c	-0.02573084
117	0xbd553cd3	-0.05205996
118	0xbce7272e	-0.028216925
119	0x3e51b67c	0.20479769
120	0xbceac73c	-0.028659455
121	0x3a9d06c0	0.0011980161
122	0x3c09579c	0.008382704
123	0xbd3bc902	-0.045845993
124	0x3e0fadaf	0.14031099
125	0xbd058aee	-0.032603197
126	0xbd35c0d7	-0.04437336
127	0x3dc5ba04	0.0965462
128	0x3ce24d6b	0.027624806
129	0xbc1210f8	-0.0089151785
130	0xbd8105c1	-0.062999256
131	0x3e063c41	0.13108923
132	0x3db42362	0.08795811
133	0xbd6ccd67	-0.057813074
134	0xbd9a1ef9	-0.07525439
135	0xbb6dd160	-0.0036288127
136	0x3d11eca7	0.03562608
137	0x3dc70850	0.09718382
138	0x3d29f786	0.041495822
139	0xbce01dc8	-0.02735795
140	0xbd4bb56f	-0.049733575
141	0xbd2cd620	-0.042196393
142	0x3dfec5ab	0.12440046
143	0xbd1bd11c	-0.03804122
144	0xbb0d6f50	-0.002158124
145	0xbda26cbd	-0.079308964
146	0x3de5b8f2	0.11216916
147	0x3c0a9b3d	0.008459863
148	0xbd87242c	-0.06598696
149	0x3dbf40dd	0.093385436
150	0xbd8bf44c	-0.06833705
151	0x3e0721a8	0.13196433
152	0xbcaa305c	-0.020775013
153	0xbd600c15	-0.054699022
154	0x3db00e98	0.085965335
155	0x3e063492	0.13105991
156	0x3df29b0d	0.1184598
157	0x3db58575	0.088633455
158	0x3e0a918c	0.13532084
159	0x3e18167f	0.14852332
160	0xbd93de37	-0.072201185
161	0x3de6f79d	0.11277697
162	0xbb217f20	-0.0024642423
163	0x3e14bf0c	0.14526004
164	0x3c8148a0	0.0157817
165	0xbd30c0b9	-0.043152545
166	0x3e0ed624	0.13948876
167	0x3d36466c	0.044500753
168	0x3dc2205f	0.094788305
169	0x3e1af557	0.15132652
170	0xbd92ff76	-0.071776316
171	0xbc8b2b34	-0.016988374
172	0xbccc6988	-0.024952665
173	0x3daaaf2e	0.08334194
174	0x3d3667ed	0.044532705
175	0x3de4ac73	0.111657046
176	0x3c2dc5a0	0.0106061995
177	0x3e0ccfa6	0.13751087
178	0x3cacfecf	0.021117596
179	0xbd658c21	-0.05604184
180	0x3c494e90	0.012286797
181	0x3de3ab50	0.1111666
182	0xbca49ae0	-0.020093381
183	0x3d5d9162	0.054093726
184	0x3e01907a	0.1265277
185	0xbccc9284	-0.024972208
186	0x3e2392c4	0.15973955
187	0xbc3b4568	-0.011430122
188	0xbceba98e	-0.028767373
189	0xbdb3e21d	-0.08783362
190	0x3e40a97d	0.18814655
191	0x3e2a2355	0.1661504
192	0xbcca32df	-0.02468246
193	0xbd61d17e	-0.055131428
194	0xbcd4a9d9	-0.025959896
195	0xbc5d9f78	-0.01352679
196	0xbd069dd2	-0.032865353
197	0x3df1a5e5	0.1179922
198	0x3dfb3e74	0.12267771
199	0x3e2a50d2	0.16632393
200	0x3dcdfa2d	0.10057483
201	0x3de95447	0.11393028
202	0x3d0504fe	0.032475464
203	0x3d957567	0.07297783
204	0x3da4ab68	0.08040506
205	0x3d7d5a3a	0.061853625
206	0x3d75ca71	0.060007516
207	0xbd819068	-0.063263714
208	0xbdb4af39	-0.088224836
209	0x3e24611f	0.16052674
210	0x3dacc1e5	0.0843542
211	0xbc84a0d0	-0.016189963
212	0xbcdecaca	-0.027196307
213	0x3e073460	0.13203573
214	0xbb34448a	-0.0027506673
215	0x3e3f39e2	0.18674424
216	0x3cc530bf	0.024071096
217	0xbb5076f6	-0.0031809187
218	0x3e123e02	0.14281467
219	0x3e28d0ce	0.16485903
220	0x3dfd3ce2	0.12365128
221	0xbd22a17c	-0.039704785
222	0x3c8bf565	0.017084787
223	0xbb6794c0	-0.0035336465
224	0x3dc44b9c	0.09584734
225	0x3e206ade	0.15665767
226	0x398ea8e8	0.00027210196
227	0xbd959020	-0.0730288
228	0x3dd0c95a	0.10194655
229	0x3e094b45	0.1340762
230	0x3e011b0e	0.12607977
231	0xbc95289c	-0.01820784
232	0x3e1497bb	0.14511006
233	0x3e1edea9	0.15514626
234	0x3e01e5f8	0.12685382
235	0xbd1d03c3	-0.038333666
236	0xbcf46584	-0.029833563
237	0x3df103b8	0.117682874
238	0xbd8f43a8	-0.06995326
239	0xbd5ed1c3	-0.054399263
240	0xbd301a5e	-0.042993896
241	0x3e057ce4	0.13035923
242	0x3ddd4dc8	0.10805851
243	0x3e091e54	0.13390476
244	0xbd652b42	-0.055949457
245	0x3d6c17dc	0.05763994
246	0x3da29e5a	0.079403594
247	0x3ce472c1	0.02788675
248	0x3dc4cc51	0.09609283
249	0x3b8e8660	0.004349515
250	0x3dbabd02	0.09118082
251	0x3e1a9947	0.15097533
252	0xbdab827c	-0.08374497
253	0x3df1ccaf	0.118066184
254	0x3cc30d46	0.02381004
255	0xbd5c02e6	-0.0537137
