pyrotch学习/wr20-20-60000epoch.pth (torch, 817871 bytes, 8 tensors)

weight f4 [200, 100]
0	0x3d3984f5	0.045292813
1	0x3ca8e4e2	0.020616952
2	0x3cdd5bd5	0.027021328
3	0x3abeae45	0.0014547786
4	0xbbf62d27	-0.007512707
5	0x3cbdc94b	0.023167273
6	0x3d849dfe	0.06475447
7	0x3cf4472a	0.02981909
8	0xbdbc5aa6	-0.09196977
9	0xbdb3ec8a	-0.087853506
10	0xbda46895	-0.0802776
11	0x3d85cbcf	0.06533014
12	0x3d7180fb	0.058960896
13	0xbd90c9d2	-0.07069744
14	0x3cfa2e2e	0.030539598
15	0xbd409514	-0.047017172
16	0xbce0a848	-0.027423993
17	0xbdc71685	-0.09721092
18	0xbdafc75e	-0.08582948
19	0x3cf72b2e	0.030171957
20	0x3d367953	0.044549298
21	0xbd4e85ba	-0.0504205
22	0xbdb4976f	-0.08817946
23	0x3ca5fff9	0.020263659
24	0xbdb5bf67	-0.08874398
25	0xbd5052a4	-0.050860062
26	0x3db1a743	0.08674481
27	0x3d261412	0.040546484
28	0xbd859217	-0.06522005
29	0x3d98318f	0.074313276
30	0xbd0e1593	-0.034688544
31	0xbd65968d	-0.05605178
32	0x3da7f16d	0.08200345
33	0xbd27639b	-0.040866476
34	0x3c692747	0.014230556
35	0x3d3a09c6	0.045419477
36	0xbc04b434	-0.008099604
37	0x3c9f4279	0.019440876
38	0x3db626d9	0.08894128
39	0xbd4aca8c	-0.04950957
40	0x3c6357fc	0.013875958
41	0x3d90944a	0.07059534
42	0xbd8b3bc6	-0.0679851
43	0xbd5f3e49	-0.05450276
44	0xbdb782e4	-0.08960512
45	0xbd114d22	-0.03547395
46	0x3cfcfa10	0.030880958
47	0xbc788f82	-0.015170934
48	0xbc9c9a5f	-0.019116579
49	0xbdb1ac0d	-0.08675394
50	0xbd2b3286	-0.04179623
51	0x3d0b05fb	0.03394125
52	0xbc17e766	-0.009271478
53	0xbd2805f0	-0.041021287
54	0x3d19b157	0.03752264
55	0x3da2caac	0.07948813
56	0x3b1404fa	0.0022585974
57	0x3bb527ea	0.00552844
58	0xbd940576	-0.07227604
59	0x3d866ce8	0.06563741
60	0x3dc88892	0.09791674
61	0x3d52f0b9	0.051499102
62	0x3b9ce165	0.0047876113
63	0xbdac35d4	-0.084087044
64	0x3da05a02	0.07829668
65	0x3d3da214	0.046297148
66	0x3d492dc7	0.049115922
67	0x3d121a62	0.03566969
68	0xbd1ee4c7	-0.038792398
69	0x3dbb166c	0.09135136
70	0xbd57ce0e	-0.052686743
71	0x3d013df2	0.031553216
72	0x3dc7f81c	0.0976412
73	0x3d83c19d	0.06433413
74	0xbd623884	-0.05522968
75	0x3bdb7c19	0.006698143
76	0x3d78764f	0.060659703
77	0x3d6b2d74	0.057416394
78	0xbd8b2fca	-0.067962244
79	0xbd8e0a21	-0.06935526
80	0x3dc69ee9	0.096982785
81	0xbdc15d13	-0.094415806
82	0xbd924fc8	-0.07144123
83	0xbda4cd08	-0.08046919
84	0xbd863951	-0.06553901
85	0x3cecd679	0.028910862
86	0x3d0f7940	0.035027742
87	0x3db6c06b	0.089234196
88	0xbd060f49	-0.03272942
89	0x3c857077	0.016288979
90	0xbcdabfed	-0.026702845
91	0x3d844353	0.064581536
92	0x3d85b86d	0.06529317
93	0x3c272a4b	0.0102029545
94	0x3d2c5e4b	0.042082112
95	0xbd906646	-0.07050757
96	0x3c979533	0.01850376
97	0xbdc4b56d	-0.09604917
98	0x3d333d35	0.043759543
99	0x3daf2bab	0.08553251
100	0x3a9410c0	0.0011296496
101	0x3c8da734	0.017291643
102	0xbd9b621d	-0.07587073
103	0xbd8e393d	-0.06944511
104	0x3d55d5f6	0.052206002
105	0xbd07eca6	-0.03318467
106	0xbdc92e6d	-0.09823308
107	0xbd9ecef0	-0.07754314
108	0xbd853e82	-0.06506063
109	0xbca9a4a0	-0.020708382
110	0xbd400ed0	-0.046889126
111	0x3cacd7a0	0.021098912
112	0x3d8f3c69	0.06993944
113	0xbcf9f440	-0.030511975
114	0xbd966b4e	-0.073446855
115	0xbcb9c248	-0.022675648
116	0x3d05ed26	0.032696865
117	0x3c61a670	0.013772592
118	0xbd142f5c	-0.036177978
119	0xbcca814c	-0.024719857
120	0xbda52ddb	-0.08065387
121	0x3dcb8f3f	0.099394314
122	0x3d895857	0.067063026
123	0x3c43b3e8	0.011944748
124	0xbc697a50	-0.014250353
125	0x3ca948e0	0.020664632
126	0x3c1d8240	0.009613574
127	0x3da2d3b1	0.07950533
128	0xbc4fe500	-0.012688875
129	0xbc8406e8	-0.016116574
130	0x3d87d27f	0.06631946
131	0x3da988fb	0.0827808
132	0xbdbf1ff8	-0.093322694
133	0xbd2ac6cd	-0.041693497
134	0x3d322aa2	0.04349769
135	0x3cb2dd6c	0.021834098
136	0x3b6d86a0	0.0036243573
137	0x3d261eba	0.040556647
138	0xbdb44f5f	-0.08804201
139	0xbcd99880	-0.026561975
140	0xbd7e8603	-0.062139522
141	0xbda91f23	-0.08257892
142	0xbd32fc07	-0.043697383
143	0xbc986594	-0.018603124
144	0x3c2f09c0	0.010683477
145	0x3d35c3fa	0.04437635
146	0xbdbe17e3	-0.092819
147	0xbd60fb10	-0.05492693
148	0xbdaa3002	-0.08309938
149	0x3d789216	0.060686193
150	0x3d0c04fe	0.03418445
151	0xbd899944	-0.06718686
152	0x3d6027b6	0.05472537
153	0xbd952ef8	-0.07284349
154	0xbd609e77	-0.054838624
155	0xbcad9094	-0.021187104
156	0x3cbd85e0	0.023135126
157	0x3d66e402	0.05636979
158	0x3d52b88a	0.05144552
159	0xbd88cb24	-0.06679371
160	0x3d887bdf	0.066642515
161	0x3bd1eb30	0.0064062104
162	0xbd96ca0e	-0.073627576
163	0x3d9bdefb	0.076108895
164	0x3cc0b8c0	0.023525596
165	0x3dc45b23	0.095876954
166	0xbd83980d	-0.06425486
167	0x3d7f4902	0.062325485
168	0x3cecb9b4	0.028897144
169	0x3d83504f	0.06411802
170	0xbd522bb0	-0.051311195
171	0xbd3205bd	-0.043462504
172	0xbdb3d0e2	-0.087800756
173	0xbc0025b0	-0.007821485
174	0x3bd32ba0	0.0064444095
175	0x3d73196e	0.059350424
176	0x3d07e006	0.03317263
177	0xbd3682a7	-0.044558194
178	0x3c937e98	0.0180047
179	0xbd3e93fd	-0.04652785
180	0x3d2e1172	0.042497106
181	0xbc201828	-0.009771384
182	0x3d844db9	0.06460137
183	0x3ccb3b00	0.024808407
184	0x3dc726bd	0.097241856
185	0xbc0fe318	-0.008782171
186	0xbd378627	-0.044805672
187	0xbd29aff3	-0.041427564
188	0xbcfd3258	-0.030907795
189	0xbdb3c0e0	-0.08777022
190	0x3c17b5a8	0.009259619
191	0x3db88c7f	0.090111725
192	0x3b6627c0	0.0035118908
193	0x3da8a5df	0.082347624
194	0x3da13835	0.07872049
195	0x3d588cd2	0.05286867
196	0x3d6ecd2a	0.05830113
197	0xbd24f03d	-0.04026817
198	0x3da2000f	0.079101674
199	0x3d2994aa	0.041401543
200	0x3d6bcf06	0.05757048
201	0xbd0c04dc	-0.03418432
202	0xbd36d9b5	-0.044641215
203	0xbd33af1b	-0.043868165
204	0x3d95fb16	0.073232815
205	0x3cd5a2af	0.02607855
206	0x3cfaf84c	0.030635975
207	0xbb2acd5e	-0.002606235
208	0xbda8b86e	-0.08238302
209	0xbd0228a5	-0.031777043
210	0x3db2016b	0.08691677
211	0x3bf9ac6f	0.0076194326
212	0x3b619412	0.0034420532
213	0x3d337dfa	0.043821312
214	0xbc8dad28	-0.017294481
215	0x3d9699c8	0.0735355
216	0x3d2f9f47	0.042876508
217	0x3c632964	0.013864849
218	0xbcc97466	-0.024591636
219	0x3dc58990	0.096453786
220	0xbd0369eb	-0.032083433
221	0xbceb5564	-0.02872724
222	0xbc482812	-0.012216585
223	0x3d980614	0.07423034
224	0xbd97a89c	-0.074052066
225	0x3d860cf3	0.065454386
226	0xbce6ff6d	-0.028197968
227	0xbd5decbf	-0.054180857
228	0xbdbcd7c6	-0.09220843
229	0x3d593845	0.05303218
230	0xbd996f3a	-0.07491918
231	0x3d3f3a74	0.046686605
232	0xbd8b8cbe	-0.06813954
233	0x3ba5a8d0	0.0050555244
234	0x3db55309	0.08853728
235	0x3db75160	0.08951068
236	0x3dbb9942	0.09160091
237	0x3d3f6f2c	0.04673688
238	0xbd117d87	-0.035520103
239	0xbc519648	-0.0127921775
240	0x3dc47e0d	0.09594355
241	0x3b457edb	0.0030135426
242	0x3da3ac59	0.07991857
243	0x3c58f3e5	0.013241743
244	0x3daadd61	0.08343006
245	0x3bc81fcc	0.006107306
246	0x3d12343c	0.035694346
247	0x3cbfec0e	0.02342799
248	0x3dcf8bee	0.10134111
249	0xbc9d69d0	-0.019215494
250	0x3c8cc090	0.017181665
251	0x3dc9adb8	0.09847587
252	0x3d9163c0	0.07099104
253	0xbdbf08f1	-0.09327877
254	0xbc9afc2e	-0.018919077
255	0xbd2e8f9b	-0.04261742

bias f4 [200]
0	0x3ced2030	0.028946012
1	0xbda236d5	-0.07920615
2	0x3d8ec63c	0.06971404
3	0xbcf467d4	-0.029834665
4	0x3e19d769	0.15023579
5	0x3e203c77	0.15648066
6	0xbd8d8643	-0.06910374
7	0xbd31d38a	-0.04341463
8	0xbca9a96c	-0.02071067
9	0xbdb5568d	-0.08854399
10	0x3e18b019	0.14910926
11	0x3df5f988	0.12010485
12	0xbd93d77c	-0.07218835
13	0x3c3a0524	0.011353765
14	0x3d37657f	0.04477453
15	0x3d991115	0.07473961
16	0x3db9f978	0.090807855
17	0x3df09448	0.117470324
18	0x3db477f0	0.08811939
19	0xbc39c168	-0.011337616
20	0xbdb39af0	-0.08769786
21	0xbdc2177b	-0.09477135
22	0xbd8d7e5e	-0.06908868
23	0x3c486135	0.012230207
24	0x3d80867e	0.06275652
25	0xbdb58285	-0.08862785
26	0x3e420945	0.18948849
27	0xbdaa6e57	-0.08321827
28	0x3e1d6d21	0.1537366
29	0x3d2e6e9e	0.04258596
30	0xbd00ae36	-0.03141614
31	0xbd3ee897	-0.046608534
32	0x3d4fcb7a	0.05073116
33	0x3b95504b	0.004556691
34	0x3e633d64	0.22191387
35	0xbc848f4c	-0.01618161
36	0xbcc63f88	-0.024200216
37	0x3c6dce03	0.014514449
38	0x3ca1d5c6	0.019755255
39	0xbd290ce5	-0.041272063
40	0x3e7551c2	0.2395697
41	0x3e0dfcd6	0.1386598
42	0x3da46a34	0.08028069
43	0x3cc900a4	0.024536438
44	0x3d7ed5e7	0.062215712
45	0xbd889c30	-0.066704154
46	0x3e503fa0	0.20336771
47	0xbc2d3550	-0.010571793
48	0x3e57dd0a	0.21080413
49	0x3cc7377b	0.024318447
50	0xbd087074	-0.03331037
51	0x3d58a1a0	0.052888513
52	0x3d866175	0.06561557
53	0x3d822c59	0.06356115
54	0x3e2b6234	0.1673668
55	0x3d900740	0.07032633
56	0x3e035aa7	0.1282755
57	0x3e34a328	0.17640364
58	0xbd3f97dd	-0.046775687
59	0x3caca143	0.02107299
60	0x3c92d718	0.01792483
61	0xbd89b670	-0.0672425
62	0x3d5fdf09	0.054656062
63	0xbcaeb03d	-0.021324271
64	0xbd6e62c7	-0.05819967
65	0x3dd4eb00	0.10396385
66	0xbdac6212	-0.08417143
67	0x3e5a7bd3	0.21336298
68	0xbdbe72bd	-0.09299228
69	0x3d471daa	0.048612274
70	0x3d1e1d7a	0.03860233
71	0x3d72d649	0.05928639
72	0x3d3dd24c	0.046343133
73	0x3d5ea76a	0.054358877
74	0x3d858da7	0.06521159
75	0x3d04a671	0.032385293
76	0xbd30bdb2	-0.043149658
77	0xbcca0bd7	-0.024663849
78	0x3dde5109	0.108553
79	0xbdca8ada	-0.09889765
80	0x3d83a51f	0.06427979
81	0x3dd02e10	0.10165036
82	0xbd856b9a	-0.06514664
83	0x3e284eb6	0.16436276
84	0xbccecd28	-0.02524431
85	0x3de4c86b	0.11171039
86	0x3be73460	0.007055804
87	0xbcf663dd	-0.030076915
88	0xbdb775bb	-0.08958002
89	0x3dc18898	0.09449881
90	0xbd95d1e0	-0.07315421
91	0xbd92328b	-0.071385466
92	0x3e29b9fb	0.16574852
93	0x3c8a068f	0.01684883
94	0x3cb05ff8	0.021530136
95	0x3d408774	0.04700418
96	0xbd764b4b	-0.0601304
97	0x3d34cf5d	0.04414307
98	0xbd24bc49	-0.040218625
99	0x3d9ee429	0.07758362
100	0xbdaa9bf6	-0.083305284
101	0x3e0fd5a5	0.14046343
102	0x3e2cf78b	0.16891305
103	0xbda14c26	-0.07875852
104	0x3e004ef2	0.12530115
105	0x3d17a5c6	0.03702333
106	0x3e02100b	0.12701432
107	0xbd04854a	-0.032353677
108	0xbd26e753	-0.04074795
109	0x3de80bd1	0.11330379
110	0xbc8b1394	-0.016977109
111	0xbc7e18f9	-0.015508884
112	0x3dfd6fd5	0.12374846
113	0x3cdf51a7	0.027260615
114	0xbdbfcc30	-0.093651175
115	0xbdbcf4ba	-0.092263654
116	0x3e151efe	0.14562604
117	0xbcd58334	-0.02606354
118	0xbd80b91e	-0.06285308
119	0xbc2770ec	-0.010219794
120	0x3d8259db	0.06364795
121	0x3dc90fbc	0.09817454
122	0xbda59813	-0.080856465
123	0xbdc4b3d3	-0.09604611
124	0x3e2d7b36	0.16941532
125	0x3ba43d7c	0.0050122123
126	0xbcac1ae8	-0.021008924
127	0xbd5994b0	-0.053120315
128	0xbd2908d2	-0.041268177
129	0x3e186888	0.14883626
130	0x3da6386b	0.081162296
131	0x3e112f8a	0.14178291
132	0xbd98aae5	-0.074544705
133	0xbd0b134a	-0.033953942
134	0xbd63e820	-0.055641294
135	0xbb0c31f4	-0.002139208
136	0x3d71e428	0.059055477
137	0xbc3543f0	-0.011063561
138	0x3da40b9d	0.080100276
139	0x3e11d0eb	0.14239852
140	0x3da45743	0.08024456
141	0xbcb18662	-0.021670524
142	0x3d9d1804	0.07670596
143	0xbd471387	-0.048602607
144	0x3de1312d	0.10995708
145	0x3d855e28	0.065120995
146	0x3dc3a2a7	0.09552508
147	0x3d034cde	0.03205573
148	0x3c707465	0.014676188
149	0xbd5f7310	-0.05455309
150	0xbd59cd84	-0.05317451
151	0x3d130614	0.03589447
152	0x3d7fcc7d	0.062450875
153	0xbd2fc817	-0.04291543
154	0x3dbcfcf1	0.09227932
155	0xbd6d34a7	-0.05791154
156	0x3da2642f	0.07929265
157	0x3cad1fd4	0.02113334
158	0x3cbffb6c	0.023435317
159	0x3d17a7fb	0.037025433
160	0x3de34da5	0.11098794
161	0x3d377e0a	0.044797935
162	0x3c1f5976	0.009725919
163	0x3c498450	0.012299612
164	0xbd17a9b0	-0.03702706
165	0xbd97f4ca	-0.07419737
166	0xbdbd1083	-0.09231665
167	0x3e4b1d42	0.1983538
168	0x3d356458	0.04428515
169	0xbd85fbda	-0.065421775
170	0x3df55e55	0.11980883
171	0x3a8d303a	0.0010771819
172	0xbdac3fd5	-0.084106125
173	0x3d81e3ff	0.06342315
174	0xbc973f2c	-0.01846274
175	0x3ccf22f4	0.025285222
176	0x3c3a8b27	0.011385716
177	0x3d500c33	0.050792884
178	0x3c77a365	0.01511464
179	0xbd9e86e0	-0.07740569
180	0x3d0a8d6b	0.033826273
181	0x3cbc9d31	0.023024173
182	0xbc181717	-0.009282849
183	0xbdcb67fb	-0.09931942
184	0xbc9cc69a	-0.01913767
185	0x3ddde230	0.108341575
186	0xbc43c79c	-0.011949446
187	0x3d4b2352	0.04959423
188	0x3cb95674	0.022624232
189	0xbd7df9da	-0.062005855
190	0xbd9fee83	-0.078091644
191	0xbb8ef2b0	-0.0043624267
192	0xbd9b7653	-0.07590928
193	0x3df1b4a5	0.11802033
194	0x3d59edb8	0.053205222
195	0xbdb480f8	-0.08813661
196	0xbd3406d0	-0.04395181
197	0xbd932610	-0.07184994
198	0xbd7ef087	-0.062241104
199	0xbdab30e2	-0.08358933

weight f4 [400, 200]
0	0x3b96d6f2	0.00460326
1	0x3d635f2e	0.055510692
2	0x3cc8c949	0.024510043
3	0x3c2234a0	0.009900242
4	0x3c5d85e1	0.013520689
5	0x3d5b919a	0.053605653
6	0x3bf41742	0.0074490616
7	0xbd14c826	-0.03632369
8	0xbd039710	-0.032126486
9	0x3cbddc70	0.023176402
10	0x3d6b4180	0.057435513
11	0xbd1ab46f	-0.03776973
12	0x3d1e2bff	0.038616177
13	0xbd87d72d	-0.066328384
14	0xbd6f1b7f	-0.05837583
15	0xbc044173	-0.008072245
16	0x3d936b77	0.07198232
17	0xbc725fdc	-0.0147933625
18	0xbcfe20ff	-0.031021593
19	0xbb420a40	-0.002960816
20	0x3b017fc0	0.0019759983
21	0xbd2859c6	-0.04110124
22	0xbd184922	-0.03717912
23	0x3d12da0c	0.035852477
24	0xbc5d30b3	-0.01350038
25	0xbc2df86c	-0.01061831
26	0xbd3df9c8	-0.046380788
27	0xbd842d40	-0.06453943
28	0x3c7ec7fc	0.01555061
29	0x3d125d96	0.03573378
30	0xbd26723d	-0.04063629
31	0xbbc07b90	-0.005874105
32	0x3d8a01c9	0.06738622
33	0x3d6d085b	0.057869297
34	0x3d0cf61e	0.034414403
35	0x3a2fee00	0.0006711185
36	0xbca58a0a	-0.020207424
37	0x3d2d0f4c	0.042250916
38	0x3b8ee778	0.0043610893
39	0x3c767c13	0.01504423
40	0xbd216aa5	-0.039408345
41	0x3d03dc61	0.03219259
42	0x3d5fa2b4	0.054598525
43	0xbd58089b	-0.05274258
44	0x3cbb3a90	0.022855073
45	0x3d5ebe2a	0.054380573
46	0xbd570caf	-0.05250233
47	0x3d1d2e1e	0.03837406
48	0xbcccce0a	-0.02500059
49	0x3cd1e68c	0.025622629
50	0xbd12f643	-0.035879385
51	0x3c46e736	0.012140086
52	0xbd35a2cb	-0.044344705
53	0x3d2421e6	0.04007139
54	0x3d23f9c2	0.04003311
55	0xbc0d1a9f	-0.008612304
56	0xbd5bd8f4	-0.0536737
57	0xbcfb25a5	-0.030657599
58	0xbd8796bd	-0.06620548
59	0xbce33ddf	-0.027739463
60	0xbc8a30fe	-0.016869064
61	0x3acfee40	0.0015863851
62	0xbcbfe8e7	-0.023426486
63	0xbd4d279a	-0.050086595
64	0xbd43d9dc	-0.04781519
65	0x3da51afb	0.08061787
66	0x3b4e20c0	0.0031452626
67	0x3bc03c5d	0.005866571
68	0x3d20255e	0.039098136
69	0xbc5c9588	-0.013463385
70	0x3d07ee7a	0.033186413
71	0xbd029cdc	-0.031887874
72	0xbd2c7d0d	-0.042111445
73	0xbcafb9a7	-0.02145083
74	0xbd5e9792	-0.054343767
75	0x3b8beb97	0.004270028
76	0xbd5bde2a	-0.05367867
77	0xbc0f0631	-0.0087295035
78	0x3c3fbe77	0.011703125
79	0x3d8c1b33	0.06841125
80	0xbc7f1d29	-0.015570917
81	0x3d6f864f	0.058477696
82	0xbc3f3184	-0.01166952
83	0x3d7401ac	0.059571907
84	0xbd574aec	-0.052561685
85	0x3c638d1e	0.013888625
86	0x3d77952e	0.060445003
87	0x3d6aa06d	0.0572819
88	0x3d52d574	0.051473096
89	0x3d4dc3d3	0.05023558
90	0xbd896161	-0.06708027
91	0xbc80c04c	-0.015716694
92	0x3daca6fd	0.08430288
93	0x3d419d1d	0.047268976
94	0xbc0e273e	-0.008676348
95	0xbd0d508b	-0.03450064
96	0x3d2e8a3f	0.04261231
97	0xbcabac77	-0.020956261
98	0xbd8148b6	-0.06312697
99	0x3d6f983e	0.0584948
100	0x3d0401be	0.032228224
101	0x3d3ba459	0.04581103
102	0x3c80ca40	0.01572144
103	0x3bc2b250	0.0059416667
104	0x3d97d3d9	0.074134536
105	0x3ce83a58	0.028348133
106	0xbd0be8c2	-0.034157522
107	0x3c9457e4	0.018108316
108	0x3d813b07	0.06310087
109	0x3d115355	0.035479862
110	0xbcdb071c	-0.026736788
111	0xbcc766f5	-0.024341086
112	0x3d70c7f4	0.05878444
113	0xbd8120b8	-0.06305069
114	0x3d00f9e6	0.03148832
115	0xbd864570	-0.06556213
116	0xbd6da4a0	-0.058018327
117	0xbb25d2e0	-0.0025302693
118	0xbb954570	-0.0045553967
119	0xbb92d9eb	-0.0044815443
120	0xbd24d773	-0.04024453
121	0x3d293364	0.041308776
122	0xbc54e548	-0.012994118
123	0x3ce7c7f0	0.02829358
124	0x3d776620	0.06040013
125	0xbc9925f8	-0.018694863
126	0xbd82ac1d	-0.06380484
127	0xbd03cc5a	-0.032177307
128	0xbd12df3a	-0.035857417
129	0xbd90ceef	-0.070707195
130	0x3d2e9856	0.042625748
131	0x3d0bf61f	0.034170266
132	0xbd8ec40f	-0.06970989
133	0x3d01d72c	0.031699345
134	0x3d6c6a52	0.057718582
135	0x3d5c4d91	0.05378491
136	0x3d1c8324	0.038211003
137	0xbcadd854	-0.021221317
138	0xbd15692b	-0.03647725
139	0xbd4327df	-0.047645446
140	0x3d63516c	0.05549757
141	0x3d7b214a	0.061311044
142	0x3c929347	0.017892493
143	0x3d4c9874	0.049950078
144	0xbd451115	-0.048111994
145	0xbbc9c272	-0.006157213
146	0x3d9c0611	0.076183446
147	0x3cef7acc	0.029233359
148	0x3d52af8d	0.05143695
149	0xbd3e720b	-0.04649548
150	0xbd343740	-0.043998003
151	0x3d32d462	0.043659575
152	0x3d285b7f	0.041102882
153	0x3d8343ef	0.06409442
154	0x3d7879e7	0.06066313
155	0xbce56940	-0.028004289
156	0xbd491bb0	-0.04909867
157	0x3d34d7ec	0.04415123
158	0xbd7bf96e	-0.06151717
159	0xbc4bedef	-0.0124468645
160	0x3d4dc875	0.05024
161	0xbd4e81fc	-0.05041693
162	0xbd54d8f2	-0.051964708
163	0x3b100400	0.002197504
164	0x3a4d9780	0.00078427047
165	0xbc5d21e8	-0.013496853
166	0x3b95f840	0.004576713
167	0x3d739ac1	0.059473757
168	0x3cfbab5a	0.030721355
169	0x3d83ab09	0.06429107
170	0x3bb3ceec	0.0054873135
171	0xbd1a5332	-0.037676997
172	0x3d1febaa	0.039043106
173	0x3d06036c	0.032718107
174	0x3cdcb2ac	0.026940666
175	0x3abd3200	0.0014434457
176	0x3d13d7da	0.036094524
177	0x3d8dd40b	0.069252096
178	0xbd46d5c7	-0.048543718
179	0xbccd1f10	-0.025039226
180	0x3d0193e8	0.031635195
181	0x3d1e694d	0.03867464
182	0xbd994a75	-0.07484905
183	0xbd89ed47	-0.0673471
184	0xbaa581d9	-0.0012627199
185	0xbcd4ebfb	-0.02599143
186	0x3cf421e4	0.029801317
187	0xbca44f10	-0.020057231
188	0xbd2ee46b	-0.042698305
189	0xbd450e34	-0.04810925
190	0xbd8341c0	-0.06409025
191	0xbb5e7be0	-0.0033948347
192	0xbd1f198e	-0.03884273
193	0x3d3aaaac	0.04557292
194	0x3d15cf6e	0.036574773
195	0x3c458df8	0.012057774
196	0x3d62a872	0.055336423
197	0x3a3b29cd	0.00071397127
198	0xbc983426	-0.018579554
199	0x3cc4a9c3	0.02400673
200	0xbd305e59	-0.043058727
201	0x3d0c8a02	0.034311302
202	0x3d66b33d	0.05632328
203	0xbd8a8548	-0.06763703
204	0xbd24597a	-0.040124394
205	0x3caefd6d	0.021361077
206	0xbc281b9e	-0.010260491
207	0xbd1b41e2	-0.037904628
208	0x3c176c68	0.009242155
209	0x3c9c8994	0.019108571
210	0x3d41317e	0.04716634
211	0xbbdb9e2c	-0.006702205
212	0xbb35ac2a	-0.0027721026
213	0xbcce4764	-0.025180526
214	0xbd812545	-0.06305937
215	0xbd0b03c3	-0.033939134
216	0x3d6d2ac7	0.057902124
217	0xbd44841e	-0.04797756
218	0xbd45e6a8	-0.048315674
219	0xbd5a7578	-0.053334683
220	0x3b818220	0.0039522797
221	0xbc75b264	-0.014996145
222	0x3cc05ef8	0.023482785
223	0xbd2987c1	-0.04138923
224	0x3b1d5832	0.0024008867
225	0x3d89d2d1	0.06729663
226	0xb9a42792	-0.0003131
227	0xbd50ad0c	-0.05094628
228	0x3c162073	0.00916301
229	0x3d57fdaa	0.052732147
230	0x3cf26408	0.029588714
231	0xbd377a66	-0.044794463
232	0xbcec187c	-0.028820269
233	0x3cb0dd2d	0.02158984
234	0x3ccf62da	0.02531569
235	0x3d5b150c	0.05348687
236	0x3d00b6fa	0.0314245
237	0x3d5eeb24	0.054423466
238	0xbd4cb6a2	-0.04997886
239	0xbcc62d0d	-0.024191404
240	0x3d0b0d67	0.03394833
241	0xbd548a8d	-0.051889945
242	0xbd137b78	-0.03600642
243	0x3c6ad9e6	0.014334178
244	0xbc14faa5	-0.009092961
245	0x3d1db258	0.03850016
246	0x3cbeb85e	0.023281273
247	0xbd62f78d	-0.055411864
248	0x3c636deb	0.013881187
249	0x3d092e47	0.0334914
250	0xbbe28ea0	-0.006913975
251	0x3d6baab5	0.057535846
252	0xbd8855ed	-0.06657014
253	0xbc9e4b24	-0.01932294
254	0xbd3cd9ee	-0.04610627
255	0xbd6222b3	-0.055208873

bias f4 [400]
0	0x3d3c36d5	0.04595073
1	0x3c94b2a0	0.018151581
2	0xbc14723a	-0.009060437
3	0x3de1eab0	0.11031091
4	0x3cdf69d9	0.027272152
5	0xbd3b1c19	-0.045681093
6	0xba974ac0	-0.0011542663
7	0xbd4c6a7e	-0.049906246
8	0xbd64f55b	-0.05589805
9	0x3d4ee91b	0.050515275
10	0xbd42bcce	-0.04754334
11	0xbd3ced9c	-0.04612504
12	0x3c2229e1	0.00989768
13	0x3d0b480f	0.034004267
14	0x3e03bd84	0.12865263
15	0xbc979910	-0.018505603
16	0xbcbe4c75	-0.023229817
17	0x3cb79b1e	0.022412833
18	0xbcfa39df	-0.030545173
19	0xbafd8b80	-0.0019343942
20	0xbd8347c0	-0.064101696
21	0x3d6491d5	0.05580314
22	0x3d4b168a	0.04958204
23	0x3d8dc578	0.0692243
24	0xbd205525	-0.0391437
25	0xbd57d899	-0.052696798
26	0x3d936b34	0.07198182
27	0x3de5c2fc	0.11218831
28	0x3d057498	0.032581896
29	0xbcaa57c6	-0.020793807
30	0x3c3ebc20	0.011641532
31	0x3c0df8a0	0.008665234
32	0xbd5d8679	-0.05408332
33	0x3e0c6892	0.13711765
34	0xbce0b082	-0.027427915
35	0xbd5f4ec6	-0.054518484
36	0xbd886c74	-0.06661311
37	0x3dc34ea9	0.095364876
38	0xbc82fd6e	-0.015989985
39	0xbd07ad9e	-0.03312456
40	0x3d742f7a	0.05961559
41	0x3dd9238c	0.10602483
42	0x3d2eee3d	0.04270767
43	0x3d06221b	0.03274737
44	0x3d4db6e3	0.050223242
45	0xbd8c0f2b	-0.068388306
46	0xbd393af0	-0.045222223
47	0x3d2b93f9	0.041889165
48	0xbccb85d9	-0.024844097
49	0x3e2d0d4e	0.16899607
50	0xbd7f21da	-0.062288143
51	0xbd71bb27	-0.059016373
52	0xbd75d5a6	-0.060018204
53	0x3db39116	0.08767907
54	0x3dd8540c	0.10562906
55	0x3dbee05f	0.09320139
56	0x3c563e88	0.013076432
57	0xbd7e4b45	-0.0620835
58	0x3b697c19	0.0035626946
59	0xbd1079fe	-0.03527259
60	0xbd7ff6b0	-0.06249112
61	0xbd48b8bc	-0.0490043
62	0x3bc414a5	0.0059839063
63	0xbcc7b20c	-0.024376892
64	0xbd1e511c	-0.03865157
65	0xbd415bc4	-0.047206655
66	0x3c76f512	0.015073078
67	0xbd4e587e	-0.05037736
68	0xbcc0c198	-0.023529813
69	0xbd727b38	-0.05919954
70	0xbc46cfaa	-0.012134472
71	0x3d5f776b	0.054557245
72	0x3db559e8	0.08855039
73	0xbc093d56	-0.00837644
74	0x3c179578	0.009251945
75	0x3cdfcf79	0.02732061
76	0x3c5324d0	0.012887195
77	0xbc6e2f67	-0.014537669
78	0xbd7fe004	-0.062469497
79	0x3c909042	0.017646912
80	0xbb96c600	-0.00460124
81	0x3cf104e8	0.029421285
82	0xbbc22e60	-0.0059259385
83	0xbb1cf30c	-0.0023948578
84	0xbc757fc4	-0.014984075
85	0x3de1fc0f	0.110344045
86	0xbb6a46e0	-0.0035747811
87	0x3cd5de78	0.026107058
88	0xbd749863	-0.05971564
89	0x3d373c60	0.044735312
90	0x3de0f6e5	0.109845914
91	0x3e429167	0.19000779
92	0x3e05ab0f	0.13053535
93	0x3df08827	0.11744719
94	0xbd891007	-0.0669251
95	0xbd3e544f	-0.04646712
96	0x3d1ea63d	0.038732756
97	0x3c9e8563	0.019350713
98	0x3bd5b840	0.0065222085
99	0xbcd84524	-0.026400156
100	0xbd5868c7	-0.0528343
101	0xbd622430	-0.055210292
102	0xbd4766c2	-0.04868198
103	0xbbf2eef1	-0.007413738
104	0x3dd14667	0.10218506
105	0xbc7852d8	-0.01515647
106	0x3cbec51e	0.023287352
107	0x3d3f8159	0.046754215
108	0xbc1708ac	-0.009218376
109	0xbbae17af	-0.005312882
110	0x3d45f3ed	0.04832833
111	0x3c187360	0.009304851
112	0x3de6c78f	0.112685315
113	0xbc8d18fe	-0.017223831
114	0x3cf8ff4b	0.03039517
115	0xbbaf2a30	-0.0053456053
116	0xbcca0f68	-0.02466555
117	0x3ce7318a	0.028221864
118	0x3db644fe	0.08899878
119	0xbbb36f75	-0.005475933
120	0x3d247475	0.040150125
121	0x3df10692	0.11768831
122	0x3d303457	0.043018665
123	0x3dc734c2	0.0972686
124	0x3d81a56a	0.06330378
125	0x3dc4f783	0.096175216
126	0xbd7e7f8c	-0.062133357
127	0x3dfffc47	0.1249929
128	0xbd5d23f4	-0.053989366
129	0x3dbb915d	0.09158585
130	0x3d2a5ba4	0.0415913
131	0x3dd530cc	0.10409698
132	0xbcc93a3b	-0.0245639
133	0xbd5aba13	-0.05340011
134	0x3d4f0657	0.050543156
135	0xbcd37a60	-0.025815189
136	0xbd04f1f6	-0.032457314
137	0xbd1b89bf	-0.03797316
138	0x3d51e4af	0.05124348
139	0xbbd05b80	-0.006358564
140	0x3cefdcc4	0.029280074
141	0xbd832fa9	-0.06405575
142	0x3d80cb1d	0.06288741
143	0xbd6086d0	-0.054816067
144	0x3d478f9c	0.04872094
145	0xbc76f8d4	-0.015073974
146	0x3d95836f	0.073004596
147	0xbc481b50	-0.012213543
148	0xbc9d1bf8	-0.019178376
149	0x3df9cd1d	0.121973254
150	0x3cdb67ce	0.026782896
151	0xbd0059a5	-0.03133549
152	0x3d5be057	0.053680744
153	0x3d7d405b	0.061828952
154	0xbd371117	-0.044694033
155	0x3b47172d	0.0030378804
156	0xbd82d92d	-0.06389079
157	0x3dae26eb	0.08503517
158	0x3d89c64a	0.06727274
159	0x3d2ba9e0	0.041910052
160	0xbcafda6e	-0.02146646
161	0xbd25c701	-0.040472988
162	0xbd0efa2c	-0.03490655
163	0x3dae8cb9	0.085229345
164	0xbc30d0e8	-0.010791995
165	0xbce530c3	-0.027977353
166	0x3d318746	0.043341897
167	0x3cf99974	0.03046868
168	0x3e0a0fba	0.13482562
169	0xbd59b3c2	-0.053149946
170	0x3d96d88e	0.07365523
171	0xbd0043ea	-0.031314768
172	0xbd2697b7	-0.04067203
173	0xbd81b402	-0.06333162
174	0xbd07b105	-0.033127803
175	0x3c7fe218	0.01561787
176	0x3b61b975	0.0034442816
177	0x3a803c50	0.00097836
178	0x3d6d8e07	0.057996776
179	0xbcf2d688	-0.029643312
180	0xbc886487	-0.016649498
181	0x3ba1bae0	0.0049356073
182	0xbd3e7fdc	-0.046508655
183	0x3ca21db3	0.019789552
184	0x3dfc7350	0.123266816
185	0x3d74a496	0.059727274
186	0x3cdc2e07	0.026877416
187	0x3da0097a	0.078143075
188	0x3cc314f4	0.023813702
189	0xbd25e2e2	-0.040499575
190	0x3d811174	0.06302157
191	0x3d93f8a4	0.07225159
192	0x3c29a476	0.010354152
193	0xbcaa10ac	-0.020759903
194	0x3d8b93ed	0.06815324
195	0x3cc88c82	0.024481062
196	0x3bb9d48a	0.0056710886
197	0x3d518a5a	0.051157333
198	0x3db01cae	0.0859922
199	0xbd272061	-0.040802363
200	0x3c21aaad	0.009867352
201	0xbc48a42c	-0.012246173
202	0x3da1bb57	0.0789706
203	0xbc9e1b28	-0.019300058
204	0xbd74cd4c	-0.0597661
205	0x3d9fd65f	0.0780456
206	0xbd04a472	-0.03238339
207	0x3af6619e	0.0018797403
208	0xbce2d81a	-0.027690936
209	0xbd2fbd4f	-0.042905148
210	0x3cc5f6c8	0.024165526
211	0xbd151c64	-0.03640403
212	0xbd6678ad	-0.05626743
213	0x3d8d05a3	0.06885841
214	0xbd5c7a32	-0.053827472
215	0x3d094790	0.033515513
216	0x3d2f2b7e	0.042766087
217	0xbca37db4	-0.0199574
218	0x3d445f6c	0.047942564
219	0xbcd1d00c	-0.0256119
220	0x3dca3569	0.098734684
221	0xbd8b71ad	-0.06808791
222	0x3ceda16b	0.029007634
223	0x3d19f208	0.037584335
224	0xbd82b469	-0.06382067
225	0x3cc55bbd	0.024091596
226	0x3cad74bb	0.021173825
227	0xbb8298a4	-0.0039854813
228	0xbd0012ef	-0.031268056
229	0x3d2c90b1	0.042130176
230	0x3cce64ce	0.025194552
231	0x3d1c7a9f	0.038202878
232	0xbd851c4a	-0.06499536
233	0x3db4d2b4	0.08829251
234	0x3e230237	0.15918814
235	0xbd482656	-0.048864685
236	0xbca9734a	-0.020684857
237	0x3d3d9dd2	0.046293087
238	0x3cbd6ebc	0.023124091
239	0x3ca8f1a8	0.020623043
240	0xbd1aa83a	-0.03775809
241	0xbbbce9a0	-0.005765155
242	0x3dce611e	0.100771174
243	0x3d985361	0.07437778
244	0xbd80c5e2	-0.06287743
245	0x3c0f8b08	0.008761175
246	0xbd1c894c	-0.038216874
247	0xbd7df823	-0.06200422
248	0xbd869f3d	-0.06573341
249	0xbd0e0605	-0.03467371
250	0x3d204af2	0.039133973
251	0x3dc3b34b	0.09555682
252	0xbd73e308	-0.059542686
253	0x3e0662f1	0.1312368
254	0xbc477391	-0.012173549
255	0x3ccf2102	0.025284294

weight f4 [128, 400]
0	0xbd1af093	-0.037827086
1	0x3c853676	0.01626132
2	0xbcf386fd	-0.029727453
3	0x3cbb8312	0.022889648
4	0xbb89ddd0	-0.0042073503
5	0xbcda533a	-0.026651014
6	0x3cafec1e	0.021474894
7	0x3d036edb	0.032088142
8	0xbd36a18a	-0.04458765
9	0x3d0d06b3	0.034430217
10	0x3d364d53	0.044507336
11	0xbb311160	-0.0027018413
12	0x3d1500ed	0.036377836
13	0xbca81310	-0.020516902
14	0xbc0dd928	-0.008657731
15	0xbcde9dd0	-0.02717486
16	0xbcc3e823	-0.023914402
17	0x3cee3fe2	0.029083196
18	0x3cdb37a2	0.026759926
19	0xbc461a8c	-0.01209129
20	0x3d2b5f33	0.041838836
21	0x3c2ab1e0	0.010418385
22	0xbbb33ef0	-0.005470149
23	0xbc70eac8	-0.014704414
24	0x3d2c1077	0.04200789
25	0x3d0ec3a3	0.034854542
26	0xbabe29a0	-0.0014508255
27	0x3c99c40e	0.018770244
28	0xbcd3c803	-0.025852209
29	0xba5edf40	-0.0008501895
30	0xbba36ff0	-0.004987709
31	0xbcb60a20	-0.022221625
32	0xbc38e04c	-0.011283945
33	0xbce49e80	-0.02790761
34	0xbc52af94	-0.012859244
35	0xbc88da1a	-0.016705561
36	0x3c9d7772	0.019221995
37	0xbc08ec8c	-0.008357178
38	0xbd276c56	-0.0408748
39	0xbcaa9df0	-0.020827264
40	0x3d3e9c7d	0.046535958
41	0x3cd59656	0.026072662
42	0xbd1d3e2b	-0.038389366
43	0x3c267b54	0.01016124
44	0x3c2052b4	0.009785343
45	0xbd4560d0	-0.04818803
46	0x3c15ba20	0.009138614
47	0xbd2a0812	-0.041511603
48	0xbbf35918	-0.0074263923
49	0xbd236fa5	-0.039901394
50	0xbd436f10	-0.04771334
51	0xbc74e688	-0.014947541
52	0xbbb6fa58	-0.0055840425
53	0x3bcd5770	0.006266527
54	0xbc50b528	-0.0127385035
55	0x3cad91be	0.02118766
56	0x3c94bc0e	0.018156078
57	0xbd1a1036	-0.037613116
58	0xbcb11ae0	-0.02161926
59	0x3d15ea19	0.036600206
60	0x3c225b68	0.009909488
61	0xbd2bf39b	-0.041980367
62	0xbcd7c20a	-0.026337642
63	0xbc1d95b8	-0.009618215
64	0xbca51370	-0.02015087
65	0x3cd7e66a	0.026354987
66	0xbcc5580a	-0.024089832
67	0x3c7c5f3c	0.015403565
68	0xbcb36823	-0.021900242
69	0xbd21a615	-0.03946503
70	0xbc29184c	-0.010320734
71	0xbd104458	-0.035221428
72	0xbc09f240	-0.008419573
73	0xbd43909f	-0.047745343
74	0x3d379fb7	0.04483005
75	0x3c25c888	0.010118611
76	0xbd2430c0	-0.040085554
77	0x3cd7796a	0.026303012
78	0x3d2a0897	0.0415121
79	0xbc37b428	-0.011212386
80	0xbca8a2a3	-0.020585364
81	0x3cd5b316	0.026086371
82	0x3b1bfca0	0.00238017
83	0x3bc504f0	0.0060125515
84	0x3c07c220	0.008286029
85	0xbc4c6628	-0.012475528
86	0x3bdc0a10	0.0067150667
87	0xbccfcb27	-0.025365425
88	0x3ccad52e	0.024759855
89	0x3cdab136	0.026695829
90	0xbc883964	-0.016628928
91	0xbcf1fffa	-0.029541004
92	0xbd363635	-0.04448529
93	0xbd35c06d	-0.044372965
94	0x3b830d40	0.0039993823
95	0xbd063b08	-0.03277114
96	0xbc2b1cf4	-0.010443915
97	0x3d061799	0.03273735
98	0xbb65e960	-0.003508173
99	0x3c2044ac	0.009781998
100	0xbcf68623	-0.030093258
101	0x3b7ccf00	0.003857553
102	0xbba85118	-0.0051366203
103	0xbc53f7f8	-0.012937538
104	0x3c1e9d18	0.009681009
105	0xbcfb8b2a	-0.030706007
106	0x3c5772cc	0.013149928
107	0xbcae1893	-0.021251952
108	0xbd36b617	-0.04460725
109	0xbb420f80	-0.002961129
110	0x3d078031	0.033081237
111	0x3d0dae8f	0.0345903
112	0x3cd3a5d2	0.025835905
113	0x3cda0b72	0.026616786
114	0x3c906ba2	0.017629448
115	0xbbf4b8e8	-0.0074683316
116	0x3c5f3fc4	0.013626043
117	0x3d4a4f5b	0.049392086
118	0xbd2e1d12	-0.042508192
119	0x3d46ab9f	0.048503514
120	0xbd03213e	-0.032014124
121	0xbc6e9074	-0.0145608075
122	0x3cb21a36	0.021741014
123	0xbd1052e3	-0.035235297
124	0xbcb1d2f7	-0.021707041
125	0xbd129b18	-0.03579244
126	0x3d19468b	0.03742079
127	0x3d1d1719	0.038352106
128	0xbc4dec6c	-0.012568574
129	0xbcd76be3	-0.026296562
130	0xbc8da104	-0.017288692
131	0xbcdf448a	-0.027254362
132	0x3c13bc08	0.009016998
133	0x3c6586c4	0.014009181
134	0x3a4ec680	0.0007887855
135	0x3d315501	0.043293957
136	0x3b8d6c10	0.0043158606
137	0xba0aeec0	-0.0005299859
138	0xbd476d73	-0.048688363
139	0xbcbacc7a	-0.02280258
140	0xbd3d197d	-0.046166886
141	0xbcc6dae7	-0.024274303
142	0xbc2d74a8	-0.010586895
143	0x3c018b00	0.007906675
144	0x3ce21506	0.027597915
145	0x3d341b1d	0.04397117
146	0xbcb110d3	-0.021614468
147	0x3d32f2cd	0.043688584
148	0xbc24c2c0	-0.010056198
149	0x3c9f3592	0.019434724
150	0xbd20b8a0	-0.039238572
151	0xbd40881a	-0.047004797
152	0xbd3cf938	-0.04613611
153	0x3b41db20	0.0029580072
154	0x3b80ec28	0.003934402
155	0x3d08a433	0.033359718
156	0xbc02c56c	-0.007981639
157	0x3ca02cea	0.019552667
158	0xbcc00857	-0.023441477
159	0xbd222fd8	-0.03959641
160	0xbd3924cf	-0.04520112
161	0x3c829f5a	0.015945125
162	0x3d2aca41	0.04169679
163	0x3cf0fff2	0.02941892
164	0xbd1f3fbb	-0.038879137
165	0x3d34f6ad	0.04418056
166	0xbcf134dd	-0.029444152
167	0xbc404f98	-0.011737727
168	0xbd14195e	-0.036157005
169	0xbccc0e20	-0.02490908
170	0x3bab5880	0.005229056
171	0xbafc1260	-0.001923155
172	0xbc10e168	-0.008842804
173	0x3d0e6521	0.034764413
174	0xbd0959a2	-0.033532746
175	0x3d4a1d99	0.049344633
176	0x3c1363f4	0.008995999
177	0xbd241a96	-0.040064417
178	0x3c0ed88c	0.008718621
179	0x3d17d077	0.037064042
180	0x3c8be832	0.017078493
181	0xbd10faa6	-0.035395287
182	0x3d285c11	0.041103426
183	0xbd1d789b	-0.038445096
184	0x3d1c5955	0.03817113
185	0xbca981b3	-0.020691728
186	0x3d21ccdf	0.03950202
187	0x3cbca506	0.023027908
188	0x3d26fedf	0.040770408
189	0x3d0d1ef3	0.034453344
190	0x3becee68	0.0072305687
191	0x3ca99f32	0.020705793
192	0xbcff25c3	-0.031145936
193	0x3be3c1f0	0.0069506094
194	0xbaf4d4c0	-0.0018679127
195	0x3d01b373	0.031665277
196	0x3d23e3d3	0.040012192
197	0xbc2ba3f4	-0.010476101
198	0x3d1084a1	0.035282735
199	0x3cce7952	0.025204334
200	0x3ca6a19e	0.020340737
201	0xbd449b78	-0.04799983
202	0x3ca3f9c6	0.020016562
203	0xbd214d95	-0.03938063
204	0x3d49c1b3	0.04925699
205	0x3d3bf675	0.045889337
206	0x3d32e4af	0.04367512
207	0xbb535be0	-0.0032250807
208	0xbcf47553	-0.0298411
209	0x3ccae88e	0.024769094
210	0xbc85f120	-0.016350329
211	0xbd3175d7	-0.04332527
212	0xbd1f15ae	-0.038839035
213	0x3c6a1024	0.014286075
214	0xbd433d42	-0.047665842
215	0x3ca39f82	0.01997352
216	0x3d02815d	0.03186165
217	0xbc53e334	-0.012932587
218	0xbd129168	-0.0357832
219	0xbb031160	-0.001999937
220	0xba8c68a0	-0.0010712333
221	0xbc0cc5e8	-0.008592106
222	0xbc0b8960	-0.0085166395
223	0xbcb94f2a	-0.022620756
224	0xbd1d8b5e	-0.03846299
225	0xbd202c2a	-0.039104618
226	0x3c807342	0.01567996
227	0x3ca02052	0.019546662
228	0x3d0aa30b	0.033846896
229	0x3c689bc4	0.014197294
230	0x3cacf82a	0.021114428
231	0xbc4f5a98	-0.012655877
232	0xbc623074	-0.013805497
233	0x3bd70ac0	0.006562561
234	0x38f5a600	0.0001171343
235	0x3d3160c9	0.043305192
236	0xbc71f080	-0.014766812
237	0x3c1050d8	0.008808337
238	0xbcf4484d	-0.029819632
239	0xbcbfccb0	-0.023413032
240	0xbccafd2a	-0.024778921
241	0x3bb04e30	0.0053804144
242	0xbbb47bf0	-0.0055079386
243	0xbc50d974	-0.012747157
244	0x3cea0e2a	0.028571207
245	0xbc944aac	-0.018102013
246	0xbd02a2ee	-0.031893663
247	0xbcf706b0	-0.030154556
248	0x3d031b29	0.032008324
249	0xbcd21027	-0.025642468
250	0xbc88a6cc	-0.016681097
251	0xbd1976f5	-0.037466962
252	0x3a1d7680	0.00060067326
253	0x3c45fd80	0.012084365
254	0x3aad6ac0	0.0013230667
255	0xbccb3d67	-0.024809552

bias f4 [128]
0	0x3c76e0f4	0.015068281
1	0xbbd1b068	-0.006399203
2	0x3def807a	0.11694427
3	0x3e374d88	0.1790067
4	0xbc7b50ee	-0.015339119
5	0x3c8eb6ed	0.01742121
6	0x3e2eb08d	0.17059536
7	0x3c01592d	0.007894796
8	0x3c97d82e	0.0185357
9	0xbd289dc3	-0.04116608
10	0x3c87dde5	0.0165853
11	0x3c2f913d	0.01071578
12	0xbc9e9086	-0.019356024
13	0xbc695a14	-0.014242668
14	0xbd41eea8	-0.04734674
15	0xbd37098d	-0.044686843
16	0xbd450103	-0.048096668
17	0x3e136bef	0.14396642
18	0x3d806a71	0.06270302
19	0x3e7268c0	0.23672771
20	0x3d98f2d0	0.07468188
21	0xbb291ee0	-0.0025805756
22	0x3bdd1658	0.0067470483
23	0x3e58342f	0.21113656
24	0x3da146c1	0.07874823
25	0xbce81237	-0.028328998
26	0x3e9669e4	0.29377663
27	0xbb63d820	-0.0034766272
28	0x3e82ca07	0.2554476
29	0x3e3c2fb6	0.18377575
30	0x3c68b29c	0.01420274
31	0x3d56906f	0.052383836
32	0x3e199759	0.14999141
33	0xbd0020d6	-0.031281315
34	0x3cb730b2	0.022362087
35	0xbd44cd63	-0.048047435
36	0xbc9c6967	-0.019093229
37	0xbd8e147d	-0.069375016
38	0xbc3e5138	-0.011616044
39	0xbbdcd2f0	-0.006739013
40	0xbd4a997d	-0.049462784
41	0x3e284ea2	0.16436246
42	0x3d381a6b	0.04494707
43	0xbc8b406a	-0.016998488
44	0x3c162d76	0.009166112
45	0x3e1a3100	0.15057755
46	0x3c048870	0.00808917
47	0xbcbc6703	-0.022998339
48	0x3dbb3a10	0.09141934
49	0xbd312853	-0.043251347
50	0x3e2eee49	0.17083086
51	0xbbd601c9	-0.0065309745
52	0x3c55f064	0.013057802
53	0xbce4dc6a	-0.027937133
54	0xbd19e3d4	-0.03757079
55	0x3e087a8e	0.13328001
56	0x3bb65168	0.0055639036
57	0x3d99fb84	0.07518676
58	0xbd396f33	-0.045272063
59	0xbd085c28	-0.033291012
60	0x3d3cfbcc	0.04613857
61	0xbd22aae3	-0.03971375
62	0x3c848a7a	0.016179312
63	0xbcf5c853	-0.030002749
64	0x3dc1833c	0.09448859
65	0x3cd341c5	0.025788197
66	0x3cdfe94a	0.02733292
67	0x3c40c13d	0.011764822
68	0x3d849725	0.06474141
69	0x3dc16af4	0.09444228
70	0x3c2dd802	0.010610582
71	0xbd4666f7	-0.04843804
72	0xbbbfab00	-0.005849242
73	0xbd38199a	-0.04494629
74	0x3cbc6188	0.022995725
75	0x3d644ed9	0.055739257
76	0xbcfe9aed	-0.031079734
77	0xbd066fad	-0.032821346
78	0x3e16283c	0.14663786
79	0xbd0fff22	-0.035155423
80	0x3e1ca172	0.15295961
81	0xbd3b0203	-0.045656215
82	0x3e388eb0	0.18023181
83	0xb9af6500	-0.00033453852
84	0xbc09dbe1	-0.00841424
85	0x3d20b9c9	0.03923968
86	0x3cee68e9	0.02910276
87	0x3db508a7	0.08839541
88	0x3e2039e7	0.15647088
89	0x3d896175	0.067080416
90	0x3e800b55	0.25008646
91	0x3bb780c5	0.0056000673
92	0xbcb07770	-0.021541327
93	0xba1684c0	-0.0005741827
94	0x3d7d9567	0.06191006
95	0x3d1a1276	0.037615262
96	0xbcb381fa	-0.021912564
97	0xbc9cd096	-0.01914243
98	0xbcf916c3	-0.030406361
99	0xbcf3ee24	-0.02977664
100	0xbc64db38	-0.013968281
101	0x3e48b82e	0.19601509
102	0x3a124f8b	0.0005581311
103	0x3d09f48e	0.03368049
104	0x39d50d09	0.00040636238
105	0xbc81fda0	-0.015868008
106	0x3e141eb1	0.14464833
107	0x3e0cd662	0.13753656
108	0x3d299674	0.04140325
109	0x3cadecee	0.021231141
110	0xbc034914	-0.008013029
111	0xbcdaaffd	-0.026695246
112	0x3e07967c	0.13240999
113	0xba526ee8	-0.00080273906
114	0xbcdd05ad	-0.026980245
115	0x3c774733	0.015092659
116	0xbc312a18	-0.010813259
117	0x3cf0ba8b	0.029385826
118	0xbc03ecaa	-0.008052031
119	0xbc0a68d4	-0.008447845
120	0x3e5de12f	0.21667932
121	0xbcb83df4	-0.022490479
122	0xbcbcf418	-0.023065612
123	0xbce7e323	-0.02830655
124	0xbce4f173	-0.027947163
125	0xbd08d2d6	-0.033404194
126	0xbc8baf75	-0.017051438
127	0x3e1e646a	0.15467992

weight f4 [400, 128]
0	0x3d640d2e	0.05567663
1	0xbc44c030	-0.012008712
2	0x3d8624fe	0.065500244
3	0x3d794bca	0.060863294
4	0xbc585c3c	-0.013205584
5	0x3d4f0aac	0.050547287
6	0x3ca47001	0.020072939
7	0x3d5f56ab	0.054526012
8	0xbc6845b8	-0.0141767785
9	0xbd8ddde6	-0.069270894
10	0xbb678776	-0.0035328544
11	0xbd511548	-0.051045686
12	0xbdaf5265	-0.085606374
13	0x3d4a18fa	0.049340226
14	0xbd40bc9b	-0.04705487
15	0x3db19a07	0.086719565
16	0xbda815b4	-0.082072645
17	0xbc4d62a9	-0.012535729
18	0xbcb10b57	-0.021611853
19	0x3cb2439c	0.021760754
20	0x3cef4a89	0.029210346
21	0xbda75856	-0.081711456
22	0x3c23955b	0.00998434
23	0x3cd5bae6	0.026090097
24	0xbc7b3821	-0.015333206
25	0xbcb7ee70	-0.022452563
26	0xbd8cd53f	-0.06876611
27	0x3b3d93e0	0.0028927252
28	0xbc76a972	-0.015055047
29	0x3d563326	0.052294873
30	0xbcf7aa60	-0.030232608
31	0x3d90c345	0.07068495
32	0xbb44ca68	-0.003002787
33	0x3d5776c6	0.052603506
34	0x3c97bffc	0.018524162
35	0xbcc15624	-0.023600645
36	0x3d32c0ee	0.043641023
37	0xbc88681a	-0.016651202
38	0x3cfc6abc	0.030812614
39	0xbd428b71	-0.047496263
40	0x3d5fbe5e	0.054624908
41	0xbd19e0e8	-0.037568003
42	0xbcef870d	-0.029239202
43	0x3d303e6e	0.043028288
44	0x3dab41dd	0.08362172
45	0x3da055c7	0.07828861
46	0x3daf5019	0.08560199
47	0xbd1b1cc9	-0.03786925
48	0xbd8723b7	-0.06598609
49	0x3d01332c	0.031542942
50	0x3d520413	0.051273417
51	0x3dafc9e2	0.08583428
52	0xbd97ca5b	-0.07411643
53	0xbd7360c2	-0.059418447
54	0x3c164f38	0.009174161
55	0x3da7d4b3	0.08194866
56	0xbd409bd3	-0.047023606
57	0xbb31122f	-0.0027018895
58	0x3d7f7c0a	0.062374152
59	0x3d76212a	0.06009022
60	0xbcfebd5c	-0.031096153
61	0x3d0444df	0.032292243
62	0xbd88d0e0	-0.06680465
63	0xbc293a08	-0.010328777
64	0x3db01770	0.0859822
65	0x3c33d10f	0.010975136
66	0xbd0eeb63	-0.03489245
67	0x3d85c548	0.06531769
68	0x3d0abbfd	0.033870686
69	0x3d9fcdfa	0.07802959
70	0x3c45af76	0.012065759
71	0xbc533740	-0.012891591
72	0xbd0d99b5	-0.034570415
73	0x3d92482f	0.07142674
74	0x3c566593	0.013085741
75	0xbda2e8fb	-0.07954594
76	0xbdab43c0	-0.08362532
77	0xbdb49329	-0.08817131
78	0xbdb36e59	-0.087612815
79	0xbd4c78dc	-0.049919948
80	0xbdb22bd9	-0.086997695
81	0x3c8cd992	0.01719359
82	0x3d4cf47d	0.05003785
83	0x3d496cda	0.049176075
84	0x3cb0af02	0.021567825
85	0xbd59bb85	-0.05315735
86	0xbd1bfc82	-0.038082607
87	0x3dbcf641	0.09226657
88	0x3cfd76ae	0.03094038
89	0x3d7e7b44	0.062129274
90	0x3d2ac97d	0.04169606
91	0x3d45ed30	0.048321903
92	0xbd33433b	-0.043765288
93	0x3d96d475	0.07364742
94	0x3d1a8bd2	0.037731
95	0x3db8a960	0.09016681
96	0x3cb5c718	0.022189662
97	0xbd44727c	-0.047960743
98	0x3da69753	0.081343316
99	0xbd086800	-0.033302307
100	0xbd8f7593	-0.070048474
101	0xbdaa5f9d	-0.08319018
102	0x3c0b75bc	0.008511957
103	0x3d8c5e15	0.06853882
104	0x3d01f0c6	0.03172376
105	0xbcd32a5c	-0.025777034
106	0xbd90cd8b	-0.07070454
107	0x3d9629f1	0.073322184
108	0x3d8fd44c	0.07022914
109	0x3d57430d	0.05255418
110	0xbcb50580	-0.02209735
111	0xbcc6ffb0	-0.024291843
112	0xbbde65b2	-0.0067870254
113	0xbcc61a81	-0.02418256
114	0xbd72b524	-0.05925478
115	0x3d570ffa	0.05250547
116	0xbdb0aa8d	-0.0862628
117	0x3d956c65	0.07296065
118	0x3da1ba10	0.07896817
119	0x3d8ecf75	0.06973163
120	0x3b809406	0.003923896
121	0xbda756b2	-0.08170833
122	0x3d35f7c8	0.044425756
123	0x3cccb870	0.02499029
124	0x3d85af8d	0.06527624
125	0xbd800435	-0.062508024
126	0xbda423a5	-0.08014611
127	0xbc0ccae6	-0.008593297
128	0xbca40ff4	-0.020027138
129	0xbc0f7ca8	-0.008757748
130	0x3a68d21a	0.0008881405
131	0x3d6dd346	0.058062814
132	0x3d7ac8c7	0.061226632
133	0xbd4690b0	-0.04847783
134	0xbcdfd2d7	-0.027322216
135	0x3c762e7c	0.015025731
136	0x3c811320	0.01575619
137	0x3d8db5bb	0.06919428
138	0x3d64ef6e	0.0558924
139	0xbb28be7c	-0.0025748303
140	0x3d9371d2	0.07199444
141	0x3d95925d	0.07303307
142	0xbcad73b4	-0.021173336
143	0x3d04959a	0.032369234
144	0xbd4b2bfc	-0.049602494
145	0x3d65250b	0.05594353
146	0x3cf0ed32	0.029409979
147	0x3dc02e68	0.09383851
148	0xbcfa071d	-0.03052097
149	0xbd44fa4b	-0.04809026
150	0xbced0a36	-0.028935533
151	0x3d9c365a	0.07627554
152	0x3d5984f6	0.053105317
153	0xbcc7f544	-0.024408944
154	0xbd4dcaf7	-0.05024239
155	0xbbffbfa0	-0.007804826
156	0x3d8db32b	0.06918939
157	0xbd1ca24e	-0.038240723
158	0x3c373c48	0.011183806
159	0xbd3eaf8b	-0.04655413
160	0x3d202497	0.039097395
161	0xbc48af58	-0.012248836
162	0xbcd1588c	-0.025554918
163	0xbcc34692	-0.023837361
164	0x3c8d1fa8	0.017227009
165	0xbcc6a3f0	-0.024248093
166	0xbd78f19f	-0.060777303
167	0xbdab569a	-0.08366127
168	0xbd93bba1	-0.07213522
169	0x3da68b88	0.08132082
170	0xbc4b7817	-0.012418768
171	0x3d84a8cf	0.0647751
172	0x3caf62ce	0.021409418
173	0xbd1131de	-0.035447948
174	0x3ba848ba	0.005135623
175	0xbb065f00	-0.0020503402
176	0xbd8c6b33	-0.06856384
177	0x3d911651	0.07084335
178	0x3da457c6	0.08024554
179	0x3d78794b	0.06066255
180	0x3c9ed304	0.01938773
181	0xbd2405d6	-0.040044628
182	0x3c14ce41	0.009082378
183	0xbcee22f8	-0.029069409
184	0x3cbdb1f8	0.023156151
185	0x3d9f834f	0.07788717
186	0xbd85eeb2	-0.06539668
187	0x3cdeaf08	0.02718307
188	0x3cbdc896	0.023166936
189	0xbd01fd1b	-0.03173552
190	0x3d7d1c92	0.061794825
191	0xbc9a7630	-0.018855184
192	0x3dac89a6	0.08424692
193	0xbda20eb2	-0.07912959
194	0x3cd8271b	0.026385834
195	0x3bb178c7	0.005416009
196	0x3d4f7f38	0.050658435
197	0xbc9568d6	-0.018238466
198	0xbd0fb0d4	-0.035080746
199	0x3bbd2b10	0.0057729557
200	0x3c445638	0.011983447
201	0x3db37f35	0.08764497
202	0x3d1196eb	0.035544317
203	0xbd99e544	-0.07514432
204	0x3d7dab2a	0.061930813
205	0xbc8ab35c	-0.016931228
206	0xbce737fc	-0.028224938
207	0xbd0a3da2	-0.033750184
208	0x3c82173c	0.01588022
209	0x3da4d6d0	0.08048785
210	0x3d1a14b3	0.037617397
211	0xbc5f9a48	-0.013647623
212	0xbd95a9fa	-0.07307811
213	0xbc9f2793	-0.01942805
214	0xbd700efc	-0.05860804
215	0x3bd2f418	0.0064377896
216	0xbd42501d	-0.047439683
217	0x3c8ccedd	0.017188484
218	0xbcd942e7	-0.02652116
219	0xbd2c1abe	-0.04201769
220	0x3d6b4a56	0.05744394
221	0xbc3fce48	-0.011706896
222	0xbc423333	-0.011853027
223	0xbc09e414	-0.0084161945
224	0xbd7bc205	-0.06146433
225	0x3dac4513	0.08411612
226	0x3bd19b50	0.0063966885
227	0x3c08b5db	0.008344139
228	0xbd390184	-0.04516746
229	0x3cd26907	0.025684847
230	0xbce496c9	-0.027903931
231	0xbd3fdf0d	-0.046843577
232	0x3d77996d	0.060449053
233	0x3ce0d8e0	0.027447164
234	0xbd8a4c51	-0.067528374
235	0xbd4b0912	-0.049569197
236	0xbcabe546	-0.02098335
237	0xbca24b45	-0.019811282
238	0xbd799d46	-0.060941003
239	0x3c4eab28	0.012614049
240	0xbd425d9b	-0.04745255
241	0x3d01db95	0.03170355
242	0xbb124c20	-0.0022323206
243	0x3db102f5	0.08643142
244	0x3cf27498	0.029596612
245	0x3d08e2d7	0.033419456
246	0x3d4f148d	0.050556708
247	0x3d8324d9	0.064035125
248	0x3d9d0506	0.07666974
249	0xbbe1abf4	-0.0068869535
250	0x3d56cb13	0.05243976
251	0x3d497c7a	0.049190976
252	0x3c36f2f0	0.011166319
253	0xbd0d267b	-0.034460526
254	0xb88fb73b	-6.852901e-05
255	0xbd8de8f2	-0.069291964

bias f4 [400]
0	0x3d29ae42	0.04142595
1	0x3deb8914	0.11500755
2	0xbc1c1328	-0.009526052
3	0xbc9e0228	-0.019288138
4	0x3e26fa26	0.16306362
5	0xbcd1ce74	-0.02561114
6	0xbc8aa0c8	-0.01692237
7	0xbd06868d	-0.03284316
8	0x3e1a31a4	0.15057999
9	0x3e23390b	0.15939729
10	0xbd0a7c50	-0.03380996
11	0xbc32ab03	-0.01090503
12	0x3d866275	0.06561748
13	0x3daa42b2	0.08313502
14	0x3e0def23	0.13860755
15	0x3e1d14a1	0.153399
16	0xbd626246	-0.055269502
17	0xbca83919	-0.020535039
18	0x3e16f82b	0.14743106
19	0x3d587600	0.05284691
20	0x3bf72b21	0.007542983
21	0xbd8b9e23	-0.068172716
22	0x3e1cc402	0.15309146
23	0x3dc8df73	0.098082446
24	0xbd89f41b	-0.067360125
25	0x3e103dc1	0.14086057
26	0x3d45ab07	0.048258808
27	0x3e03aa74	0.12857991
28	0x3decec1c	0.11568472
29	0x3e2015e8	0.15633357
30	0x3bf12c56	0.0073600216
31	0x3da40c95	0.08010212
32	0x3dcbe27b	0.09955307
33	0xbd083fc1	-0.033263925
34	0xbdaa58c0	-0.08317709
35	0x3d9b3cc0	0.075799465
36	0x3e433b86	0.19065675
37	0x3e2114e6	0.15730628
38	0x3da28520	0.07935548
39	0x3e0e16c5	0.13875873
40	0x3e07d3f0	0.13264441
41	0xbd99cd72	-0.07509889
42	0xbbc83cbe	-0.0061107567
43	0xbd1b7228	-0.037950665
44	0xbd3dcfcb	-0.046340745
45	0xbd74ab40	-0.05973363
46	0xbdae04da	-0.08497019
47	0x3e1c8262	0.15284112
48	0x3b1a8c43	0.0023582138
49	0xbd2abaa8	-0.041681916
50	0x3df786a5	0.12086228
51	0x3dbb8cee	0.091577396
52	0x3e34fdea	0.17674986
53	0xbd1dcd2e	-0.038525753
54	0xbd800926	-0.06251745
55	0x3c819770	0.015819281
56	0x3dd817e6	0.10551433
57	0x3df2cdfe	0.11855696
58	0xba9986d1	-0.0011713152
59	0x3e3aeac0	0.18253613
60	0xbca5db4c	-0.02024617
61	0x3df2a856	0.11848514
62	0x3dfa367e	0.12217425
63	0xbc97ace4	-0.018515058
64	0x3e17e254	0.14832431
65	0x3e0910f0	0.13385367
66	0x3e2616c7	0.16219626
67	0xbd7a2c6e	-0.061077528
68	0x3deac690	0.11463654
69	0xbc99b71c	-0.018764071
70	0x3e1774d6	0.14790663
71	0xbca886a4	-0.020572014
72	0x3bff98d3	0.0078002005
73	0x3b81f00d	0.003965384
74	0x3e271f84	0.16320616
75	0x3e17dcc9	0.14830317
76	0xbd931cf4	-0.07183257
77	0x3db5a5e3	0.08869531
78	0x3e18ae8b	0.14910333
79	0x3dabc060	0.08386302
80	0x3e0b1360	0.1358161
81	0xbdb11717	-0.08646982
82	0xbc71615e	-0.014732687
83	0x3d63ecf3	0.055645894
84	0xbcad6ba2	-0.021169487
85	0x3dad8368	0.084723294
86	0x3d7687ba	0.060188033
87	0x3db5d3f6	0.08878319
88	0x3dc8ae7e	0.09798907
89	0x3de57d0a	0.1120549
90	0x3d06b2f3	0.032885503
91	0x3e24b842	0.16085914
92	0x3d8e9d9a	0.06963654
93	0x3de079e3	0.10960748
94	0x3e0dcd28	0.13847792
95	0xbd73d015	-0.059524614
96	0x3df08aba	0.1174521
97	0xbc538af8	-0.012911551
98	0xbafdb080	-0.0019354969
99	0x3dc0478f	0.09388649
100	0x3d06bd07	0.032895114
101	0x3dcf1ca8	0.101128876
102	0x3c088360	0.0083321035
103	0xbd7c6072	-0.061615415
104	0xbdaaee52	-0.08346237
105	0xbc805de0	-0.015669763
106	0x3e08ed92	0.13371876
107	0x3e1b5491	0.15168978
108	0xbd4b92a8	-0.04970041
109	0xbbbfc010	-0.005851753
110	0x3b8bc645	0.004265579
111	0x3e16c1d5	0.14722379
112	0x3ae57f25	0.0017509205
113	0x3c89907c	0.016792528
114	0x3cf39e35	0.029738525
115	0xbd972457	-0.07379978
116	0xbc0be228	-0.008537807
117	0x3dc951c5	0.098300494
118	0x3dd57049	0.10421807
119	0x3e45b5a4	0.19307572
120	0x3e08471c	0.13308376
121	0x3df5aefa	0.11996265
122	0x3e2b05fb	0.167015
123	0x3d8c877a	0.068617776
124	0x3dec1f20	0.11529374
125	0x3e26ae4a	0.16277424
126	0xbda7a919	-0.0818655
127	0xbc8eb9b9	-0.017422544
128	0x3d074a19	0.03302965
129	0xbd4bd2dc	-0.049761638
130	0x3df4a6db	0.11945888
131	0x3c2c6e90	0.010524407
132	0xbbd8b080	-0.0066128373
133	0x3d6bda4a	0.057581224
134	0xbd1ad5f7	-0.03780171
135	0x3c81900a	0.015815753
136	0xbbe9440e	-0.0071187085
137	0xbbf40620	-0.007447019
138	0xbb71b38d	-0.0036880702
139	0xbda157d2	-0.078780785
140	0xbd4880e7	-0.048951056
141	0xbd64f436	-0.05589696
142	0xbcd050f5	-0.025429228
143	0xbd577a54	-0.052606896
144	0x3d9bc949	0.076067515
145	0x3dfcd9fa	0.12346263
146	0x3dcd24c5	0.10016779
147	0x3db93060	0.0904243
148	0x3e3efad1	0.18650366
149	0x3daca28a	0.08429439
150	0xbb9e5150	-0.0048314705
151	0x3e29969c	0.16561359
152	0xbd999571	-0.07499207
153	0xbc7546c8	-0.014970489
154	0x3db0cf39	0.086332746
155	0xbc459e80	-0.012061715
156	0x3b0a6ab1	0.0021120722
157	0xbcf878be	-0.030331012
158	0xbd82cbac	-0.063865036
159	0x3e1fa91b	0.15591852
160	0xbd9b5cc4	-0.07586053
161	0xbdae4976	-0.08510105
162	0xbba6bbd9	-0.005088311
163	0x3e316302	0.17322925
164	0x3dfe319e	0.124118075
165	0xbda6d2fd	-0.081457116
166	0x3e116289	0.14197744
167	0x3da9732d	0.08273921
168	0x3df0d606	0.11759572
169	0x3dcff85b	0.10154792
170	0xbc1c32b7	-0.009533576
171	0x3bfa84e0	0.0076452345
172	0xbd86092b	-0.065447174
173	0x3da41cc2	0.080132976
174	0xbd4c823c	-0.04992889
175	0x3df320dd	0.118715025
176	0x3d70aeb9	0.05876038
177	0x3e0660ce	0.13122866
178	0x3e101e7b	0.14074127
179	0x3e151cc8	0.1456176
180	0x3e4217d5	0.18954404
181	0x3dc9e2e6	0.098577306
182	0xbc01e9c8	-0.007929273
183	0xbd13f516	-0.036122404
184	0x3dd38aab	0.10329183
185	0x3e377915	0.17917283
186	0x3e362e93	0.17791204
187	0x3e0040aa	0.12524667
188	0x3d96e87a	0.0736856
189	0x3a999140	0.0011716262
190	0xbd0c2d76	-0.034223042
191	0xbda35b4b	-0.07976397
192	0xbdaff4c6	-0.08591609
193	0xbc22f470	-0.009945974
194	0x3bda2a4c	0.006657874
195	0xbd83e732	-0.064405814
196	0xbd7f12e4	-0.062273875
197	0xbca5ac18	-0.020223662
198	0xbb28f663	-0.0025781624
199	0xbd9d3145	-0.07675413
200	0x3e067455	0.13130315
201	0x3dd1ce97	0.10244482
202	0xbd2b6f2b	-0.041854065
203	0x3e09138c	0.13386363
204	0xbda5121c	-0.08060095
205	0x3d9e29e7	0.07722836
206	0xbd1c44f1	-0.038151685
207	0x3d033a9a	0.03203831
208	0x3e368532	0.17824247
209	0x3e642a71	0.22281815
210	0xbd00b872	-0.0314259
211	0xbd9f6efb	-0.0778484
212	0xbbbfeff8	-0.005857464
213	0xbc595628	-0.01326517
214	0xbc9d0ef0	-0.019172162
215	0x3cac5645	0.02103723
216	0xbd86fe23	-0.065914415
217	0xbc615035	-0.013752033
218	0xbd0b435d	-0.03399979
219	0x3e2e8b54	0.17045337
220	0xbd81696c	-0.06318936
221	0x3e1395a4	0.14412552
222	0xbd2c8e0f	-0.042127665
223	0x3d8d91a3	0.069125436
224	0x3d8d9e56	0.06914966
225	0xbb693ca8	-0.0035589132
226	0x3e034c38	0.12822044
227	0x3ce90574	0.028444983
228	0x3de41db4	0.11138478
229	0x3e033439	0.1281289
230	0x3e0b0b51	0.13578536
231	0xbb86c83a	-0.0041132243
232	0x3df3cd48	0.11904389
233	0x3df03de2	0.11730553
234	0xbd9bde38	-0.07610744
235	0xbd911b62	-0.07085301
236	0x3e1bb096	0.15204081
237	0x3e2b50ca	0.16730037
238	0xbd13435d	-0.035952915
239	0xbd827a85	-0.06371025
240	0x3d660972	0.05616135
241	0x3dd81b4a	0.1055208
242	0x3e27e028	0.16394103
243	0x3c8368e0	0.01604122
244	0x3db61101	0.08889962
245	0x3bcb6de0	0.0062081665
246	0x3dfde54f	0.12397253
247	0xbc0ea134	-0.008705426
248	0x3e195385	0.14973266
249	0xbc9b120b	-0.018929502
250	0xbd942c8b	-0.072350584
251	0x3e1f0aaf	0.15531419
252	0xb8baa000	-8.8989735e-05
253	0x3da94a72	0.082661524
254	0xbd65c18d	-0.056092788
255	0x3e1257a4	0.14291245
