pyrotch学习/wr20-20-100000epoch.pth (torch, 817871 bytes, 8 tensors)

weight f4 [200, 100]
000000 17 66 c7 3d b8 7d 54 3d 53 f4 96 3d 7d 36 4f bd
       0.09736269 0.051877707 0.0737082 -0.050589073
000010 54 11 1b bd d0 d3 03 3b 06 85 ce 3c 7d 9b b6 3d
       -0.037858322 0.0020115264 0.025209915 0.08916376
000020 0e 75 c1 bd 15 6d af 3b 7a b6 8b 3c a9 39 2f 3d
       -0.094461545 0.0053535798 0.017054785 0.0427796
000030 68 1c c8 3b ca f7 bc 3d da ce 96 3d f3 a5 65 bd
       0.006106902 0.092269495 0.073636726 -0.056066465
000040 d7 2e 70 bb b6 4d ca 3c 2f 7e aa bd bc 07 88 3d
       -0.0036649012 0.024695259 -0.08324849 0.066421
000050 c3 1d b2 bd 23 ec ba 3d 9b 65 12 3c e0 04 ee 3b
       -0.08697083 0.09127071 0.008935357 0.0072637647
000060 c1 a9 c9 3d 18 58 99 bd 91 f7 5d 3d 2c 44 ac bd
       0.09846831 -0.07487506 0.054191176 -0.0841144
000070 76 14 38 3d 12 f5 74 bd 0a 19 7c 3c a9 de a9 bc
       0.044941388 -0.05980403 0.015386829 -0.020736055
000080 c7 dc 83 bd 1b 38 6d bd 0e e4 5b 3d fe c4 95 bd
       -0.06438594 -0.057914834 0.053684287 -0.07312964
000090 4f 64 f8 bc b6 3f 00 bd c7 dc 15 bd 85 74 48 3d
       -0.030321268 -0.03131076 -0.036587503 0.048939247
0000a0 ae b1 c5 bd 31 36 2c bd e1 22 5b bd be de 70 bc
       -0.0965303 -0.04204387 -0.05350006 -0.014701543
0000b0 26 26 ce 3c 68 7c af bd 1a 2a 8d 3d d8 c2 8b 3d
       0.025164675 -0.085686505 0.06892796 0.06824273
0000c0 d3 ec 1b bd 98 1e 1e 3d ce 8c 07 3d fa 24 b6 bd
       -0.03806765 0.038603395 0.033093266 -0.088937715
0000d0 78 7a ca bd 6d f2 c0 3c af 17 33 bd f5 af 56 bd
       -0.0988664 0.023553098 -0.04372376 -0.0524139
0000e0 ca 67 8b bd 08 d3 59 bd 5b 30 26 bd 0a ba af bd
       -0.068069056 -0.05317977 -0.04057346 -0.08580406
0000f0 f1 e2 01 bb 98 03 9e bc 1a 6c de 3c c2 b6 b1 bd
       -0.0019819106 -0.019288823 0.027151156 -0.086774364
000100 64 8e 94 bd fb da 0e bc 89 1e 99 3d 06 3a fc bc
       -0.07253721 -0.008719201 0.07476527 -0.030789386
000110 cf d3 e6 3c 75 ea 55 bd 3f 5b 72 3c f1 f6 cb bc
       0.02817717 -0.05222555 0.014792263 -0.024898024
000120 cb cb a1 bc fd c2 b3 3d 57 e9 88 bc 61 a0 56 3c
       -0.019750496 0.087774254 -0.016712828 0.013099761
000130 cb 0f 2d bd 9c 8b ba bc a3 10 2d bd 2c 75 b3 3c
       -0.04225139 -0.022771649 -0.042252194 0.021906458
000140 f5 83 5d bd 13 71 60 bc 8f 6e 0d 3d b3 4d 4a bc
       -0.054080922 -0.013698834 0.034529265 -0.0123476265
000150 af 89 76 3d e8 21 97 3d c2 dd a5 bd 80 8b 95 bd
       0.0601899 0.07379514 -0.080989376 -0.07301998
000160 53 91 c5 3d 8a cf 3e bd 3d 7c be 3d 1f 7a e7 bc
       0.09646859 -0.046584643 0.0930104 -0.028256474
000170 cd 0f ea 3c 21 95 97 3c 10 e3 66 3d 3f cb c6 bc
       0.028571988 0.018503727 0.056368887 -0.024266837
000180 56 14 77 3d cc 5b 92 3c 50 df 04 3c bc e1 98 3d
       0.06032213 0.017866038 0.0081098825 0.074649304
000190 1f 13 4a bc 76 36 bd bd 1d e0 d7 3b 31 1b bb 3d
       -0.01233366 -0.09238903 0.0065879957 0.09136046
0001a0 b5 25 17 3d a6 84 98 bd 0e 0a a9 bc 31 6f 0a 3d
       0.036901195 -0.07447176 -0.020634677 0.033797447
0001b0 25 3e b7 bc 46 78 e8 bc 39 c1 67 bd 58 b0 b7 3d
       -0.0223685 -0.028377663 -0.056580756 0.08969182
0001c0 bc cd a2 3d 30 a5 1a 3d ed 86 b4 3d 46 ed c2 bc
       0.07949397 0.03775519 0.088147976 -0.023794781
0001d0 0c a5 45 3d cc ff 57 bd 83 ca 74 bc 77 24 89 3d
       0.048253104 -0.05273418 -0.014940861 0.06696408
0001e0 34 53 ea 3c 1d c8 aa 3d 79 f3 91 3d af ba 1c 3d
       0.028604127 0.0833895 0.07126517 0.038263973
0001f0 5b f9 eb bc 47 20 43 3d 92 01 63 3c e2 a5 a9 3d
       -0.028805425 0.047638204 0.013855355 0.08283593
000200 fc 7d 70 bc 5a db ab 3d 77 f4 c2 3d 70 40 a8 3d
       -0.0146784745 0.08391447 0.09519284 0.082154155
000210 07 c2 26 3c bd aa 44 3d 43 42 69 bd e1 70 d5 bc
       0.010178096 0.04801439 -0.056947958 -0.026054801
000220 1d 9f ac 3b a5 e6 a3 3c 64 5e 9a bd 5d 20 bf bd
       0.005267991 0.02000744 -0.07537535 -0.09332345
000230 2e a4 99 3d a0 52 a6 3c a3 f7 c8 bd 46 f2 38 bd
       0.07502018 0.02030307 -0.09812858 -0.045152925
000240 d7 51 9a 3d fc 72 29 3b e5 6c 74 bb 42 3c 81 bb
       0.07535141 0.002585589 -0.0037296352 -0.003943951
000250 0e ea 19 3d 66 c4 00 bd 64 78 c0 3d ff a6 08 bd
       0.037576728 -0.0314373 0.09397963 -0.033362385
000260 cc 2f ba 3c c1 74 9a bd 8d d6 52 3d 10 10 ad bc
       0.02272787 -0.075418 0.051474143 -0.021125823
000270 6e ff 76 3c b6 1c 9e 3d 2b a5 8a 3d e7 30 c9 3d
       0.015075548 0.0772032 0.067697845 0.098237805
000280 a4 bc 55 bc 7e 02 ce 3c ca 5d cb bd db 20 60 bd
       -0.013045464 0.025147673 -0.09929998 -0.054718833
000290 8d ac 36 3d 6c b5 b4 bd 29 50 e8 3c 42 2a 93 bd
       0.04459815 -0.08823666 0.028358536 -0.071857944
0002a0 4f af 91 bd a4 13 c0 3c 47 ff 81 bd fa d5 6e bd
       -0.071135156 0.023446865 -0.063475184 -0.058309533
0002b0 fe 9e 9a bd cf ff c0 bd d7 5c 98 3c 98 c0 01 bd
       -0.075498566 -0.094237916 0.018598957 -0.031677812
0002c0 9d 40 1a bc 29 f2 88 bd 29 75 c8 bd 15 2f 9c bd
       -0.009414819 -0.066868134 -0.097879715 -0.07626168
0002d0 b8 23 b6 3c f1 11 fa 3b b2 f1 e2 3c 48 af 97 bd
       0.022233829 0.0076315333 0.02770314 -0.07406479
0002e0 dc bb a8 3d c8 58 bc bd f5 2a c0 3a 09 11 92 bd
       0.08238956 -0.09196621 0.001466124 -0.071321554
0002f0 02 b2 a5 bc 12 21 a2 bd db 66 ac 3c ce 1d b4 bc
       -0.020226482 -0.07916464 0.021045139 -0.021986868
000300 1f c3 0a bd 1a e0 25 3d e7 2d 0c ba 6b 5b 19 bd
       -0.03387749 0.040496923 -0.0005347416 -0.0374407
000310 d4 71 b7 bb 5b 68 a4 3d f6 50 eb 3c e4 eb 68 3c
       -0.005598286 0.08027717 0.028725129 0.014216397
000320 6e 59 4a 3b 89 42 03 3d ac 4e c4 bd 3d 7f e4 bc
       0.0030876058 0.032045875 -0.09585318 -0.027892703
000330 9f 13 70 bb 86 3b 5e bd 3d 81 a9 3c fe 2d 82 bc
       -0.0036632789 -0.054255985 0.020691508 -0.015891071
000340 dd 8c 1e bd 02 73 fa 3c 08 8a b9 bd 56 d3 a1 bd
       -0.038708556 0.030572418 -0.090595305 -0.07901637
000350 57 8b 80 bb d7 62 a0 bd af 8b 00 bd d3 db b9 bc
       -0.0039228606 -0.07831352 -0.031383213 -0.022687828
000360 fb 01 4d 3d 96 b3 39 3d e2 22 9f bd 09 1e a8 bd
       0.050050717 0.045337282 -0.07770325 -0.08208854
000370 6b 96 d7 3c 76 11 a5 bd b2 63 76 3d 05 7e 0e 3d
       0.026316842 -0.08059971 0.06015367 0.03478815
000380 21 54 6b 3d f9 fe ad 3d 93 10 c6 3d c5 9d 31 3a
       0.05745328 0.08495898 0.0967113 0.00067755237
000390 ca 5d 21 3c a4 cc 56 3c ce b9 14 3c 6d 9d 4c bd
       0.009849021 0.013110314 0.009077502 -0.04995482
0003a0 f8 b1 12 bd cc be 43 bd 35 e8 b8 3d fd 3e c0 bc
       -0.035814255 -0.04778938 0.09028665 -0.023467535
0003b0 1e 13 0d bd 7e a5 0c bc 24 ec a9 bd 3c b5 b7 bd
       -0.03444206 -0.008584378 -0.082969934 -0.089701146
0003c0 79 5c 93 bd c0 71 b2 bd c1 a8 43 bd 9b de 8d bd
       -0.07195372 -0.08713102 -0.04776836 -0.06927224
0003d0 87 06 ab 3d 9a c6 50 bc d4 bf 50 3d 1c 05 42 ba
       0.08350854 -0.012742663 0.05096419 -0.0007401274
0003e0 f3 81 98 3d 9d c0 83 bd ee 3b c8 bd c9 c8 3d bd
       0.07446661 -0.064332224 -0.09777056 -0.04633406
0003f0 75 5d 34 bc 8d fa d2 3c 78 15 93 3d 9b b2 66 bd
       -0.01100861 0.025754238 0.07181829 -0.056322675

bias f4 [200]
000000 06 e1 26 bd f7 9c 82 bd d2 9b c6 3d 38 a3 17 3e
       -0.040741943 -0.06377595 0.09697689 0.14808357
000010 46 d3 67 3c a7 a8 c1 3d e8 59 60 3c cb 97 35 3e
       0.014149493 0.09455996 0.01369331 0.17733686
000020 02 f8 f1 3d 0a 96 7e bd be 68 8c bd 32 4a 8e bd
       0.11814882 -0.062154807 -0.068559155 -0.069477454
000030 60 41 0d bd df c5 00 3e 24 ab 84 bd 0b b1 91 bd
       -0.034486175 0.12575482 -0.06477955 -0.071138464
000040 e4 ac 9f bd 2e b2 96 bd 66 cd a3 3d 79 28 82 3d
       -0.07796648 -0.07358204 0.07998161 0.06355376
000050 0d 2f 6f bd 96 a3 37 3d 54 3b 77 3e 15 9c 27 3e
       -0.05839448 0.044833742 0.24143726 0.16368134
000060 bb c1 9b 3d 39 83 a7 bd 3f d9 d2 bc 68 e2 6a 3d
       0.076053105 -0.081793256 -0.025738357 0.057344824
000070 56 a7 88 bd 35 39 a2 bd 92 be 08 3d 24 e4 8b bd
       -0.06672542 -0.079210676 0.033384867 -0.06830624
000080 15 f1 ff 3c 85 dd 22 3e 14 8c 0a bd 73 cd 3b bd
       0.031242887 0.15904815 -0.033824995 -0.04585023
000090 6b 9f dc bc 04 15 6a 3e 15 e0 70 3d bc 6b 31 3d
       -0.026931485 0.2285958 0.05880745 0.043315634
0000a0 cf c6 f7 bc 3b 83 20 bb 68 7b 84 3c f1 e8 c5 3d
       -0.030246167 -0.0024492282 0.016172126 0.09663571
0000b0 c3 48 9d bd 3d 0a 22 bd d9 fe 2b 3d 30 86 95 bd
       -0.07679894 -0.039560545 0.04199109 -0.07300985
0000c0 04 ee d8 bd f7 ef 44 bd 2a c3 06 bd 9d af 3c bd
       -0.10592273 -0.04808041 -0.032900967 -0.046065915
0000d0 30 48 38 3c 61 16 ea bc a2 07 16 3d 61 3a 2f 3e
       0.01124768 -0.028575124 0.036628373 0.17112114
0000e0 21 7f c6 3d 42 56 24 3d fb 27 a5 3d d0 1e ee 3d
       0.09692217 0.040121324 0.08064266 0.11626971
0000f0 d7 5a 52 bd 89 08 b0 3d d3 4a c3 3d f5 07 2f 3e
       -0.051356163 0.08595378 0.09535756 0.17092879
000100 45 24 81 bd e0 83 6b 3d 0a f9 15 bd 85 95 8f 3e
       -0.06305746 0.057498813 -0.036614455 0.28043762
000110 05 63 21 3e 00 6a 2d 3c 54 6c 82 3e 17 86 0a 3d
       0.15760429 0.010584354 0.25473273 0.033819284
000120 1d c0 1a 3e 36 19 dc 3c 06 60 9e bd b2 7e ae 3d
       0.15112348 0.02686749 -0.07733159 0.08520259
000130 2b 29 b3 bc 88 12 a9 bc e4 b2 0f 3e 7f 46 05 3d
       -0.021870216 -0.02063872 0.14033085 0.032537933
000140 8a d3 6d 3d 42 5a 2d 3d 2f 0b da 3d b4 07 4e 3b
       0.058063067 0.042322405 0.10646664 0.0031437697
000150 4a d9 16 3e e6 2e 9c bd 7a b5 78 bd 53 2c 44 bd
       0.14731327 -0.07626133 -0.060719945 -0.047893833
000160 5e dc 5a 3e 4d be ad bd bd ae f5 bc 60 c3 58 bb
       0.21373126 -0.084835626 -0.029990548 -0.0033075437
000170 cf 40 4b bd 47 07 f2 bd ec 58 d6 3d 54 44 f8 3c
       -0.049622353 -0.11817794 0.10466179 0.030306019
000180 75 41 20 3e e5 cb 88 bd 20 fc 9d bd 06 30 c5 3d
       0.1564997 -0.06679515 -0.07714105 0.096283
000190 a8 a8 65 3c d3 ce 80 bd 85 cb 9f bd 22 55 3e 3d
       0.014017262 -0.062894486 -0.0780249 0.046467908
0001a0 26 a9 88 bd a2 7d 26 3d 3b 4a cf 3d f7 ed fe 3d
       -0.066728875 0.040647157 0.1012158 0.12447732
0001b0 00 17 ea bb de 8b a9 bd 02 c7 24 3d 7e 3c b2 3d
       -0.007143855 -0.08278631 0.04022885 0.08702944
0001c0 8d cd fb 3d e7 a3 f6 3d 62 1e 11 3e 2c cd a6 bd
       0.12295065 0.12042981 0.14171746 -0.08144602
0001d0 ae d7 0f 3e 18 53 67 3e c0 fa b1 bc c7 a9 de bb
       0.14047119 0.22590292 -0.021726012 -0.0067951414
0001e0 5b 88 02 bc 79 6d e8 bc 6c f1 ca 3d d4 67 be bc
       -0.00796708 -0.028372513 0.09909329 -0.023242868
0001f0 ee 82 37 3e 4a 4c ac bd 61 41 7d bd c2 2b 55 bc
       0.1792104 -0.084129885 -0.06182993 -0.013010921
000200 92 12 6e bd ee 21 f2 3d 08 a9 68 3d b6 0f 87 bd
       -0.05812318 0.11822878 0.056801826 -0.065947935
000210 da 1e 1c 3e 02 3e 92 bd dc 16 ac bc 7e 2c 10 3e
       0.15246144 -0.07140733 -0.021006994 0.14079472
000220 c1 2d b2 3d 58 6a d9 bc 53 18 aa bd aa a9 03 3c
       0.08700133 -0.026539966 -0.08305421 0.0080360565
000230 ec 84 82 3e 6f f2 f6 3d a2 1e 2c 3d 64 09 a3 ba
       0.25492036 0.12057959 0.0420214 -0.0012438712
000240 03 d5 2d 3c 60 38 83 bd d3 3d 1f 3e c6 26 01 bd
       0.010609868 -0.06407237 0.15550928 -0.031531118
000250 28 06 8c 3c d8 53 0f bc ea fb ca bd 70 ad 5d bd
       0.01709278 -0.008748017 -0.0991133 -0.05412048
000260 5e bf 86 bd e5 77 94 bd 80 bc 5d bd 2d b3 44 3c
       -0.06579469 -0.072494306 -0.054134846 0.012005609
000270 d0 f0 04 3c 3a 0b 2a 3d 3c 3a 9a 3d 91 ac b6 bd
       0.008114055 0.041514613 0.075306386 -0.08919633
000280 30 ba b6 bb 7b 55 81 bd 37 22 e9 3d e0 01 11 bd
       -0.0055763945 -0.06315132 0.11383479 -0.03540218
000290 20 c3 81 bd 50 90 59 3c c1 a0 a9 3d 63 f5 b4 bd
       -0.06336045 0.013279036 0.082826145 -0.08835866
0002a0 5f ed fc 3d 18 15 1d bc 80 6b ae ba b9 e3 44 3e
       0.123499624 -0.009587549 -0.0013307184 0.19227494
0002b0 be 30 c7 3d b9 3a 09 3e 40 a5 d4 3a 6c 97 63 3d
       0.09726094 0.13401307 0.0016223565 0.05556433
0002c0 34 4c 2e 3e 89 00 9c bc d2 c5 c1 bd ee 89 32 3e
       0.17021257 -0.019043224 -0.09461559 0.17435429
0002d0 80 85 29 bc 47 24 5b bd e9 48 29 bc 9c e7 0f bd
       -0.01034677 -0.053501394 -0.010332325 -0.03513299
0002e0 17 4d 0f 3e d9 bb c7 3d a7 a8 39 bd 48 b2 e8 bc
       0.13994251 0.09752626 -0.045326855 -0.028405324
0002f0 1a 81 cb bd 0a 83 13 bd dd d7 7e bd c8 80 84 3d
       -0.099367335 -0.03601364 -0.062217582 0.064698756
000300 79 c4 94 3d 09 e0 bd bc da 0a 89 bd 31 99 91 3d
       0.07264037 -0.023178117 -0.06691523 0.07109297
000310 0f 7c 8e 3d be 5e 95 bd 8b c3 21 3d 29 1b dc bc
       0.06957256 -0.07293461 0.039493125 -0.02686842

weight f4 [400, 200]
000000 d0 1b b1 3b f7 18 8b 3d 89 05 01 bd 70 28 14 3d
       0.005404927 0.06791871 -0.03149942 0.036171377
000010 b6 12 1a bd b8 dd 55 bd 30 97 87 bb 0e 92 1e bd
       -0.0376155 -0.0522134 -0.004137896 -0.038713507
000020 2c ba 59 3d f8 a5 bb 3c 2c a5 99 3c c0 ba fe bb
       0.053156063 0.022906289 0.018755518 -0.007773727
000030 4d c4 4e bd ec 5f ae 3c 2a 27 6b 3d fa ad 7f 3d
       -0.050480176 0.021285973 0.057410397 0.062421776
000040 5d 2c 1f bd 74 f0 8a bd bd 51 3d bd 0d 32 88 3d
       -0.038860667 -0.06784144 -0.04622053 0.066501714
000050 26 0c 73 bd 64 c0 d0 3c f0 b8 66 3c 00 94 e4 39
       -0.059337758 0.025482364 0.0140821785 0.00043597817
000060 7c 81 bc 3c de 03 6b 3d 7a ab 3d bd 68 a3 47 3c
       0.023010962 0.057376735 -0.04630611 0.012184955
000070 b0 ff 86 3b c2 74 09 3d d0 8d 3e bd 9c 98 ed 3c
       0.004119836 0.033558615 -0.04652196 0.029003434
000080 8e b0 5e 3d 19 0f 83 3d 04 8f 42 3d 7c ea 11 3d
       0.054367594 0.06399364 0.04749967 0.035624012
000090 c0 26 42 bd 50 db f2 3b 24 22 49 bd 24 42 8d bd
       -0.047400236 0.007411398 -0.049104825 -0.06897381
0000a0 b4 47 ba 3c 06 b3 8b bd 18 8b 0a 3c 80 42 62 3c
       0.022739269 -0.068212554 0.008456014 0.0138098
0000b0 b2 79 4a bd 34 e2 05 3d d3 05 81 bd 64 d2 24 bd
       -0.049432464 0.032686427 -0.06299939 -0.040239707
0000c0 88 41 ec bc d8 11 e2 bc 22 33 bf bc 0c e8 35 bd
       -0.028839841 -0.0275964 -0.023339812 -0.04441075
0000d0 b2 5d 4b 3d 6c 40 85 3c 80 49 e9 ba 27 46 1a bd
       0.0496499 0.01626607 -0.0017798394 -0.03766456
0000e0 c4 58 4a 3d 80 d0 d5 3c 43 8f 40 bd 74 39 1d 3d
       0.04940106 0.026100397 -0.047011625 0.03838487
0000f0 40 bb c2 3c 4f 9b 8b bd 1e 73 2e bd 98 b4 61 3c
       0.023770928 -0.06816732 -0.042590253 0.013775967
000100 50 2b b2 3c 96 f6 5d 3d af 3d 8e 3d 89 3b 3b bd
       0.021749169 0.05419024 0.06945359 -0.045711074
000110 6c e8 ed bc 2c a9 22 3d 6c 08 85 bc db d7 20 bd
       -0.029041491 0.039712116 -0.016239367 -0.039268356
000120 ce ea 80 bd 0a 40 14 bd 56 62 84 bc 30 2c 8a bc
       -0.062947854 -0.036193885 -0.016160171 -0.016866773
000130 8a 7d 6c 3d 60 bf 9c 3b 79 a3 64 bd 68 10 d6 3c
       0.05773691 0.004783556 -0.055819962 0.02613087
000140 34 ef dd bc 18 f6 85 bc b7 4b 62 bd 31 15 88 bd
       -0.0270916 -0.016352698 -0.05524799 -0.06644667
000150 76 68 d4 bc fa 67 69 3d 58 1e b4 3c 9c da 4c bc
       -0.025928717 0.056983925 0.021987125 -0.012503292
000160 c7 1d 83 3d f4 39 39 bd eb 5c 5e bd 49 72 8f bd
       0.06402164 -0.045221284 -0.054287832 -0.0700422
000170 d8 cf 28 3c 1e 1a 21 3d 00 fe 8b bd 50 12 93 bb
       0.01030346 0.039331548 -0.06835556 -0.004488267
000180 18 82 30 3c 68 6c 44 bd 86 d7 65 3d 9f f2 13 bd
       0.010773204 -0.047954947 0.056113742 -0.036120053
000190 c4 4e a9 3c 0c ad 2f bc 34 6c 48 3d 53 53 8b 3d
       0.020667441 -0.01072241 0.048931316 0.06803002
0001a0 30 20 6c 3c e0 fe 33 3d 7d 28 83 bd a2 20 90 bd
       0.014411971 0.04394424 -0.06404207 -0.07037474
0001b0 ae df 8b bc d5 83 88 bd 4a ec 05 3d 2c 86 32 bd
       -0.017074432 -0.0666577 0.032696046 -0.043584988
0001c0 cc 2b f6 bc a0 f3 e7 3b 33 e2 88 bd ba e4 61 3d
       -0.03005018 0.007078603 -0.06683769 0.05514977
0001d0 fc 53 67 bd cc cd 8e bc 48 c4 1b 3d 5c 09 5c bc
       -0.056476578 -0.017432116 0.038028985 -0.013429966
0001e0 88 5d 51 3c 2c 88 0d bd 78 6a 34 bd 9e b5 64 3d
       0.012778647 -0.03455369 -0.04404685 0.055837266
0001f0 4a f3 24 bd 67 1a 0e bd 71 05 3b bd da 79 80 bc
       -0.04027108 -0.034693148 -0.045659486 -0.015683103
000200 e0 57 e6 3c f8 f6 d1 3c 29 3c 54 bd 30 49 2e bd
       0.028118074 0.02563046 -0.051815186 -0.042550266
000210 8e 83 5b 3d f2 06 1e 3d c6 8e 5b 3d 6e c2 60 3d
       0.053592257 0.038580842 0.053602956 0.054872923
000220 ce b7 b4 bc f7 b8 11 bd 78 32 49 bc 78 7f 60 bd
       -0.022060301 -0.035576787 -0.012280099 -0.054809064
000230 d8 0e 02 3c 50 f1 ca bc 17 c5 6d bd 38 9e 5a 3c
       0.007938109 -0.02477327 -0.058049288 0.013343386
000240 52 6b 8c bd dc ea ad bc d0 3e 69 bd 08 7d 78 bc
       -0.06856407 -0.021230154 -0.05694467 -0.0151665285
000250 60 e4 6e 3c a1 a5 8c 3d 0e 66 74 3d 20 0f 41 3d
       0.014580816 0.06867529 0.05966764 0.047133565
000260 08 45 45 3d 70 d5 b7 bc b8 0b fe 3c c8 fe 79 3c
       0.048161536 -0.022440642 0.031011447 0.0152584985
000270 80 eb b6 3b 7a 94 cd bc 80 58 ea 3b 34 a5 11 3d
       0.005582273 -0.025095213 0.0071516633 0.03555794
000280 28 bb 68 bd 60 f8 c0 bb 0c c5 d1 3c 00 9c dd 3b
       -0.05681911 -0.0058889836 0.025606655 0.0067629814
000290 74 aa a6 bc ac 18 4d bd 38 27 b9 3c 80 91 63 3b
       -0.02034495 -0.050072357 0.022601709 0.0034724176
0002a0 00 39 93 3a 86 ad 1b 3d 0c 4e a7 bc 9a cc 0b bd
       0.0011232197 0.03800728 -0.020422958 -0.03413067
0002b0 f5 9e 65 bd 66 c5 d9 bc 40 70 ea 3c 30 a6 2e bd
       -0.056059796 -0.026583385 0.028617978 -0.042638958
0002c0 20 ae e3 3b dc 4e b7 3c b0 6c 35 3d 5c 81 b6 bc
       0.0069482476 0.02237647 0.044293106 -0.02227848
0002d0 56 1b 43 3d 13 3a 89 3d e8 77 a2 3c c0 87 c3 3c
       0.04763349 0.0670053 0.019832566 0.023868442
0002e0 00 af f3 b9 9e 3b 8c bd 40 f3 34 3c c1 7e 1a bd
       -0.00046478957 -0.068473086 0.011044323 -0.03771854
0002f0 dc 99 1e bc 1a 61 88 bc f0 f3 ea 3c fe f9 75 3d
       -0.009680238 -0.016647864 0.028680772 0.060052864
000300 00 90 ab 3c f2 1c 62 3d 2c 82 ce bc 2a 36 7d 3d
       0.020942688 0.055203386 -0.025208555 0.061819233
000310 9a a2 21 bd b4 04 a7 3c e0 88 34 3d 00 a9 e8 b9
       -0.03946171 0.020387985 0.044075847 -0.00044376403
000320 82 67 3a 3d 81 6d f4 bc fa d2 0f 3d 5f 72 d1 bc
       0.04550887 -0.029837372 0.035113312 -0.025567232
000330 30 34 38 3d 81 44 bb 3c 03 7b 0d bd 7b b8 8b 3d
       0.044971645 0.022859814 -0.03454114 0.06822296
000340 80 fd f5 bc 06 17 4f 3d 80 86 5d bb 60 9f aa bb
       -0.030028105 0.050559066 -0.0033802092 -0.0052069873
000350 a1 30 8e 3d 1e 9c e3 bc 1e a2 3b bd 78 83 11 3d
       0.06942869 -0.027784403 -0.045808904 0.03552577
000360 9a 6d 86 bd 58 1b 9c bc 89 0b a9 bd bd 5b a2 3b
       -0.065638736 -0.019056007 -0.08254153 0.0049547837
000370 10 c4 4d bd 58 4d a4 3c 75 3e d3 3c b0 45 34 3d
       -0.050235808 0.020056412 0.025786618 0.04401177
000380 bd 77 71 bd bf 8f 00 3a 35 ef 97 bd ae 61 f1 3c
       -0.058952082 0.00049042323 -0.07418672 0.029465523
000390 a6 b5 9c bc 46 18 04 3d 7c 66 0d bd 7e ce 57 3d
       -0.019129585 0.03224971 -0.034521565 0.05268716
0003a0 1b 6b 81 bd f4 1c 13 3d ea 08 6f 3d 99 9e 81 3d
       -0.06319257 0.035916284 0.05835811 0.06329078
0003b0 b2 54 c6 bc 47 a6 77 bb b9 df ff 3b 61 a8 96 3d
       -0.024210308 -0.0037788318 0.0078086522 0.073563345
0003c0 f8 a3 6d 3d d7 42 34 3d 50 d1 47 bc 93 b4 3b 3d
       0.0580177 0.044009056 -0.0121959 0.045826506
0003d0 c2 86 7d 3d 8b 67 75 bd 93 f6 3a 3c fb 90 82 3d
       0.061896093 -0.0599132 0.011411327 0.06375309
0003e0 84 23 cc 3c b8 d0 51 bc 96 81 52 3d 7b 47 85 3d
       0.024919279 -0.01280611 0.051393114 0.065077744
0003f0 e0 c4 fb bc d3 d1 0e 3d 36 33 14 bd 12 2f bb bc
       -0.030733526 0.034868073 -0.03618165 -0.022849593

bias f4 [400]
000000 b6 45 22 3d 19 95 8a 3d 20 9e 84 bb a5 73 d4 3c
       0.039617263 0.06766719 -0.0040471703 0.02593405
000010 b4 77 5c bb c0 ea 29 bb 48 20 2c 3d c9 fd 5e 3c
       -0.0033640685 -0.0025927275 0.042022973 0.013610312
000020 f2 04 10 3e a4 0d 8c 3d 38 c5 25 3e 38 97 77 3c
       0.14064386 0.06838539 0.16188514 0.015111737
000030 20 1e e8 bc ca a3 9d bc 82 a1 01 3e e0 2e b3 bc
       -0.028334677 -0.01924314 0.12659267 -0.021872938
000040 42 28 81 3d c1 63 9a 3d 61 53 c2 3d 05 34 24 3e
       0.06306507 0.07538558 0.094885595 0.16035469
000050 9a 35 07 bd dc ad 43 3d 39 43 76 bd 5e e4 f8 3d
       -0.033010103 0.047773227 -0.060122702 0.121529326
000060 8b 28 7e 3d d8 57 5a bc 9b f3 67 bd 23 df d3 bc
       0.062050384 -0.013326608 -0.056628805 -0.025863236
000070 66 c0 89 3d 48 6d b3 3d c1 5e 28 3d f0 1e c7 3c
       0.0672615 0.08761078 0.04110599 0.024306744
000080 27 5c 1a bd ac 00 b0 bc 3a 2b f2 3d 72 a2 10 3b
       -0.03768554 -0.021484695 0.11824651 0.0022069481
000090 8a 9b 8a 3d 5b 32 60 bd f6 98 34 bd 46 13 83 3d
       0.06767948 -0.054735523 -0.044091187 0.064001605
0000a0 44 db 39 3d 1c 0f ed 3d cf cc 2c bd 5c 61 a4 bc
       0.045375124 0.115751475 -0.04218751 -0.020065956
0000b0 86 a9 fd 3d d5 bf 30 3d 50 4a 22 3e 08 5d d8 bc
       0.1238585 0.043151695 0.1584866 -0.026411548
0000c0 c9 e2 fd bc 83 89 b5 bc 4b 26 88 3d 4b f9 1e 3d
       -0.030991929 -0.022160297 0.06647929 0.038811963
0000d0 65 04 d0 3d c1 39 94 3d c0 6a c9 3d 4f bb 74 bd
       0.10157088 0.07237578 0.09834814 -0.059748944
0000e0 93 4e de bc 5e 5b 31 3d a0 28 ec bc 1f 99 24 3e
       -0.027137076 0.043300025 -0.028827965 0.16074036
0000f0 8c 1e b5 3d 06 b7 fe 3b f4 be e1 bc c8 7d 8c bd
       0.08843717 0.007773283 -0.027556874 -0.06859928
000100 13 82 5f bd b8 33 27 3e 2c 07 62 3d 2e f3 16 3d
       -0.054567408 0.16328323 0.05518262 0.036853008
000110 f5 70 84 bd 94 42 3b bd 77 cd 01 bd a6 46 c8 bc
       -0.06466857 -0.04571779 -0.031690087 -0.02444775
000120 d6 c1 7f 3d 00 ce 00 b9 8c d4 9c 3d a0 0f 07 3e
       0.062440716 -0.00012283772 0.076577276 0.13189554
000130 3e 6a bb bc ae 64 97 3d e0 4b 02 bc 9e 4c 02 3c
       -0.022877809 0.0739225 -0.00795266 0.007952837
000140 3b 72 8f 3d e3 f8 94 bc dd 2a 91 bc 45 ef 7b bc
       0.070042096 -0.018185085 -0.017720634 -0.0153768705
000150 10 b4 1f bc c1 d6 30 bd 37 8a 02 3d 2e a1 61 bd
       -0.00974752 -0.043173555 0.031870093 -0.055085354
000160 6f ec 8d 3d 47 03 9e 3d 82 44 99 3d 22 81 2f bd
       0.06929862 0.07715469 0.0748377 -0.04284776
000170 79 3e 8c bd eb 57 31 3b 2b 64 04 3e f7 59 72 bd
       -0.06847853 0.002706046 0.12928836 -0.05916783
000180 cb fc dc 3d 9a d8 e5 bc 38 c6 8f bc 8b d8 a6 3d
       0.10790404 -0.028057385 -0.017550573 0.08146771
000190 14 70 8a 3d 28 11 68 3d 49 c0 7f bd 9c 56 f3 bc
       0.067596585 0.056656986 -0.062439237 -0.029704385
0001a0 ba 9c 40 3d ed 5a a9 3d ca 80 cc bc 5f 88 47 bd
       0.047024466 0.08269296 -0.024963755 -0.048714038
0001b0 b1 e0 9d 3d 02 8e a8 bc 84 5e 5c 3d 3e 09 e0 3d
       0.07708872 -0.020575527 0.053801075 0.10939263
0001c0 0e 43 51 bd fe b8 86 bd 6e d4 70 bd 9b e9 9f 3d
       -0.05108934 -0.06578253 -0.05879634 0.078082286
0001d0 d6 33 1b bd a0 15 1f 3c 9d f9 8b 3d ee d6 40 bd
       -0.03789123 0.009709746 0.06834719 -0.047079973
0001e0 41 26 93 3d 40 42 b0 3d 4c ad 4e bc 05 55 fe 3c
       0.07185031 0.08606386 -0.012614559 0.0310464
0001f0 b5 a6 a2 3b 3a b9 64 bd 68 ce 89 3c 11 81 85 bd
       0.0049637207 -0.05584071 0.016822055 -0.06518758
000200 e4 de 2e bd 95 3e 42 bc ce af f7 bc 46 d0 db bb
       -0.042693034 -0.011855741 -0.030235197 -0.0067081777
000210 4d 63 9e 3d 08 23 8f 3d 25 13 1e 3a a6 c5 ce 3d
       0.07733784 0.069891036 0.00060300744 0.10096292
000220 2a a9 4b bb 1c d1 86 bd bb 01 66 bd cc 14 93 3c
       -0.0031076171 -0.06582853 -0.056153994 0.017954253
000230 18 46 25 bd 60 21 e0 3d e5 b3 5f bd ab 1b e6 bc
       -0.04035005 0.10943866 -0.05461492 -0.028089365
000240 c9 37 84 3d 9e 7b a5 3c 22 19 8d bd 16 0f 0a bd
       0.06455953 0.020200547 -0.06889559 -0.033705793
000250 90 12 19 3d 96 f0 86 bd 1b f0 05 39 2d 06 cb 3d
       0.03737122 -0.06588857 0.00012773315 0.09913287
000260 a0 22 d8 bb 1d 75 8c 3d 44 56 20 3e 64 c5 72 bc
       -0.0065959245 0.06858275 0.15657908 -0.014817569
000270 24 4e 95 3c 28 9a 64 bd 17 d8 88 bd dc de 9e bc
       0.018225737 -0.055811077 -0.06681841 -0.019393377
000280 75 54 09 bd 26 c2 21 3d f0 8b 88 bd 65 98 74 3d
       -0.03352781 0.039491795 -0.06667316 0.059715647
000290 a8 0f 85 bd 02 f1 ba bc ec 79 4c 3d 9f 9d 58 3d
       -0.06497127 -0.02282 0.04992096 0.052884694
0002a0 7d 9f 90 3d ef 8a 88 bd 26 f5 2a 3d f3 ba 37 3e
       0.0706167 -0.066671245 0.041737698 0.17942409
0002b0 7b 69 f9 bb 99 ba fd 3c d6 cc fe bb ae 4e f1 3d
       -0.007611451 0.030972766 -0.007775883 0.11782585
0002c0 b0 d4 e5 3c 6f 7a 3e 3d 9f 5b 43 3d 73 79 a3 3d
       0.028055519 0.04650348 0.0476948 0.07982149
0002d0 6a 03 22 bd 0f d7 33 3d 62 9a 3f bd 47 7f 66 3c
       -0.039554037 0.043906268 -0.04677809 0.014068431
0002e0 d1 2c ce 3d 6f b6 02 3e 8a 28 43 3d 69 62 4d 3d
       0.10067142 0.12764905 0.047646083 0.05014268
0002f0 08 41 02 bc 66 f6 9a 3d 75 62 29 3d b0 70 2e bd
       -0.007950075 0.07566528 0.04135366 -0.042587936
000300 03 8e 99 3d 36 e6 34 bd 4e 6f ee 3d 02 01 d6 bc
       0.0749779 -0.04416486 0.116423234 -0.026123527
000310 84 b0 31 bd e3 e9 44 bc 2d ca b3 3c 73 eb 1b 3e
       -0.04338123 -0.012018654 0.02194699 0.15226535
000320 b6 e7 ec 3c 19 b6 b5 3d e3 07 76 bd c5 6f 15 3d
       0.028919082 0.08872623 -0.060066115 0.036483545
000330 8c 2a fd 3d 6f ff 15 3e 95 af dd 3d d8 eb fe bc
       0.12361631 0.14648221 0.10824505 -0.031118318
000340 dd eb 08 3d 48 f3 bc 3d e9 3b 5b 3d 7c 65 13 3e
       0.03342806 0.0922609 0.05352393 0.14394182
000350 f0 16 86 3c f4 fd d1 bc dd 40 09 bd 52 7e 88 bd
       0.01636836 -0.02563379 -0.033509124 -0.06664719
000360 bc 81 82 3c 74 27 80 3d 0d 37 60 3d c1 df 1c 3c
       0.015931003 0.06257525 0.05474 0.009574831
000370 ba 11 fb bc 85 02 37 bd ab 69 c0 3d 50 7c 3d ba
       -0.030648101 -0.044680137 0.093951546 -0.0007228302
000380 8c 67 17 bd c9 81 7d 3d 73 e4 98 3c 0c 06 5f bc
       -0.036963984 0.06189135 0.01866362 -0.0136122815
000390 4d f3 85 bd 81 3f be 3d 10 9a 64 bd 9e b0 57 bd
       -0.065405466 0.09289456 -0.055810988 -0.05265867
0003a0 00 cc 60 bc 3f 79 8c bd 06 d6 6d 3b 18 db 02 3e
       -0.013720512 -0.06859063 0.0036290898 0.1277889
0003b0 4a 61 45 3d 90 99 81 3d d5 00 f8 bc 98 7b 36 bd
       0.048188485 0.06328118 -0.030273834 -0.044551462
0003c0 e8 72 6a bc 71 29 34 3d 9f 8c f2 bc 72 27 ba bd
       -0.014309622 0.043984834 -0.029608069 -0.09089555
0003d0 a6 59 3c bd ef 03 6e bd cd 26 6d bd 08 4a 10 3e
       -0.045983933 -0.05810922 -0.05789833 0.1409074
0003e0 81 a6 cc 3c 4d 77 20 bd 43 bc bd 3c 52 d2 9c 3d
       0.024981739 -0.039176274 0.02316106 0.07657303
0003f0 aa 63 57 bb d8 43 e9 bc d9 87 e5 3d ba 04 f5 bc
       -0.00328658 -0.028474733 0.112075515 -0.02990948

weight f4 [128, 400]
000000 56 27 c4 3c 72 b7 19 bd 9e e1 a8 3c 53 18 49 bd
       0.023944538 -0.037528463 0.020615395 -0.049095463
000010 c0 f3 bf bb 9d ac 9e bc a2 7d ff 3c 00 4d 14 3b
       -0.0058579147 -0.019369418 0.031187836 0.0022628903
000020 df 1d 36 3d 4d ee 31 3d 80 b9 ef b9 ba d0 d5 3c
       0.04446208 0.043440152 -0.0004572384 0.026100505
000030 b8 ca 0a bd 40 74 ce 3b 21 ba 37 3d 70 a4 e4 bc
       -0.033884734 0.006300479 0.04485524 -0.027910441
000040 70 ab ec bc ca 9f fb 3c 00 ce 92 bc 1d 7e 0c bd
       -0.028890342 0.030715842 -0.017920494 -0.03429996
000050 86 37 93 3c a1 4c 42 3d 06 37 a0 3c 58 98 1e 3c
       0.017970812 0.04743636 0.019557487 0.009679876
000060 90 9f f1 3b 69 e7 21 3d ac cc 43 3c 81 40 09 3d
       0.0073737577 0.03952733 0.011950653 0.03350878
000070 4a 03 e4 3c 89 3c 21 3d 35 40 0e bd ca 09 ac 3c
       0.0278336 0.03936437 -0.0347292 0.021000762
000080 bb d8 05 3d 8c 77 68 bc d5 b7 18 3d f0 18 a1 bb
       0.032677393 -0.014188658 0.03728469 -0.004916303
000090 00 ea 53 bb 44 8d 64 3c 87 1c df bc b9 69 20 3d
       -0.003233552 0.013949696 -0.027235283 0.039163325
0000a0 50 4f da 3b a3 dd 25 bd 38 42 40 bc b0 3b 81 bc
       0.006662287 -0.040494572 -0.011734538 -0.015775532
0000b0 93 4d d5 bc a4 f2 50 3c 30 14 16 3b 88 1b 20 bc
       -0.026037967 0.0127531625 0.0022900216 -0.009772189
0000c0 24 9e 5c 3c b0 58 b6 3b 32 d1 e4 3c be 9a 8b 3c
       0.013465438 0.0055647716 0.027931783 0.01704156
0000d0 74 ad 23 bc 67 bb 3a 3d 60 6e 29 bb 4a 82 c5 bc
       -0.009990085 0.045588877 -0.0025853142 -0.024109978
0000e0 a0 bf fb ba fc e6 89 bc 90 0b ec bb c0 32 c5 bb
       -0.0019206889 -0.016833775 -0.007203527 -0.0060180128
0000f0 a8 51 a2 3b 2b ed 18 bd c5 89 3a 3d 38 04 2a bc
       0.004953582 -0.037335556 0.045541544 -0.010376982
000100 0a 1b c8 bc a0 f1 ca ba 10 37 ad 3b 1b ab 39 3d
       -0.024426956 -0.0015483387 0.005286105 0.045329195
000110 6c 11 4a bc 4c 84 98 bc 46 4f 87 3c c5 1f 22 bd
       -0.012333255 -0.018617772 0.016517293 -0.03958108
000120 ad 4e d1 bc 1b 16 21 bd b6 a1 9d 3c 03 4a 36 3d
       -0.02555021 -0.039327722 0.019242149 0.044504177
000130 14 33 7c bc 3e 3a bd 3c 36 f0 fe 3c 00 cf 9a 3b
       -0.015393037 0.023099061 0.0311204 0.0047243834
000140 08 70 30 bc 37 f1 9a bc a2 9c b5 3c d8 01 0d bc
       -0.010768898 -0.018913848 0.022169415 -0.008606397
000150 04 8c 67 3c c9 04 37 3d 96 13 fd 3c ad bb d3 bc
       0.014132503 0.044682298 0.030893128 -0.025846327
000160 ea cb c5 3c e8 b5 b5 bb 60 dd 6b 3b 4a 2a cc 3c
       0.024145085 -0.0055453666 0.0035990104 0.024922509
000170 d0 56 29 bb c1 c4 06 3d e6 b3 da 3c 4c 7c 6b 3c
       -0.0025839098 0.032902483 0.02669711 0.014372896
000180 e6 ba 09 bd 51 bd 40 3d 61 b1 03 3d fd 8d b1 bc
       -0.033625506 0.047055546 0.032151584 -0.02167415
000190 d5 26 1a 3d bd fa 15 bd de 9e de 3c cc 24 2b bc
       0.03763469 -0.036616076 0.027175363 -0.010445785
0001a0 f5 6a 42 bd 30 b2 80 bc a8 a3 a1 bb a0 3b 30 3b
       -0.047465283 -0.015709966 -0.0049328394 0.0026891008
0001b0 c0 f6 a2 3a 1d c1 34 bd 8b 9d 35 3d b7 17 ae bc
       0.0012433156 -0.04412948 0.044339698 -0.021251542
0001c0 77 b9 9b bc 2a 3b b6 bc 60 76 26 3b f9 35 21 3d
       -0.019009335 -0.022245008 0.0025400147 0.039358113
0001d0 b2 64 80 3c a3 d2 e6 bc 82 1e f7 3c 7d ad ed bc
       0.015673015 -0.028176611 0.030165914 -0.02901339
0001e0 53 cc e5 bc 64 ed 6f 3c 30 7c c7 bc 27 3a f5 bc
       -0.028051531 0.014644001 -0.02435121 -0.029934956
0001f0 47 62 c7 bc 61 b0 1d 3d 87 99 11 3d 5f 94 15 3d
       -0.024338854 0.038498286 0.035546806 0.03651845
000200 3f 51 4a 3d cc b2 7a bc f0 5b be bb c0 bd f0 ba
       0.04939389 -0.015301418 -0.0058092996 -0.0018367097
000210 47 c2 08 3d 9d 08 47 3d ef b0 2a 3d a0 5c b1 ba
       0.033388402 0.0485922 0.041672643 -0.0013531633
000220 7d 38 0b 3d 76 2a 8f bc d9 56 3b 3d 59 3e 29 3d
       0.03398942 -0.017476302 0.04573712 0.041319225
000230 23 2b db bc f1 06 07 3d 33 05 1d bd 98 47 de 3b
       -0.026753968 0.032965604 -0.038335036 0.006783437
000240 90 42 f1 bc 64 8c 09 bd dd 36 c0 bc 79 06 48 3d
       -0.029450685 -0.033581153 -0.02346366 0.048834298
000250 33 a4 d5 bc 38 53 2f bd b1 f0 49 3d 62 df be 3c
       -0.026079273 -0.042803973 0.049301807 0.023299877
000260 b8 f1 38 3c 68 f9 57 bc b2 89 9c 3c ea d1 40 bd
       0.011288099 -0.013182022 0.019108627 -0.04707519
000270 60 4f 93 ba 18 de 20 3c 3d 7b 2d bd 9f 36 21 3d
       -0.0011238866 0.009818576 -0.042353857 0.03935873
000280 98 41 2e bc e7 38 49 3d b0 50 2f bd 8a 8e c2 3c
       -0.010635756 0.049126532 -0.04280156 0.023749609
000290 6c 41 6a bc 80 ae 0d bd 80 32 a2 39 2a d6 a1 bc
       -0.014297824 -0.034590244 0.00030936673 -0.019755442
0002a0 27 7f 17 3d fd 26 f5 bc b8 8e 2c 3c 93 ef 3b bd
       0.036986496 -0.029925818 0.010532074 -0.045882773
0002b0 5e f3 d7 3c 42 39 d5 3c 62 18 80 3c 5d 8a 3b 3d
       0.026361164 0.02602828 0.015636627 0.04578625
0002c0 00 ad d8 39 13 47 c9 bc e4 d4 89 bc c7 62 c5 bc
       0.00041327626 -0.024570024 -0.016825147 -0.024094952
0002d0 0a 69 d6 bc 8a 7d c0 bc 04 40 56 3c 16 dd aa 3c
       -0.026173133 -0.023497362 0.013076786 0.020857375
0002e0 00 18 0b bc ae 9c 00 bd ed 10 2b bd bb a4 0f bd
       -0.008489609 -0.03139942 -0.04176419 -0.03506921
0002f0 9e ef de 3c a0 e3 d1 bc b0 64 55 3b 30 2d 07 bd
       0.027213868 -0.025621235 0.0032561235 -0.03300208
000300 87 2f ad bc 8f 2c 49 bd b4 54 31 bc 79 1c 36 3d
       -0.021140827 -0.04911476 -0.010823417 0.044460747
000310 9b 50 0a 3d 40 75 94 3b e0 5d a1 bc 90 8f 39 bd
       0.033768278 0.004530579 -0.019698083 -0.045302927
000320 a8 72 c7 bb a4 aa 7e 3c b8 88 0d 3c ca 65 87 3c
       -0.006086666 0.015543614 0.008638553 0.016528029
000330 df f5 2e bd 00 3e 38 bc 18 71 c7 bb 0e 2f 82 3c
       -0.04271495 -0.011245251 -0.00608648 0.015891578
000340 08 20 56 bc 13 6b c0 bc 02 70 e3 3c 73 bd 48 3d
       -0.01306916 -0.023488557 0.02776337 0.049008798
000350 55 a0 1b 3d 80 e0 99 3b e0 a3 11 3b f4 f0 2d 3c
       0.0379947 0.004695952 0.0022222921 0.01061653
000360 49 4f 30 3d 13 27 db bc a8 5c 30 bd e0 c5 9d bc
       0.043044362 -0.02675203 -0.043057114 -0.019259393
000370 00 73 ae 39 b0 7a 1c bd a5 45 43 bd 0a c2 9f 3c
       0.00033273548 -0.03820294 -0.04767384 0.019501705
000380 61 f6 30 3d 12 c8 85 3c a5 88 25 bd c0 5a 2e 3c
       0.043203715 0.016330753 -0.040413518 0.010641754
000390 68 19 aa bb 7d bb aa bc c0 80 ec 3a e0 84 23 bb
       -0.005191017 -0.020841355 0.0018043742 -0.0024951026
0003a0 c0 32 e0 3b b6 2d 0f bd c8 82 14 3c c8 a0 09 bc
       0.0068419874 -0.034955703 0.009064384 -0.00840015
0003b0 00 18 42 39 46 45 d3 3c 6a da 96 bc 82 4e 80 3c
       0.00018510222 0.025789868 -0.018414695 0.015662435
0003c0 4b 5d 1c bd c4 31 6d 3c 6b 66 2e bd 1b cb 14 3d
       -0.03817491 0.014477197 -0.042578142 0.03632651
0003d0 54 eb 77 3c 10 78 47 bd 7a 51 8e bc 9d 27 14 bd
       0.01513179 -0.048698485 -0.017372835 -0.03617059
0003e0 9d 2d 48 bd e8 16 8d bb 24 3e 7c 3c 92 40 f3 3c
       -0.048871625 -0.004305709 0.015395675 0.029693875
0003f0 30 84 71 3b 61 1b 11 3d da 17 d8 3c 1d f8 49 3d
       0.0036852472 0.0354265 0.02637856 0.049308885

bias f4 [128]
000000 14 f7 7c bc d4 fd 74 3d b2 c4 2d 3e 2d 3a cd 3d
       -0.015439767 0.059812382 0.16969565 0.10020862
000010 42 e4 63 bc 70 0d 3a bd 61 34 90 bb 48 2b 2a bd
       -0.013909401 -0.04542297 -0.0044007753 -0.041545182
000020 23 25 0e bd 84 2c 38 bd ee 0a 03 bd b4 3a c6 3d
       -0.034703385 -0.04496433 -0.031992845 0.096791655
000030 f2 84 c2 3d 9b e4 c6 3d a5 95 ff 3d b9 b0 2d 3e
       0.094980136 0.09711572 0.12479714 0.16961946
000040 ad 12 1f 3e 0e b6 31 3e 6c cc 5e bc ef 45 ba 3c
       0.15534468 0.17354605 -0.013598543 0.022738425
000050 03 d1 1d 3d 72 70 84 3b 8a 2a 2e bc aa ea 9d bc
       0.038529407 0.004041725 -0.010630259 -0.019276936
000060 46 54 0f bb a3 98 a5 bc 60 37 78 bc c1 47 82 3d
       -0.00218703 -0.020214384 -0.015149921 0.06361342
000070 d0 ea 22 bd c4 04 5b bd 30 fe 0b bd 42 a2 12 bc
       -0.039774716 -0.05347134 -0.03417796 -0.008949818
000080 ab dd 43 3e b7 ba c2 3d 33 89 af bd 3f 01 0b bd
       0.19127528 0.09508269 -0.085710905 -0.033936735
000090 bf 0d ce 3d 28 1d 01 bd b9 25 07 3c 5d 93 c7 bc
       0.100612156 -0.031521946 0.00824874 -0.02436226
0000a0 91 f4 52 3d 52 57 90 3c cb 9b 3e bd a5 ab c2 3d
       0.051502768 0.017619763 -0.046535295 0.09505395
0000b0 79 4b 9c 3d 00 a6 88 ba 92 ee 1b bd a9 2e 45 bd
       0.07631583 -0.0010425448 -0.038069315 -0.0481402
0000c0 d0 33 5e 3e 94 4e 82 bc 41 6d d5 3c 7f c4 77 bc
       0.21699452 -0.01590661 0.026053073 -0.015122532
0000d0 1a aa b0 bc ce b2 b5 bc ce 24 f6 3c f8 f4 de 3c
       -0.021565486 -0.022179987 0.030046847 0.02721642
0000e0 57 93 f7 bc ff 78 e3 3d 46 59 51 3e e2 c9 46 bd
       -0.030221624 0.111070625 0.20444211 -0.048532374
0000f0 59 6e f6 bc aa 0c 15 bd e1 95 36 bd c9 e5 a0 3d
       -0.030081915 -0.03638903 -0.04457653 0.07856328
000100 de ca 5a 3c 98 89 2a bc 53 1f 1d 3e 92 86 9e 3d
       0.013354031 -0.0104087815 0.1534398 0.07740511
000110 bf ef dc 3b c5 b0 32 bd d0 2c 41 bb 6c 2e 17 3d
       0.006742447 -0.04362561 -0.0029476173 0.036909506
000120 57 fd 58 3d f6 2d 9d 3e e6 d9 e4 bc 9f c7 9a 3d
       0.05297598 0.30699128 -0.027935933 0.07557606
000130 7d 29 8c 3d d6 82 93 3c 53 3a a4 3e 38 9d 30 bd
       0.06843851 0.018006723 0.32075748 -0.043118685
000140 02 cb a1 3e 9d 29 48 3e fd fa e6 bc 99 59 65 3c
       0.31600195 0.19547124 -0.028195852 0.0139984125
000150 64 7a 03 bd 4c 4e ff 3c 7a d5 cd bc 04 88 fc 3d
       -0.032099143 0.031165265 -0.025126208 0.123306304
000160 ab 9b 81 3d 1d 10 7e 3e e3 a1 91 bc 12 29 97 bb
       0.063285194 0.24810834 -0.017777389 -0.0046130503
000170 4a a1 00 bd c7 b6 3f bc 48 84 88 3d 8e 1c 24 bd
       -0.031403817 -0.011701292 0.06665856 -0.040066294
000180 da 02 17 3d 85 de 4a bd f4 04 40 3e bb 18 25 bd
       0.036867954 -0.049528617 0.1875189 -0.040306788
000190 e3 a9 da bc 72 e5 87 3c 73 a2 d1 bc 56 2d 51 bd
       -0.026692336 0.0165889 -0.025590157 -0.051068626
0001a0 34 b5 7b bc ca 1d aa bc e4 2d 34 3e 6a 00 17 bd
       -0.015363026 -0.020766158 0.17595631 -0.03686563
0001b0 0a 2e ff bc 07 5d 6d bb a5 c6 29 bd 40 64 9f 3a
       -0.031149883 -0.0036218779 -0.041449208 0.0012160614
0001c0 2d c5 52 3e 4b 45 0a 3d c7 92 57 3c 32 03 f5 3c
       0.20583029 0.03375749 0.013157553 0.02990875
0001d0 24 4d 60 3d 0b 07 3f 3c 00 1c 3c 3e d1 03 0d 3d
       0.054761067 0.011659394 0.18370056 0.034427468
0001e0 f9 37 ea 3b 44 24 75 bd a3 df 1e 3d 50 be 53 3e
       0.0071477857 -0.05984904 0.038787495 0.20678067
0001f0 95 f7 48 bd 51 58 50 3e 0e 3c 0b bd fd 47 a7 3d
       -0.049064238 0.2034619 -0.03399282 0.081680275

weight f4 [400, 128]
000000 40 4a fd 3c 4c 69 a1 bd c7 57 f9 bc 18 19 d9 3d
       0.030919194 -0.07881412 -0.030437363 0.106004894
000010 d8 25 23 3c 28 3f 13 bd 4c 51 9f 3c 40 37 01 bd
       0.009957753 -0.035948902 0.019447945 -0.03154683
000020 de 61 13 bd 4d 59 96 3d 85 e2 f8 bb 23 ba 2a 3d
       -0.035982005 0.073412515 -0.0075953626 0.04168142
000030 a5 a9 c1 3d 74 bf d7 3c 2b d0 6f 3d c9 8f 89 3c
       0.09456185 0.02633641 0.058548134 0.016792195
000040 32 8c 6b 3d 4c bb b3 3a d0 73 7a 3c b9 b9 1a 3d
       0.057506748 0.0013712435 0.015286401 0.037774775
000050 bf 6b 8a 3d 30 39 4e bd 52 8e 21 bd d0 90 91 bc
       0.06758832 -0.050347507 -0.039442368 -0.017769247
000060 66 0e e9 bc 93 40 b1 3d c9 ac 89 3d f8 e0 b9 3c
       -0.028449249 0.08654895 0.06722409 0.022690281
000070 d8 2a 2f 3c cf f0 95 bd e1 09 b2 3b d4 35 44 bd
       0.010691367 -0.07321321 0.0054333066 -0.047902897
000080 78 67 9d bd fd 6b 24 3d b2 9a 97 3d 98 3d 29 bd
       -0.07685751 0.04014205 0.07402553 -0.041318506
000090 3a 91 8d 3d fa 21 3e 3d a6 6f dc 3a 60 8b 83 bd
       0.069124654 0.04641912 0.0016817942 -0.06423068
0000a0 6a 8a b2 3d 20 12 09 bb 90 22 ff 3c dd 4b 8e bd
       0.08717807 -0.0020915344 0.03114441 -0.069480635
0000b0 b2 1c f4 bc 45 5e af bd d0 13 f2 bb 03 9d 12 bb
       -0.02979884 -0.08562902 -0.0073876157 -0.0022371418
0000c0 f8 3e 08 3d ed 7d 83 3d e2 bf 3d bd b8 7e 0f 3d
       0.033263177 0.06420503 -0.04632557 0.035032958
0000d0 61 a4 35 bd cf 9d 1b bd ff 4a f0 bc 99 ee 62 bd
       -0.044346217 -0.037992295 -0.029332636 -0.055403326
0000e0 86 41 62 bd dc 0e b3 3d e7 60 1d bd 4c 32 b4 3c
       -0.05523827 0.087430686 -0.03842249 0.02199664
0000f0 46 34 e7 3b a1 d7 bb 3c e6 5a 4b bd d6 61 7e bd
       0.007055792 0.022929968 -0.049647234 -0.062105022
000100 a0 12 ad bd 00 9a e6 3c 98 85 b0 bc a0 12 f5 3c
       -0.08450818 0.028149605 -0.021548077 0.029916108
000110 f0 5a c9 3c a8 d9 0b 3d f4 93 92 bc ab e5 14 bc
       0.024579495 0.03414312 -0.017892815 -0.00908796
000120 92 d6 26 3d 54 0d cd 3d 88 7c 7e 3c 2a 5c ac bd
       0.040731974 0.10012308 0.01553262 -0.084160164
000130 5b c8 a0 bd 40 25 91 bd a9 0c 2f bd 8d 2b bf 3d
       -0.07850715 -0.07087183 -0.042736683 0.093344785
000140 d5 a8 c7 bc 08 03 84 bd 0a ea 89 bd 5f 0f a8 bd
       -0.024372498 -0.06445891 -0.067340925 -0.08206057
000150 44 e7 a9 3c f7 9c 87 bd ea 26 37 3d 1d 76 95 3d
       0.020740159 -0.066217355 0.044714846 0.07297919
000160 91 ec 91 3d de a9 46 bd ec 30 f2 b9 9f 75 f3 bc
       0.071251996 -0.04850184 -0.00046194287 -0.029719172
000170 38 0c 23 bc ba 36 a3 3d e1 2f 85 bd a3 1e 4f bc
       -0.009951644 0.07969423 -0.06503273 -0.012641582
000180 d4 6d 89 3c 48 72 6b bc d8 12 94 3b 31 cc 9a bd
       0.016776003 -0.0143705085 0.004518848 -0.07558478
000190 98 a5 de 3c a6 79 b3 bd 30 d5 d0 bb a6 fe 92 bd
       0.02717857 -0.08763437 -0.00637307 -0.071774766
0001a0 17 4e aa 3d e9 49 95 3d aa 34 b4 3c 83 54 a9 3c
       0.08315676 0.07289488 0.021997768 0.020670181
0001b0 27 95 9b bd b3 a5 0a 3d a3 d8 a3 3d f6 fd 5e 3d
       -0.07596808 0.03384943 0.080003045 0.054441415
0001c0 67 89 fc 3d 58 98 0a 3d f7 7e 5e bd fd 6b 85 3d
       0.12330895 0.033836693 -0.0543203 0.06514738
0001d0 fb ee 98 3d 57 34 de bc 02 40 ba bb d5 e3 54 bd
       0.07467457 -0.027124567 -0.0056839 -0.05197509
0001e0 d6 19 4d 3d e5 e7 a6 3c b5 b6 92 bd 23 9c a6 bc
       0.050073467 0.020374248 -0.07163755 -0.020338124
0001f0 4e 94 74 bd 22 27 66 bb 82 3d a6 bd 0a 92 0d bd
       -0.059711747 -0.003511854 -0.081172004 -0.0345631
000200 a5 62 b1 bd b6 b3 45 3d 21 09 6d bc e6 ba d8 3c
       -0.08661393 0.04826709 -0.0144675085 0.026456308
000210 94 a1 3e bd e0 e6 a6 3c f7 03 6b 3d 80 fb 77 bb
       -0.04654081 0.020373762 0.057376828 -0.0037839115
000220 fd 2a 8a bd 31 6b d5 bc cc f8 3d bd 73 e7 80 3d
       -0.067464806 -0.02605209 -0.04637985 0.062941454
000230 21 d0 f5 bc 4f 57 71 3d 87 e8 6c bd ba a5 44 bd
       -0.03000647 0.058921155 -0.057838943 -0.04800961
000240 23 1d 4d bd 57 93 84 bb 3e a0 4e 3d 4d d7 67 bd
       -0.050076615 -0.0040458846 0.050445788 -0.05660181
000250 ff 7e 76 bd 30 cb bd bc 28 8c 62 bc 73 8a 98 3d
       -0.060179707 -0.023168176 -0.013827361 0.07448282
000260 8a d0 41 3d 20 45 0c bd a8 e6 25 bd aa 02 bf 3d
       0.04731802 -0.03424561 -0.040503174 0.0932668
000270 46 94 15 3d 7e ba 8c bd 61 fe 00 bd 14 80 81 3c
       0.036518358 -0.06871508 -0.031492595 0.015808143
000280 6a 95 1c bb 26 16 9e bc 7d 23 63 bc 39 be 70 3d
       -0.0023892769 -0.01929767 -0.013863442 0.05877516
000290 a9 92 74 3c 40 d1 52 bd 1d a4 8d bd 78 77 ef 3c
       0.014927545 -0.051469088 -0.06916068 0.029231772
0002a0 5a 8c 22 bd 00 f8 ec 3a 90 73 df 3c 7e a4 b1 bc
       -0.03968463 0.0018079281 0.027276784 -0.021684881
0002b0 be 36 31 3d e9 f1 13 bd 5b 3f 17 bd 64 c8 9b bd
       0.043265097 -0.036119375 -0.036925655 -0.07606581
0002c0 34 8b ae 3d 9f 87 a1 3d 96 18 b0 bd e0 70 8f bd
       0.08522645 0.07887196 -0.085984394 -0.07003951
0002d0 1c 02 02 3d 23 c4 03 bd 82 29 3d bd 8a 4b 1c 3d
       0.031740293 -0.032169472 -0.046182163 0.038157977
0002e0 3c 9b b1 3c 83 33 15 bd 39 f6 71 bd 62 a9 7b bd
       0.021680467 -0.03642608 -0.059072707 -0.061440833
0002f0 d2 d6 93 bd e3 e9 92 bd c4 63 1a bd ed 91 4e bd
       -0.07218708 -0.071735166 -0.0376928 -0.050432134
000300 20 5d ae bd bc 11 a2 bc 93 d9 aa 3d b8 17 9d 3d
       -0.08513856 -0.019783847 0.0834228 0.076705396
000310 eb 26 3b 3c 94 5b 84 3c 32 9c 3f 3d 49 2a 67 3d
       0.011422853 0.01615695 0.04677982 0.05643681
000320 c8 67 ec bb 23 79 c3 3d 9f 95 fa bc 0f ec 0a 3d
       -0.00721452 0.09544589 -0.030588923 0.03391653
000330 d6 11 f2 bb 17 db 5e bd 75 d3 5a 3d b9 1b f3 bb
       -0.00738738 -0.05440816 0.053424317 -0.0074190763
000340 81 db 8b 3b 26 f8 bb 3c 00 7d bb 3a 9e a1 b5 3d
       0.0042681103 0.022945475 0.0014304221 0.08868717
000350 97 a4 11 bd 1b ff 42 bd ac 26 c4 3c 42 45 7f 3c
       -0.035557356 -0.04760657 0.023944221 0.015580477
000360 65 f4 5d bd 13 14 60 3d 96 d2 8e bc 4a 0c 88 bd
       -0.05418815 0.054706644 -0.0174344 -0.06642969
000370 60 43 54 3b 2d 88 55 bd 83 fc b0 3c 81 c5 9e bd
       0.0032388791 -0.05213182 0.021604782 -0.07752515
000380 e3 48 72 bd a4 b1 d6 bc ec 62 f4 3c 70 75 b9 3c
       -0.05915154 -0.026207753 0.029832326 0.022639006
000390 d0 f7 dc bc 35 ec 90 3d 89 9d 8a bd 56 f9 db bc
       -0.026973635 0.07076303 -0.06768329 -0.026852291
0003a0 2c 7f d3 3c d2 88 0e 3d dd 99 b2 3d 97 c5 8a 3d
       0.025817476 0.03479845 0.08720753 0.067759685
0003b0 80 64 e8 3c 37 db 9d bd 76 47 0b 3d e0 63 86 bc
       0.028368235 -0.077078275 0.034003697 -0.016405046
0003c0 88 1a 9e bc 94 d2 2a bd 41 f3 e8 3c ce 3f a5 3d
       -0.01929976 -0.04170473 0.028436305 0.080688104
0003d0 b4 e1 5e bd a0 40 45 bb c4 38 71 bd 22 d0 26 3c
       -0.054414466 -0.0030098334 -0.058892027 0.010181459
0003e0 8a f5 a1 3c b9 e2 79 bd 86 4b 6d 3d 6b b5 8e bc
       0.019770402 -0.061007235 0.057933353 -0.017420491
0003f0 9c c5 03 3d 5b 8c ca 3d ff 1f 57 bd b9 ee aa bc
       0.032170877 0.09890052 -0.05252075 -0.020865785
