pyrotch学习/wr20-20-20000epoch.pth (torch, 817871 bytes, 8 tensors)

weight f4 [200, 100]
00000000: fd2e 6dbd 4842 d6bc 0036 f93b 813d c23d
00000010: 833b bd3d 0f1d bd3d 30ba 63bc 7e75 593d
00000020: b585 bfbd d780 60bd 3214 99bd c226 163d
00000030: c001 7c3c 4ad3 69bd 5ded 6abd 27b2 b0bd
00000040: 8080 d6bb 3add 5bbd 58bc b43c 5081 adbb
00000050: e1b4 823d 38cc 923c 0065 f6b9 d732 29bd
00000060: 2a6a b6bd c7ae c03d 7498 bebc 76c4 0b3d
00000070: a0f7 67bb dcb9 80bd 55d8 bb3d 405f 4b3c
00000080: 12ad 543d 30db 0d3c fa14 233d 489e 853c
00000090: 9583 9d3d eca8 0abd a454 0ebd f85f 8b3c
000000a0: b01a 48bd 10ea 4cbc a097 48bd 90af 1fbd
000000b0: 40a8 bc3c a131 9a3d c79d 9f3d f6dd 4e3d
000000c0: 966d 703d 8666 6b3d a9be 833d 5187 b03d
000000d0: 5458 d13c 2852 c1bd 6670 403d b0d5 a3bd
000000e0: 3837 8d3c 98b4 f4bc ad1b 973d 4051 3f3c
000000f0: c0c0 87bd 454d b7bd 9a73 06bd 1a15 c6bd
00000100: f564 bc3d 58b0 96bc fa92 3cbd f212 733d
00000110: a072 8fbc 7571 85bd c370 b93d 8782 c9bd
00000120: b44d febc ad89 91bd ddd9 913d d0bd 2b3c
00000130: 3405 e2bc c390 c93d 396b bc3d 344c fb3c
00000140: e962 a13d 78bd 82bd abd2 b7bd a84e 4f3c
00000150: 74d3 e03c 80ad 82bd 252d 84bd 1256 7b3d
00000160: 190f c83d e8de a0bd 03fa 8dbd 02e8 5f3d
00000170: d40b 833c faf9 3c3d 35db 81bd f510 c8bd
00000180: 02f4 173d 675f 73bd a8ff 5b3c 2d18 28bd
00000190: 0b4d 443d 8ae3 793c 8587 913d 441e e53d
000001a0: e7b3 a73d cf24 763d 621f 8c3d 96a8 913d
000001b0: 7846 803c 4d9b db3c 1a31 acbd 7972 ec3c
000001c0: f307 96bd fe4c edbc 9471 1d3d 9d1d aebc
000001d0: 7031 063d 6753 3dbd 5ffd 0bbd e032 b03d
000001e0: 6697 ac3d 9401 873d ea1a 68bd 0c5f a83d
000001f0: 073c 9fbd d167 f2bc c5f6 c93d 4833 453d
00000200: 3b5b 133d 3ea6 943d a330 92bb 6a6e c63d
00000210: cb8f bf3d 3662 573d d613 9f3d 4f86 a8bd
00000220: ba90 0bbc 305f 96bd 773b 363d 20e8 ce3c
00000230: c020 c53d 0f03 a339 3ca1 9a3d a090 403d
00000240: 5fb1 aa3d 3e59 adbd 6d2c 3bbd 10db 8c3c
00000250: 0796 cbbc 3318 0a3d 79a4 193d fde0 5c3c
00000260: 7479 ffbb 5367 8ebd 266b cd3d 3692 963d
00000270: 37f9 bdbd f306 c33d fc43 86bd 906e 9dbd
00000280: 25ca 87bc 5bc3 9bbc c31e 22bd ea67 b53d
00000290: 128e 803d 2d2b b33c 42e1 6cbd fbd1 90bb
000002a0: feef 68bd b382 fd3c f53a c03d a3f4 9e3b
000002b0: f1c5 5cbd dcff 3c3d a4d3 803d a0b9 28bd
000002c0: f1a5 84bd 3836 a8bc 28ee 53bd 30ce 5bbd
000002d0: 4234 8ebd 22c1 1ebd b50f 90bd 271d 813c
000002e0: 848f adbd c2f7 823c 72ce 863d 144e 7d3d
000002f0: df90 c93d f8dc cc3d f1f7 98bd 36b2 3f3d
00000300: 6611 98bb f578 a4bd f401 21bd 476d 8fbd
00000310: 7959 afbd 3953 b6bd e640 5a3d ef8a b83c
00000320: 52bd 343d 5b00 953d 4ad7 2ebd 592e bb3d
00000330: df42 afbd 20c8 9abc 28e6 933c 224c 573d
00000340: 5d18 3ebd dec4 7f3d deb5 90bd 2c32 8abc
00000350: 8398 a63d aaa4 153d 800c bbbb 2c47 f9bc
00000360: 361f 5f3d e8d1 6e3c 98df 7a3c ba26 84bd
00000370: a3ef 97bd 58ec 773c 37ad 43bd 80de 05bc
00000380: 0278 2a3d 0dfa a8bd cd16 5abd 980e 7fbc
00000390: cf57 b13d 28d4 debc f44b e4bc a53e bfbd
000003a0: ab52 853d 9d85 8abd a8c7 213c 3e65 573d
000003b0: d069 75bd 4892 ccbc c2ac 353d 528c 653d
000003c0: db21 bcbd 3156 893d 1f76 c3bd a431 fb3c
000003d0: eab7 283d 405a 48bb 32c6 92bd 2db3 98bd
000003e0: a0a3 c7bb 864f 96bd aaa8 7d3d 2e88 133d
000003f0: ad33 37bd f3c7 a73d 4c34 873c 0cc9 ad3c
-0.05790614 -0.026154652 0.0076053143 0.09484387 0.092398666 0.09234058 -0.013899371 0.053090565
-0.093516745 -0.05481037 -0.07474555 0.036658056 0.015381277 -0.057086267 -0.057355274 -0.0862773
-0.00654608 -0.053677775 0.022062466 -0.0052949563 0.06382156 0.017919645 -0.00046996027 -0.04130825
-0.08906968 0.09408336 -0.023266055 0.034122907 -0.0035395399 -0.0628545 0.091721214 0.012412846
0.051922865 0.008658215 0.039814927 0.016310826 0.07691113 -0.033852503 -0.03474869 0.017013535
-0.048853576 -0.012506977 -0.048972726 -0.03898579 0.023029447 0.07528997 0.077937655 0.050504647
0.05869826 0.05747082 0.0643285 0.086195596 0.025554813 -0.09439498 0.04698219 -0.07999742
0.017238244 -0.02987127 0.073783256 0.011677086 -0.06628561 -0.08950285 -0.03282509 -0.096719936
0.091989435 -0.018394634 -0.046038605 0.05934424 -0.017510712 -0.06515781 0.09054711 -0.09839349
-0.031042911 -0.07106338 0.07121632 0.010482267 -0.027590372 0.09842064 0.092001386 0.030675985
0.07880194 -0.063837945 -0.089757286 0.01265303 0.027444579 -0.06380749 -0.06453923 0.06136138
0.09768505 -0.07855016 -0.069324516 0.05466462 0.015996851 0.046136834 -0.063406385 -0.09768859
0.03709794 -0.059417155 0.013427652 -0.04103868 0.047925036 0.015252003 0.071059264 0.11187413
0.081886105 0.060093697 0.06841923 0.07112233 0.015658602 0.026807452 -0.08407803 0.028863179
-0.07325735 -0.028967377 0.038438395 -0.021254355 0.03276199 -0.046222117 -0.03417718 0.08603454
0.084273145 0.06592098 -0.056666292 0.08221254 -0.07775121 -0.02959052 0.09861521 0.04814461
0.035975676 0.07258271 -0.0044613644 0.096890286 0.09353598 0.052583896 0.07767455 -0.08228742
-0.008518392 -0.07342374 0.044490304 0.02525717 0.09625387 0.00031092062 0.07550284 0.047012925
0.08334612 -0.08464287 -0.045696665 0.0171943 -0.024851812 0.033714484 0.03751037 0.013481376
-0.0077964608 -0.06953301 0.100302026 0.07352106 -0.092760496 0.0952281 -0.06555936 -0.07687104
-0.016575882 -0.019014051 -0.039580118 0.08857711 0.06277098 0.021871174 -0.05783201 -0.004419563
-0.0568695 0.030946111 0.09386245 0.0048509403 -0.05389971 0.046142444 0.06290367 -0.04119265
-0.06476963 -0.020533666 -0.051740795 -0.053663433 -0.06943561 -0.038758405 -0.07034246 0.015760971
-0.08474639 0.01598728 0.06582345 0.06184204 0.09842085 0.10003084 -0.07469166 0.046800815
-0.004640746 -0.08030883 -0.039308503 -0.07003265 -0.085619874 -0.08902592 0.05328455 0.022527186
0.044125862 0.072754584 -0.042685784 0.091396995 -0.085576765 -0.018894255 0.018054083 0.05256284
-0.046409953 0.062443607 -0.070659384 -0.016869627 0.08134558 0.03653399 -0.005708277 -0.030429445
0.054473124 0.014576413 0.015312098 -0.06452699 -0.07418754 0.015132032 -0.047772612 -0.008170724
0.041618355 -0.082508184 -0.0532444 -0.015567444 0.08659326 -0.027200773 -0.027868249 -0.0933812
0.06509908 -0.06763766 0.009874262 0.052586786 -0.059915364 -0.024972096 0.044354208 0.056042023
-0.09186145 0.06705893 -0.09544014 0.030663319 0.04119102 -0.0030571371 -0.07166709 -0.0745605
-0.0060925037 -0.07339387 0.06192843 0.036018543 -0.044727016 0.08192434 0.01650443 0.02121403

bias f4 [200]
00000000: 3539 91bd 4b63 173e 783a 90bc 59f2 813d
00000010: bb20 b3bc a08c 883b 5eb4 c03d 6ae7 47bd
00000020: 948e 80bc 0045 8b3d c00f 7cbb 1e2d ea3d
00000030: 1329 36bd fc19 e93d 9b61 91bb a0c8 febb
00000040: d941 ab3d 2502 963c 7612 89bd 1043 cebb
00000050: 0aea 74bd 0ca6 2d3d de8a 013e 1b5b 6abd
00000060: 8885 04bd ae40 853d c03a 99bc 048b d43d
00000070: 8598 273d f2dd fb3a c5ff 8e3d f063 46bd
00000080: 9bdd a0bd 99dd d83d 2704 953d 0d4f 6abd
00000090: ab73 893d d4d6 9a3d 94c4 dd3c 3a87 973c
000000a0: 1128 103d 100d ed3d 0515 c63d 1bcb e33d
000000b0: e94a 983d 50b7 2ebc 18cd 1d3d 6f97 313d
000000c0: e5f5 c63d 2f1f 043e 85af b8bd 0aab e6bc
000000d0: e2dc 8abd 45bc 943c fd0a e93d f412 ab3d
000000e0: a8d6 c8bc 00c0 85bc d84f c5bc 10ec 1c3c
000000f0: 8875 8f3d 8729 2cbd db98 c13d d26e 8fbd
00000100: f3a7 c23d 377f 77bd 5848 9abd 17cf 083d
00000110: ae95 58bd 84f5 073b 1816 903d 3df0 2bbd
00000120: 76df 95bd d160 aebd ca52 c73d c876 be3d
00000130: cffc f13d 827d adbd c2bd 243e ef82 b7bd
00000140: 5dff 66bd b5c8 b73d 7214 99bd 2248 84bd
00000150: 2c9f 8a3d de92 e5bc 00aa ddbb 9b8c 92bb
00000160: 4499 b03d d998 883d 8896 3f3c 36a0 523d
00000170: 6308 9dbd 3a83 fa3c 58f3 04bc f4bb 043d
00000180: bb2e c93d ab3e 73bd 0fd4 f93d 25ff db3d
00000190: bde9 58bd d6be 05bd 012d 703e b321 90bd
000001a0: 373b 33bd 7423 1f3d ace7 14bd e094 d83d
000001b0: 30cd ad3d 6cb2 87bd 5659 683d daa3 36bd
000001c0: 423c b0bd a800 00bc acba a03c 115c db3d
000001d0: baa7 1bbd 9c10 033e f495 a83c d94d 4abd
000001e0: 00e6 9339 6d0a 29bd 00e4 5a3a 774c 48bd
000001f0: 03c6 79bb 07a4 993d 842a 17bd ce7e 153d
00000200: d272 0c3e 6894 4ebd b3a0 c9bd af45 aa3d
00000210: 50b7 90bd fab0 a83d 376b b9bd a363 1d3d
00000220: 9140 a83d c48f 6a3d eec1 113d a61d 353d
00000230: 80e6 1a3c f5ae 7a3d 0c51 ff3d 18dd 913d
00000240: b4c9 0d3d f693 a8bd 5f78 a9bc 4c54 e4bc
00000250: 7161 64bd df91 bbbd 2955 de3c 3d06 143e
00000260: 7067 c43d c0b2 5c3d 0f40 093e 26d8 a1bd
00000270: e61c 0bbd 4845 313c 0b93 3cbc 02b5 183d
00000280: 962e 2c3b bf28 0ebc a68b a6bd 460c c0bb
00000290: d6f5 98bd 5529 acbd 95d9 8ebd 260c 16bd
000002a0: 5399 a53d 7ef7 7a3c 3f4f c5bd 0213 c5bd
000002b0: 6289 84bd 398c 9c3d 984f 5abd 733e 39bd
000002c0: dec6 a33d e7fd df3d dc60 2dbd a7b4 3dbd
000002d0: 7c34 383c 57e9 4ebd 84d3 893d beed b639
000002e0: bb04 a3bd 404a 6fbc 4524 e9bc 08f1 9bbc
000002f0: 23ba a23d 4034 19bd d36c 4dbd 47e2 253e
00000300: b647 c73d c005 6dbb edb2 fd3d 98e6 eb3b
00000310: f84b 183d a9cb 983d f1f9 113e 5e98 a13d
-0.070909895 0.14783971 -0.017606005 0.06345052 -0.021866193 0.0041671544 0.09409402 -0.048804678
-0.015692987 0.0680027 -0.0038461536 0.11434387 -0.044472765 0.11381909 -0.0044366843 -0.007775381
0.08362169 0.01831157 -0.06692974 -0.0062946156 -0.05979351 0.042394683 0.1265063 -0.05721579
-0.032353908 0.06506477 -0.018704772 0.103780776 0.04091694 0.0019215925 0.06982378 -0.04843515
-0.07854768 0.105891414 0.072761826 -0.057204295 0.06711515 0.075605065 0.027071275 0.018497098
0.03519446 0.11574757 0.09671978 0.11122724 0.07436163 -0.010663822 0.03852567 0.04335731
0.097148694 0.1290252 -0.09017853 -0.02815773 -0.06780411 0.01815618 0.11379049 0.083532244
-0.024516419 -0.016326904 -0.024085924 0.009577766 0.07004839 -0.04203179 0.09452983 -0.07003559
0.0950469 -0.060424056 -0.0753333 0.03340062 -0.05287712 0.0020745704 0.07035464 -0.041977156
-0.073180124 -0.0851456 0.09732588 0.092999995 0.118157975 -0.08471204 0.16088012 -0.089605205
-0.056395877 0.08973829 -0.07474603 -0.06459071 0.06768641 -0.028024133 -0.0067646503 -0.004472328
0.08622983 0.066697784 0.011693604 0.05142232 -0.07667615 0.030580152 -0.008114658 0.03240581
0.09823366 -0.059385937 0.1219865 0.10742024 -0.052957285 -0.0326527 0.23454668 -0.070376776
-0.043757644 0.03885217 -0.036353752 0.10575271 0.08486402 -0.06625828 0.056725822 -0.044589855
-0.08605243 -0.007812656 0.019620262 0.1071092 -0.038001753 0.12799305 0.020579316 -0.049390648
0.00028209388 -0.04126971 0.00083500147 -0.048901048 -0.003811241 0.07501989 -0.03690578 0.036497883
0.13715675 -0.0504345 -0.09845104 0.08314072 -0.07066214 0.082368806 -0.09053653 0.0384251
0.0821544 0.05726601 0.035585336 0.044217728 0.00945437 0.06120201 0.1246663 0.071222484
0.034616187 -0.08231346 -0.02068728 -0.027872227 -0.05575699 -0.09158682 0.027140217 0.14455505
0.09590042 0.053881407 0.13403343 -0.07902555 -0.033963107 0.010819741 -0.011509667 0.037281998
0.0026272885 -0.008676707 -0.081321046 -0.005860838 -0.074687645 -0.08406321 -0.06975094 -0.03663268
0.08085885 0.015317796 -0.096342556 -0.09622766 -0.06471516 0.07643933 -0.053298563 -0.04522557
0.07996915 0.109371 -0.0423287 -0.04631486 0.011242982 -0.0505155 0.067297965 0.00034890877
-0.07959887 -0.014605105 -0.028459677 -0.019035831 0.07945659 -0.037403345 -0.05015261 0.16199599
0.09730475 -0.0036166757 0.12387643 0.00719912 0.037181824 0.0746072 0.14255501 0.0789039

weight f4 [400, 200]
00000000: c0d3 8cba 6bcd 5fbd 6ecb 5ebd 2720 80bc
00000010: 8aa0 05bd 28df 4abc 8c4b acbc 4e3d 4f3d
00000020: b5b1 0b3d 75bd 193c b7ad 863d fbc3 873c
00000030: 8c7e 66bd 4eac 9cbc 7495 493d 249a d2bc
00000040: 61ec 87bc dad0 34bd 3837 1f3d d11a 7c3d
00000050: 1167 893d fa67 8cbc 0b15 843c 67d6 a13c
00000060: 003e 613c afd8 213d 4475 26bc f11a 16bc
00000070: 768e 613d 382b a3bc 7ff4 babb d4e5 82bd
00000080: e863 423c 9cad 653d d968 38bd 8839 39bd
00000090: 81ce 883d 1ce9 453d 0041 063c 85e8 07bb
000000a0: 1ed0 39bd f5c8 0c3c 37c9 823d 383a 863d
000000b0: b2ac 403d f06e 1dbc 3dcf 703d 24e3 83bd
000000c0: f187 563d cec9 64ba ea22 3e3d aead 703d
000000d0: cc5e a53c e472 70bd b729 453d 4470 483c
000000e0: 8625 41bd f4d8 ed3c 8aff 513d 1495 bcbc
000000f0: bf06 853c 0054 42bc 496b 5dbd 9ecf 09bd
00000100: 6436 1cbd af16 823d e457 023d ec2f c13c
00000110: a509 63bd 893f 843d dd2e 0fbd 1089 fbbb
00000120: 386f 303c dacd ebba 78b4 0438 3875 72bd
00000130: fba6 24bd b665 7c3d a409 7fbd 1f98 853d
00000140: 722f 643d 67bf 4cbd 8009 853b 5c65 133d
00000150: c6c7 533d 608d 5ebd ac05 fe3c 6361 11bd
00000160: beed 1f3c 770d d53b 4e4f 253d 98da 84bd
00000170: ba44 f4bc 7ce9 88bd 7041 ee3c 4689 633d
00000180: 19f2 1ebd b913 3a3d b78e 013d 194a 293d
00000190: 36b5 073d 637a 08bd d66c e2bc f0ef ea3b
000001a0: e60b 39bd 9747 d7bc 3cd8 c2bc e2a4 23bd
000001b0: d490 133d 190a 84bd 4a93 dabc 3f42 6fbd
000001c0: 32c6 5e3d d428 433d 6a95 7a3d 630c 22bd
000001d0: 1a85 73bd e749 823d f2ab e9bc ea94 f6bc
000001e0: 884d 2e3d 8cfd 60bd 883b 9d3c f01e 73bc
000001f0: 8e1c 893d 1972 903d 2c6b 75bd 6756 80bc
00000200: 9324 7cba ae91 8d3d 431e 03bd 2c6b 21bc
00000210: d59d 7f3d 89b4 3abd 2f04 8d3d a07f 42bd
00000220: 739f 39bd d0d0 12bd b6c7 86bd a605 5ebc
00000230: da48 493d db94 283d e801 fc3c fac3 83bc
00000240: 4d07 2dbd 608a db3b 5dea f2bc 5047 3ebc
00000250: 5863 e23c b171 46bd 883c 90bc 4056 1d3b
00000260: 4786 043d 9ba0 34bd de23 7ebd b88b 0d3d
00000270: e0ec 6bbd b833 323d 5e49 9bbc 521b 01ba
00000280: 5e80 9ebc 887c e2bc a83e 3b3c c68c 73bd
00000290: 56fc 753d e0d4 12bc 0f94 513d 0088 3ebb
000002a0: e79f 453d d746 76bd 50fb c1bb 1404 143d
000002b0: 781a d63c 2db8 9f3b e423 3fbd 6439 0b3d
000002c0: e2f1 773d f929 34ba 6478 393d b040 34bd
000002d0: 4437 8bbd de6e 613d b746 f93c 4700 623d
000002e0: 56d7 393d 5cc9 393d 18d9 79bd 4465 dd3c
000002f0: 6fec 83bd 15b1 8bbd 2834 033d 8ec5 b53c
00000300: 1c72 6ebd a4d8 22bd 3c0c fbbc 8156 c73c
00000310: b1c6 5fbd 34ca 04bd 208d 6b3d cf2b e2bc
00000320: f4f7 933c ec43 82bd a486 c33c 787a e9bc
00000330: 6c1a ca3c 7ed8 81bc d05f 94bc 6829 d93c
00000340: c0c3 c63c 4caa 07bc 8018 e43b 4220 8ebd
00000350: 63a7 8e3d c0bd 833b ba6a 4dbd 62db 6a3d
00000360: 3028 ce3c 003f 4c3b e83d be3c 90d1 ac3c
00000370: 2451 19bd dcb9 953c 7c57 48bd 363b 643d
00000380: b0a1 64bd 2cc1 5c3d 8034 b7ba e043 bb3c
00000390: dad4 20bd e8a7 6fbc 94d8 d7bc 4d61 89bd
000003a0: a3e1 59bd 0b45 8fbd 92e0 33bd b07f 80bd
000003b0: da91 d9bc f671 383d 50cb f33c 79d3 8e3d
000003c0: 96cf 483d 7a34 4fbd 36ea d8bc 32a4 83bc
000003d0: f433 bd3c 1098 a53c d0f6 173d 5ee8 083d
000003e0: 22b3 663d a5ff 03bd e40e ea3c b87a 3c3c
000003f0: 6d50 63bd 8846 463d 3ca2 89bd 30f2 3bbd
-0.0010744259 -0.05463926 -0.054393224 -0.015640331 -0.032623805 -0.012382306 -0.021032117 0.050595574
0.03410502 0.009383549 0.06576102 0.016572943 -0.05627303 -0.01912513 0.049214795 -0.025708266
-0.016592206 -0.04414449 0.03887102 0.06154901 0.067091115 -0.017139424 0.016123315 0.019755555
0.013747692 0.039513286 -0.010159794 -0.009161697 0.055067502 -0.01991807 -0.0057054157 -0.063914925
0.01186464 0.05607377 -0.045021866 -0.04522088 0.066800125 0.048318014 0.008194208 -0.0020737958
-0.04536449 0.008592834 0.06386035 0.06554073 0.047039695 -0.009608969 0.058791388 -0.06439808
0.052375738 -0.0008727581 0.046420015 0.058759384 0.020186804 -0.05870332 0.048135486 0.012233797
-0.047154926 0.029034115 0.05126909 -0.023020305 0.016238568 -0.0118608475 -0.054057393 -0.033645265
-0.03813781 0.06351983 0.0318221 0.023582421 -0.05542912 0.06457431 -0.0349568 -0.007676251
0.010768704 -0.0017990426 3.1639327e-05 -0.05919382 -0.040198307 0.061620437 -0.062265053 0.065231554
0.05570931 -0.049987223 0.0040599704 0.035985336 0.05170419 -0.054334044 0.031008564 -0.035493266
0.009761272 0.0065018493 0.040358834 -0.06487006 -0.029817928 -0.066851586 0.029083937 0.055550836
-0.0388051 0.045428965 0.031630244 0.04133043 0.0331318 -0.033319842 -0.027639788 0.007169716
-0.045177363 -0.026279254 -0.02378475 -0.039952166 0.03602679 -0.064472385 -0.026681561 -0.058412787
0.054388233 0.04764636 0.06117765 -0.039562594 -0.059453107 0.06361752 -0.028524373 -0.030100305
0.04255441 -0.0549293 0.019193426 -0.014838919 0.066948995 0.070530124 -0.05991666 -0.0156662
-0.0009618487 0.06912552 -0.03201128 -0.009852212 0.06240638 -0.045582328 0.068855636 -0.047484994
-0.04531808 -0.03584367 -0.065810606 -0.013551151 0.049141742 0.041157585 0.030762628 -0.01608466
-0.04224329 0.006699845 -0.029652769 -0.011613682 0.027635261 -0.04844827 -0.017606989 0.0024007708
0.03235462 -0.044098478 -0.062045924 0.034557074 -0.05759895 0.043506354 -0.018955883 -0.00049250305
-0.01934832 -0.027647272 0.011428513 -0.059460424 0.0600551 -0.008961886 0.05116659 -0.0029072762
0.048248198 -0.060126152 -0.0059198514 0.0361367 0.026135668 0.0048742504 -0.046665087 0.03399028
0.06053341 -0.00068727095 0.04528083 -0.044007003 -0.067976505 0.05503737 0.030429227 0.055176046
0.045371376 0.045358047 -0.060998052 0.027025826 -0.064415805 -0.06820885 0.032032162 0.022188928
-0.058214292 -0.039757386 -0.030645482 0.02433324 -0.054632846 -0.0324194 0.057507634 -0.02760878
0.01806257 -0.06360611 0.023867913 -0.02850078 0.024670802 -0.015850302 -0.018112093 0.026509002
0.024263263 -0.008280348 0.0069609284 -0.069397464 0.0696552 0.0040204227 -0.05015061 0.057338126
0.025165647 0.003116548 0.023222879 0.021096021 -0.037430897 0.018277101 -0.048911557 0.05572053
-0.05581826 0.05389516 -0.0013977438 0.022859514 -0.03926549 -0.014627434 -0.02634839 -0.06708012
-0.0531937 -0.06995591 -0.04391534 -0.062743545 -0.026558805 0.045030557 0.029760033 0.06973929
0.049026094 -0.050587155 -0.026478868 -0.016069505 0.023096062 0.02021411 0.037100613 0.033424728
0.056323178 -0.032226223 0.028571554 0.011503868 -0.055496622 0.048407108 -0.06720397 -0.045885265

bias f4 [400]
00000000: f94f 273c c42a c53c 661c 4d3d 1319 90bd
00000010: 3423 8cbd 917f 04bd 243c febc 0c83 173e
00000020: a4e0 7fbd d583 8cbd 66ea 2a3d a6ff 23bd
00000030: f3ec 8ebd 8426 89bd 38a1 093c fd9d c0bc
00000040: 1e7a dd3c 5a7e 2dbd 108e 3bbd 7bfc 013d
00000050: bc21 1fbc 1dd9 cc3c a838 79bd 526b 02bd
00000060: 7a0e 7b3d f84b 213d cfd1 813d 664a b8bc
00000070: 4508 4dbc 195c f4b9 edc5 9a3c e1dc 20bc
00000080: 1257 85bd 1c4f 6f3d ec4a e03c a2a4 6ebd
00000090: 303c 0f3e 388f 6abd 749c bcba 11f9 2a3d
000000a0: 814b 50bd af18 46bd d2f8 e6bc 585f 14bc
000000b0: 0029 b539 3d41 ae3d 29a5 d03d 66b4 8fbd
000000c0: 1093 2ebc 9868 0abc d253 1f3e 4783 353c
000000d0: b9cf 8ebd 2075 903b 74db 8fbd 45f5 a63d
000000e0: 2edc f53d 2e99 b73d 31b6 bc3d 60fa 7bbd
000000f0: d45d 41bd 2621 10bd 29c2 683d af19 8c3d
00000100: d1ba 16bd 8717 e43d 984e 8cbd d4ee 8fbd
00000110: d3bd 073d b092 503d e8bb e6bc 23bb 813d
00000120: d836 4cbc d087 edbc f408 8dbd 9eb4 94bc
00000130: ccd9 863d 0138 c13d b4b5 62bd 3aa8 5c3e
00000140: 1033 97bc e95f 173e 1ce6 983c aa92 0ebd
00000150: 129e 72bd 3009 c3bb 46a1 d6bc 1d3f 48bd
00000160: 1698 123c ba34 c73c aa7a cfbc 506f 8fbd
00000170: baef 14bd fdc5 66bd 73ca 5f3b 901e 723c
00000180: 79c2 21bd 417a 6abd c9fa 20bd 11fd cc3b
00000190: 2589 253e f2dc 893d 0d30 0bbd 3638 5abd
000001a0: c0aa aa3d 952d a73d aa35 193c 729b 343c
000001b0: a2b3 e03c 78fb ba3d f378 66bd de34 8cbd
000001c0: feed 5abd 744d 843d a029 3d3d 2b0f b53d
000001d0: a0c9 9f3b 0bc6 22bd 29aa 86bd 5303 5bbc
000001e0: 4fb0 8bbd 0a03 1f3e a8b3 d63c 353f 23bd
000001f0: cf16 12bd 2667 993d fcc4 33bc 71b8 123e
00000200: 60d1 94bd 48c3 48bd 7091 cc3c a6b7 583d
00000210: c1f6 6c3d ceb2 4e3b ece7 6fbd ceb3 703d
00000220: f035 bc3d 1c07 3cbd 9a9f 7c3b acce 9e3d
00000230: 1ca3 123d c07b a43d 5f2a c73d 2ac7 7b3d
00000240: 3bc9 ee3b 796e e73d fade 5e3d e709 89bd
00000250: 6ff8 1d3c 5f20 82bd 1e59 74bd f691 943c
00000260: 59f0 aa3d 6b32 11bd f7ea c43d d8da 81bd
00000270: 1464 6f3d 2014 9cbb 740e d5bc 72d1 f0bc
00000280: 86ab 803d 8f2e eb3c 8dcd 9f3d 2da2 0bbd
00000290: 7c22 67bd 6b65 4bbd 31fb 00bd 2243 fc3a
000002a0: 6212 47bd dafd 3bbd 17b9 973c 3cdb d7bc
000002b0: 3858 37bd ecc8 04bd 0084 37ba 50c3 fb3b
000002c0: 4ac4 e6bc d1f6 6dbd bf5a e73d b060 113e
000002d0: fd68 0a3d 8d2b 9c3c 4eb3 85bd 2005 183b
000002e0: 403c 3fbb ad9c b63d 90f1 ddbb ba9b 823d
000002f0: 5925 313d 1953 20bd 58cd 59bd 5182 4cbd
00000300: 43ec f23d 7c5f 253e 0bbc 1d3d 878d 84bc
00000310: da31 36bd a6cb b3bc 1c80 1b3e a462 30bc
00000320: f87f d73d 41e3 0cbd 4d57 88bd 3e80 8dbd
00000330: 597b 92bd 4c7d b73d 8d5c 83bd fa8c debc
00000340: 9e1b 8dbd 06ea 6fbd b6f2 0abd cfa3 e5bc
00000350: ed33 febc d827 283d 442c 84bc 2f4a 013e
00000360: 1067 4cbd 92ca 8bbd caad a53d d980 a33d
00000370: b49c 793d d711 3fbd 0be6 d93b a41a f7bc
00000380: d7ce dc3c 8102 55bd 3d04 7ebd 50cb 67bc
00000390: 4042 a43c a0ac 3ebb a94d 5b3d 8029 883c
000003a0: 0848 383d 385f bebc b746 78bb 2d94 96bc
000003b0: 2ff6 68bd 9b11 80bd 5814 823d b88d dd3c
000003c0: 5c8a 3cbd 020c b63d b85a 823c 01d3 343d
000003d0: 3d8f 26bd 73f0 24bc 5c50 9ebc a7b5 593a
000003e0: 18c6 003c 0885 973d c44c 2ebd 38c6 2cbd
000003f0: 5adf 82bd 26a5 edba be7d 8abd b265 aa3c
0.010211938 0.024068244 0.05007591 -0.070360325 -0.06842652 -0.03234822 -0.031034537 0.14796084
-0.062470093 -0.068610825 0.041727446 -0.040038727 -0.06978788 -0.066967994 0.008400254 -0.023512835
0.02703577 -0.042356826 -0.04578978 0.031734925 -0.009712633 0.025005871 -0.060845047 -0.03184063
0.061293103 0.03937909 0.06338846 -0.022496413 -0.012514179 -0.00046607925 0.018893206 -0.009818287
-0.06510748 0.058425054 0.027379476 -0.058262475 0.13987803 -0.05726549 -0.0014389888 0.041741434
-0.050853256 -0.048363384 -0.028194819 -0.009055935 0.00034553558 0.08508537 0.10187752 -0.0701683
-0.01065518 -0.008447789 0.15559319 0.011078662 -0.06973214 0.0044084936 -0.07024279 0.0815225
0.120048866 0.089647636 0.09214438 -0.061518073 -0.047208622 -0.035187863 0.05682579 0.06840836
-0.036799256 0.111373 -0.06850928 -0.07027975 0.033140015 0.050921142 -0.028165773 0.063345216
-0.012464248 -0.028995425 -0.06886473 -0.018152531 0.0658451 0.0943451 -0.055349067 0.21548548
-0.018456966 0.1478268 0.018664412 -0.03480784 -0.05923278 -0.005952023 -0.026199948 -0.048888315
0.008947393 0.024317134 -0.025327045 -0.07003653 -0.036361434 -0.05634116 0.0034147769 0.0147777945
-0.039492104 -0.057245497 -0.039301667 0.006255754 0.16165598 0.06731595 -0.03398137 -0.053276263
0.08333349 0.08162991 0.009351173 0.011023389 0.027429406 0.09129995 -0.05626769 -0.06846021
-0.053449623 0.064600855 0.046182275 0.08840784 0.0048763305 -0.03973965 -0.06575424 -0.013367492
-0.068207376 0.15528503 0.026208714 -0.0398552 -0.035666283 0.07490377 -0.010972258 0.14328171
-0.072664976 -0.04901436 0.024971694 0.052909516 0.05785251 0.0031539681 -0.058570787 0.058765225
0.09189975 -0.045905218 0.0038547278 0.07754263 0.035800084 0.08031416 0.097248785 0.061469235
0.007287172 0.11300368 0.054411866 -0.06691342 0.009641751 -0.063538305 -0.0596553 0.018136006
0.08346624 -0.035448473 0.096151285 -0.06340569 0.05844505 -0.0047631413 -0.026007868 -0.029396746
0.062827155 0.028708724 0.078028776 -0.03409021 -0.05642937 -0.049657267 -0.031489555 0.0019246081
-0.048601516 -0.04589639 0.018520875 -0.026349656 -0.044761866 -0.032418177 -0.00070005655 0.007683195
-0.02816977 -0.05809671 0.11296605 0.1419704 0.03379153 0.019063735 -0.0652834 0.0023196414
-0.00291802 0.08916602 -0.0067731813 0.06377359 0.043248508 -0.039141748 -0.053174347 -0.049928967
0.118614696 0.16149706 0.03850941 -0.016180767 -0.044481136 -0.021947693 0.15185589 -0.010765705
0.10522455 -0.034396414 -0.06657276 -0.06909226 -0.07152433 0.08959445 -0.06414137 -0.027166832
-0.06890033 -0.05857279 -0.033922873 -0.028032212 -0.03103062 0.041053623 -0.016134389 0.12625955
-0.049902976 -0.068257466 0.08089788 0.0798356 0.06094046 -0.046647873 0.0066497377 -0.03016407
0.026954098 -0.05200434 -0.06201576 -0.014147595 0.020051122 -0.0029094592 0.05354086 0.016621351
0.04499057 -0.023238763 -0.0037883946 -0.018381203 -0.056875404 -0.06253358 0.063515365 0.027045116
-0.046030387 0.08889009 0.015912399 0.04414654 -0.040663946 -0.010067093 -0.019325428 0.00083049614
0.007859729 0.073984206 -0.04255368 -0.042181224 -0.06390257 -0.0018130883 -0.06762265 0.020800445

weight f4 [128, 400]
00000000: a4a3 003d 1b2c 3e3d 27eb 953c 930c ccbc
00000010: 2d81 193d a46a c1bc 2e5c 8e3c 7bfb 113d
00000020: c76a 4b3d 6c27 27bc 1868 dcbc 1dd6 02bd
00000030: c800 453c 1588 06bd d4f9 2f3c 3da2 0c3d
00000040: b10e 1d3d 8dff 48bd 5022 ca3b ff30 23bd
00000050: 9121 403d a431 503c aa31 ed3c 34b7 443c
00000060: bdca abbc 379b e3bc 9055 2a3d a4ba 3ebd
00000070: 69c6 46bd 3906 1c3d 14ba cbbc 7991 03bd
00000080: ea1a fd3c f186 42bd 6051 e3bc acb8 313c
00000090: 0a90 a1bb 721c 43bd 7277 f7bc b409 bdbc
000000a0: 2ade f83b 018d 183d 3a57 87bc 2a0b 973c
000000b0: 821c 853c 9650 4f3d 5c6a 0c3d c033 66bc
000000c0: 9fe2 1e3d 3f95 3cbd 8865 e5bb 91ae fd3c
000000d0: 6edb 133c c79f 063d f39e 2f3d be74 353d
000000e0: a827 2d3d 389e 303d bf13 f63c 9524 1d3c
000000f0: be3e da3c ff76 873c 808d 103d 9ba8 673b
00000100: 1bab 313c 4966 1a3d fa1d 8f3c 1866 1bbc
00000110: 24f6 183d b6c9 103d e35e 913c 3b14 33bd
00000120: a809 90bb 460d b53c e9fe 0a3d a477 8abc
00000130: 0694 5f3c 0f72 80bb 87b0 e6bc 6ad8 f2bb
00000140: a091 5fbb 159c 1d3d c783 27bd 3819 b33c
00000150: c84f 083c e824 363c 93ed 28bd fa00 8a3c
00000160: 6ddd ce3c 44a3 e8bc 395c df3c 9863 35bc
00000170: 4e8d fd3c 529a f93c 1da7 113d c39d 22bd
00000180: 1264 16bd 58ed 49bc ffb5 943c ffce 813c
00000190: d5e6 1cbd cb83 963b 6e0f 1c3b 2522 0d3d
000001a0: 0fbb 01bd fc15 4d3d e3e6 2abd e3ce 8a3a
000001b0: 12fc 31bd 994e 82bc 8ccf 643c 08aa 00bc
000001c0: 269c d83c 3a0f 32bd fd3e 3bbd 4cd6 72bc
000001d0: 7801 11bd 5e20 26bd 20cc 74bc 5805 2b3d
000001e0: f47e 3dbc c166 403d 2309 003d 207e 3bbd
000001f0: 18ac d53b 24d3 293c 70bf c7bb 1da5 dbbc
00000200: 6222 d43c 751b 403d 82d0 d43c 44cf 22bd
00000210: 442e 293d e260 093d 5ab5 e5bc ce29 e5bc
00000220: 6002 2d3d 6c75 383c 8b75 26bd 3cd9 46bc
00000230: 6905 2c3d 8d5b 6c3c 169b 663d 4d1c 04bd
00000240: e1b0 c7bb e2a0 0e39 0a16 1fbd db1b 25bd
00000250: 4cd4 b1bb 7d65 cdbc f19e 083d bb1c 42bd
00000260: 1688 95bc b251 babb adf2 9bbc cbb2 043d
00000270: f12f a1bc 9eb9 06bd f0c8 36bd 0250 36bd
00000280: 983b d9ba d1b5 47bb f37f 1b3d 4044 ec3b
00000290: 751b 17bd 10b7 aabb 3e07 953c af74 413c
000002a0: c232 c63c 45bc 1a3d 1716 d83c 1680 93bc
000002b0: 282b e1bb 5222 1cbd be49 a13c cb52 ed3c
000002c0: ff9c 2dbb 18a2 363c 4bea 213b b825 15bd
000002d0: e52c d0bc f548 2dbd 8e8b 933c b766 323d
000002e0: 6d6d efbc 5cc9 17bd d415 063c 8264 40bc
000002f0: 67e2 533c 8fcd 103d 7197 323d a20f 08bd
00000300: 1965 f3bc 02b4 d33c 64d9 d7bb 6646 24bd
00000310: b8ee 2abc 8bd6 0d3d 3d89 be3c c65e 8dbc
00000320: a399 f83c ae74 1dbd 945e 6abc 0022 f0bc
00000330: 7528 32bc 9015 193d 5445 2c3d 41ef 033d
00000340: d0b7 583b c00d b8bc dd9f 3d3d b91f 493d
00000350: a57d 85b9 67d5 17bd 1f56 bdba 9066 5fbc
00000360: 0655 9f3c 06df e23c ee8a 12bd 7f12 1dbd
00000370: cdba fd3b 12bd f13c 6c15 1f3d a8b2 423c
00000380: e3ab 5d3d 47d2 353d ac12 11bc 0cd4 18bc
00000390: 3db0 3dbd ca64 fcbc c6b2 8abc 0ce0 1bbd
000003a0: ac8c 5dbc b577 233d 7aea f7bb 1e0f ffbc
000003b0: d285 cb3c 7866 1abc 128e c13b 8108 62bc
000003c0: 1faf 083d bfa0 5b3d d2ca e73c 3f3c 873a
000003d0: a2a5 873c d4a0 ac3c c45f 503c 91fd 38bd
000003e0: a05f 07bb c372 23bd 206b 19bd 42f7 eb3c
000003f0: bbf2 3c3d 4496 c43c 5294 0f3c 7b24 0c3d
0.03140606 0.04642878 0.018300606 -0.02490834 0.037476707 -0.02361042 0.01737794 0.03564022
0.049662378 -0.01020227 -0.026905105 -0.031942476 0.012024112 -0.03284462 0.010740716 0.03433441
0.03834409 -0.049071837 0.006168641 -0.03984165 0.04690701 0.012707148 0.028954346 0.01200657
-0.020970697 -0.027783973 0.041585505 -0.046564713 -0.048529062 0.038091872 -0.024869002 -0.032121155
0.030896623 -0.04749197 -0.027748764 0.010847252 -0.004930501 -0.04763455 -0.030208323 -0.023075916
0.0075948434 0.037243847 -0.016521085 0.01843794 0.016248945 0.050613962 0.03428112 -0.014050424
0.03879034 -0.04604077 -0.007000629 0.030967029 0.009024484 0.03286722 0.042876195 0.044300787
0.042274147 0.04311964 0.030038713 0.009591241 0.026641246 0.016536234 0.035291195 0.00353483
0.010844017 0.037695203 0.017470349 -0.00948479 0.037344113 0.035348617 0.01774544 -0.043720465
-0.0043956824 0.022101056 0.033934508 -0.016902752 0.013646131 -0.003919847 -0.028160347 -0.0074110525
-0.00341139 0.03847893 -0.040897157 0.021862611 0.008319803 0.011117198 -0.041242193 0.016846169
0.025252068 -0.028398164 0.027265655 -0.011071108 0.030951168 0.030469093 0.035559762 -0.039701235
-0.03671653 -0.012324654 0.018153189 0.015845774 -0.038306076 0.0045933477 0.0023812908 0.03445639
-0.031672534 0.050069794 -0.041724097 0.0010590222 -0.043453284 -0.015906619 0.013965499 -0.007853039
0.026441645 -0.043471552 -0.045714367 -0.0148216 -0.03540179 -0.04055821 -0.014941245 0.041753143
-0.0115659125 0.046972994 0.031258713 -0.04577458 0.0065207593 0.010365281 -0.006095819 -0.02681213
0.025895301 0.046901185 0.02597833 -0.039748445 0.041303888 0.03353966 -0.028040577 -0.027974036
0.042238593 0.011258464 -0.04063944 -0.012136754 0.041997347 0.014426124 0.056300245 -0.032253552
-0.0060940837 0.00013602109 -0.038839377 -0.04030977 -0.005426919 -0.025072807 0.033354703 -0.04739068
-0.018253367 -0.0056860084 -0.019036615 0.032397073 -0.01967618 -0.032891862 -0.044625223 -0.044509895
-0.0016573546 -0.0030473361 0.03796382 0.0072102845 -0.03689142 -0.005209811 0.01819193 0.011807605
0.024194125 0.037777204 0.02637772 -0.018005412 -0.0068715997 -0.038118668 0.019688483 0.028970143
-0.0026491282 0.011147045 0.00247063 -0.036412925 -0.025412032 -0.042305905 0.01801088 0.043554988
-0.029226983 -0.037057266 0.008183915 -0.011742713 0.0129323965 0.035352286 0.043601457 -0.033218034
-0.029711293 0.02584267 -0.0065871943 -0.0401062 -0.010432892 0.034628432 0.0232588 -0.017257106
0.030346697 -0.038441353 -0.014304776 -0.029313087 -0.0108739035 0.03737408 0.042058304 0.032210592
0.0033068545 -0.022467494 0.046295036 0.04910252 -0.0002546135 -0.03706875 -0.0014445222 -0.013635293
0.019449722 0.027694236 -0.035777025 -0.038347717 0.0077432157 0.029509101 0.03883879 0.011883415
0.054119002 0.04438999 -0.008854549 -0.0093279 -0.046310652 -0.030809779 -0.016930949 -0.038055465
-0.013522308 0.039909083 -0.0075657936 -0.031135138 0.024844084 -0.0094238445 0.0059068287 -0.013795973
0.033370133 0.053620096 0.028294954 0.0010317637 0.016558472 0.021072783 0.012718145 -0.045163695
-0.0020656362 -0.039904367 -0.037455678 0.028804425 0.046129923 0.023997433 0.00876339 0.034214478

bias f4 [128]
00000000: 5c6b a93d 15de 263e 74b2 81bc 7c0d 03bd
00000010: b088 373c ca3b 31bd 4493 503e 5131 ef3d
00000020: 72ec 3e3e fad4 30bd b4d2 07bc 6a12 c7bc
00000030: 7d63 a6bc f6df 3a3d 9ccc 84bc 473b afbc
00000040: 1774 073e fb56 1ebd 7560 973d 1efc b53b
00000050: d247 6d3e 466b 77bd de7a 01bd a84e 99bb
00000060: 2535 04bd 6e1f 4cbc babf 99bc 4868 2bbc
00000070: 8cd4 233e 0311 f83d ad99 30bd 82c5 22bd
00000080: 9f4a 463c 60b8 9bba a000 4bbc 3908 2f3d
00000090: ded6 a4bc e000 8a3c f229 733d e5e4 983d
000000a0: aa44 26bc 126e 47bd e875 d0bb a7cf d5bc
000000b0: 6bdf 20bd 1c41 513c 604c 6c3d d0ba 6cbb
000000c0: da65 9a3c 832c 1f3d cfe2 12bd 8d0a 8e3d
000000d0: 6fe1 b33d 8beb 89bc 87a7 30bd 131e 05bd
000000e0: 6fb0 3cbd cafc 9ebc 5510 7c3c b7f3 4abd
000000f0: 5b93 e13d dc28 edbc c46e 493d cbc7 10bd
00000100: ad2b d2bc c1a6 51bc b2f2 d13b d161 3abd
00000110: 33ce 903d 5067 b9bc b3c0 c5bc b0f6 df3b
00000120: 980d 63bc 6f11 ef3d 21f2 903c 9205 d53d
00000130: 10e8 bf3b bba4 0dbd 0f70 2bbc d441 18bd
00000140: 14b8 863e 3d71 d8bc 3db3 aabc 50a0 ba3d
00000150: 1846 49bd e02e 8ebc 7d7f cd3d 106c 7bbc
00000160: 20ae 513e c79a a73b 2009 383d 38c6 4a3c
00000170: 2d07 3a3e 37dc 093e d2aa 363d 45ef 30bd
00000180: b9fc 683e e8ae eb3c aa2e 833e 5019 3d3b
00000190: 7d46 ffbc cf57 e33c d978 2dbd c941 083e
000001a0: 455b bb3c 1de5 ce3a 48b1 2cbd 76eb 503e
000001b0: a592 37bd 1866 84bb e0ca 50bb 1f17 c43e
000001c0: c7ce 8e3e 7464 76ba c4b0 333e 9d09 183e
000001d0: 7084 e9bb 8099 eebc a828 f6bb 6022 dc3c
000001e0: c820 013c 51d5 fcbc e36e bbbc 43c3 3cbd
000001f0: 5721 b73d 582b e8bb 0cd0 a3bc 9eb7 3bbd
0.0827243 0.16295655 -0.015832163 -0.03199528 0.011202022 -0.04326991 0.20368677 0.11679328
0.18644884 -0.04317186 -0.008289982 -0.024300773 -0.020311112 0.045623742 -0.016210847 -0.02139057
0.13227879 -0.03865717 0.073914446 0.0055537364 0.23171929 -0.06040504 -0.031611316 -0.004678566
-0.032277245 -0.012458665 -0.01876818 -0.010461874 0.15999049 0.1211262 -0.043115307 -0.03973914
0.012102752 -0.001188051 -0.012390286 0.04273245 -0.020121988 0.01684612 0.059366174 0.07465533
-0.010148207 -0.048688956 -0.006361712 -0.026099993 -0.039275568 0.012771871 0.057690024 -0.003612209
0.018847395 0.03886081 -0.035860833 0.06935606 0.087832324 -0.016835948 -0.043128517 -0.032499384
-0.046066698 -0.019407649 0.015384753 -0.04954883 0.11014434 -0.028950147 0.0491779 -0.035346787
-0.025655592 -0.012796105 0.0064071054 -0.04550344 0.070705794 -0.022632271 -0.024139738 0.0068348274
-0.0138582215 0.11673247 0.017693581 0.10401453 0.0058565214 -0.034580927 -0.010463729 -0.037172154
0.26312315 -0.026421184 -0.02083742 0.091126084 -0.049139112 -0.017356336 0.10034082 -0.015345588
0.2047658 0.0051148864 0.044930577 0.012376361 0.181668 0.13462912 0.0445965 -0.043196935
0.22752656 0.028769925 0.2562154 0.0028854199 -0.031161541 0.027751831 -0.042351577 0.13306345
0.02287067 0.0015784834 -0.042161256 0.20402321 -0.044817585 -0.004040491 -0.0031859204 0.3829889
0.27892134 -0.0009399124 0.175479 0.14847417 -0.0071263835 -0.029125929 -0.007512171 0.02687186
0.007881351 -0.030863436 -0.022880023 -0.046084654 0.08941906 -0.007085245 -0.019996665 -0.045829408

weight f4 [400, 128]
00000000: 6843 a5bc 891a 07bd 71cd 9dbd b589 b0bd
00000010: d65d 533d df90 0abd 8a91 a5bd 2f52 41bd
00000020: 12ec 1abd 9c21 033d f201 13bd 90a4 0c3d
00000030: 64c4 80bd a08a 6cbc ca4e 93bd bc04 9c3c
00000040: 105c bfbc 8421 f83c 4a61 40bd bcad 68bd
00000050: b05f 6cbc 3075 ecbb 0041 dcba 3cc1 03bd
00000060: 7949 a7bd b5b5 a53d 10f0 be3c 7c42 fe3c
00000070: 96be 4c3d 6afa 403d 789a 313c 300f 40bd
00000080: 16c9 483d a57c 8fbd 70fa a33c 35fc 78bd
00000090: e538 b23d f4ce a63c d86e 163c 6037 9fbb
000000a0: 0491 9cbc 40b0 6bbd 000b ccb9 2853 0d3c
000000b0: 70e9 013d f098 19bc a6be 443d dc1d 5cbd
000000c0: 3021 283c 6861 003c 1e26 61bd a093 22bb
000000d0: 7ef1 5cbd 5013 c63b 5064 e93b 9053 893b
000000e0: 9b0c 803d 44b0 c23c 8808 4c3c 528d 2b3d
000000f0: 1a1d 423d 22f1 96bd 0056 4bb9 6470 b3bc
00000100: e5e2 83bd 03e2 80bd d0eb 963b a6c2 36bd
00000110: 303d cebb eeda 2f3d beaa 7c3d b63a 61bd
00000120: 3a06 543d 5826 b1bc 76ae 593d 9b79 47bd
00000130: be0c 4a3d e618 6b3d fa7a 2f3d 10e4 b2bc
00000140: 385a 2cbc b0e0 43bd f129 11bd ac52 5ebd
00000150: 4e2e 563d 5a1a 563d 28a3 dd3c 3e8c 643d
00000160: caa3 fcbc c019 d13c 38e7 25bd 1f1c 88bd
00000170: 2cf3 cbbc fc29 81bd e2ce 053d 1064 d93b
00000180: cc17 c63c 1cbc a4bd 080d 733c bbe8 abbd
00000190: 49d9 8a3d 2fb0 b13d cfc3 0abd f43b 9cbd
000001a0: e0e1 89bd 7a3b 613d 49d3 a73d 4cb8 d13c
000001b0: 802a 9bbb 8d3d b1bd a3d9 823d 1088 adbb
000001c0: 549f 85bd c0d5 973b 67e5 9f3d 40f6 89ba
000001d0: 78cb 6abd 0034 16ba abb9 94bd 6337 aa3d
000001e0: bf36 833d e084 12bd 1228 3abd 6a7e 433d
000001f0: fbdb 8a3d e628 5f3d 9021 e0bb 8f80 8b3d
00000200: fbbe a1bd b867 173c 00f0 69bc 4c2d c13c
00000210: dea2 d8bc 5b31 abbd 4859 4b3c 8010 63bc
00000220: 1399 68bd b84d 82bd 7b33 b1bd 2c8c a2bc
00000230: 7385 a0bd 0a1e acbd 40a5 063c f508 84bd
00000240: 6e40 79bd 84cc b73c 0227 433d c5c9 8c3d
00000250: 4f8e a13d 7278 3b3d f3c6 ae3d 89bf 873d
00000260: 0c59 103d 3ebf 3e3d 3b8e 67bd 9052 e1bb
00000270: 0080 eab7 e125 a73d 1877 85bc 8c6c 143d
00000280: b9f8 35bd ca86 68bd 52c2 99bd 410e 41bd
00000290: 7e19 323d 77ea 87bd 60ba 883c 2833 81bd
000002a0: affe 883d 90d7 0cbc 281a 5cbd 375f b03d
000002b0: b851 8fbc f005 dcbc dd85 70bd 8860 80bd
000002c0: fcb0 923c c97e 50bd e4b0 98bd 309a ca3b
000002d0: ac75 a4bc f055 3fbc da73 ecbc 8023 3e3c
000002e0: 4f5a 9d3d 80a4 e7ba 1973 9bbd 03d8 9abd
000002f0: 4e59 1a3d e302 85bd 5aa0 043d cc3c b73c
00000300: 0008 03b8 480d 76bd c0ed d83c ca11 8fbd
00000310: 7f82 8e3d 7a4c 61bd 313d 8f3d 0c55 073d
00000320: 4835 85bd 1ade 7abd b6f5 8bbd 4318 803d
00000330: 4c8d 9cbd bb4e 20bd 2359 68bd 548d b9bc
00000340: b2b0 703d 909f cf3b a7be b1bd 8a29 753d
00000350: 689a d8bc 0edf 4dbd 580a 18bc 7e59 97bd
00000360: ef42 4cbd eb9f 81bd 63a0 0ebd 5236 92bd
00000370: e791 a63d 94e4 aabd 30c4 9a3c 3900 ac3d
00000380: f03f 0fbc a489 68bd 4654 8abd 2408 e73c
00000390: 68d4 88bd 3509 08bd 17e3 943d e41b 6dbd
000003a0: c037 f33b b356 13bd 24e1 c4bc 1731 813d
000003b0: b6c5 68bd 7f28 8e3d 087e d13c b481 a4bd
000003c0: 99c9 b03d ee3f 403d 48d4 b6bc 7408 e9bc
000003d0: 7ba3 aa3d 68cc 9fbd 3ea0 483d c82c 5f3c
000003e0: 0ff4 05bd 9a8c 2b3d 702d 233c eb00 973d
000003f0: 6ab4 2f3d e24c adbd 91c6 abbd 24d8 863c
-0.020173743 -0.03298429 -0.077052005 -0.086200155 0.05160316 -0.033829566 -0.080844 -0.047197517
-0.03782279 0.032014474 -0.035890527 0.034336627 -0.062874585 -0.014437348 -0.07192762 0.019045226
-0.023359329 0.030289419 -0.046967782 -0.05680631 -0.014427111 -0.0072161183 -0.001680404 -0.032166705
-0.08168311 0.080912985 0.02330783 0.031037562 0.049986444 0.047113813 0.010840051 -0.046889484
0.049019895 -0.07006196 0.020016879 -0.0607874 0.08702258 0.020362355 0.009181701 -0.004858896
-0.019112118 -0.057541132 -0.00038918108 0.008625783 0.031716764 -0.009374842 0.04803338 -0.053739414
0.010261819 0.007835723 -0.054967992 -0.002480723 -0.053941242 0.0060447827 0.007122554 0.0041908696
0.06252404 0.02376569 0.012453206 0.04188282 0.047391035 -0.07370211 -0.00019391626 -0.021904178
-0.06439761 -0.06293108 0.0046057478 -0.044619225 -0.006293915 0.042933397 0.06168627 -0.05498763
0.05176375 -0.021624729 0.053144895 -0.048699956 0.04932856 0.057396792 0.04284189 -0.021837264
-0.010519557 -0.0478217 -0.03544039 -0.05427806 0.052290253 0.052271225 0.027055338 0.055797808
-0.03083982 0.025524974 -0.04050371 -0.06645989 -0.024896227 -0.06306836 0.032668002 0.006634243
0.02418127 -0.080436915 0.01483465 -0.08393999 0.06779725 0.086761825 -0.033878144 -0.07628623
-0.06732535 0.054988362 0.08194596 0.025600575 -0.004735291 -0.08654318 0.06389167 -0.005295761
-0.0652453 0.0046336353 0.07807427 -0.0010525659 -0.05732295 -0.00057297945 -0.07261976 0.083113454
0.06406926 -0.03577125 -0.04544837 0.04772798 0.06780239 0.054482363 -0.0068399385 0.0681163
-0.07897755 0.009241037 -0.014278412 0.02358117 -0.026444849 -0.08359023 0.012411423 -0.013858914
-0.056786608 -0.0636248 -0.08652397 -0.01984223 -0.078379534 -0.08404167 0.00821811 -0.06447021
-0.06085246 0.022436388 0.047644623 0.06874422 0.07888471 0.045769162 0.0853404 0.06628329
0.03524117 0.0465691 -0.056532126 -0.0068762973 -2.7954578e-05 0.08161522 -0.01629214 0.03623633
-0.044426654 -0.05676917 -0.07507767 -0.047132734 0.043481342 -0.066365175 0.016690433 -0.063085854
0.06689202 -0.008596316 -0.053735882 0.08611911 -0.017495021 -0.0268583 -0.058721412 -0.06268412
0.017906658 -0.05090216 -0.07455614 0.0061829314 -0.020075642 -0.011678204 -0.028863836 0.011605144
0.076832406 -0.0017672926 -0.075903125 -0.07560732 0.037682824 -0.06494691 0.032379486 0.022367857
-3.1240284e-05 -0.06007126 0.026480556 -0.06985815 0.06958484 -0.055004574 0.06994093 0.03304009
-0.06504303 -0.06124697 -0.06833975 0.062546276 -0.07644138 -0.039137583 -0.056725632 -0.022650398
0.05876226 0.00633616 -0.08678942 0.059854068 -0.026440814 -0.05026155 -0.00927981 -0.07390116
-0.04986852 -0.0632933 -0.034820925 -0.07139267 0.081332974 -0.08344379 0.018892378 0.0839848
-0.008743271 -0.05677189 -0.06754355 0.028202124 -0.06681138 -0.033211906 0.072698765 -0.057887927
0.0074224174 -0.035971355 -0.024033137 0.06308191 -0.056829177 0.06941318 0.025572792 -0.080325514
0.08632202 0.046935968 -0.02231802 -0.028446414 0.08331963 -0.07802659 0.048980944 0.0136215165
-0.032703456 0.041882135 0.009959564 0.07373222 0.042896666 -0.0846193 -0.08387483 0.016460486

bias f4 [400]
00000000: 1836 1bbc 0062 b0bc 60c8 cbbc 5e5e a6bd
00000010: 825b 403e 5fae fa3c 4f35 be3d 0eca 273e
00000020: d146 b03d a63e 0e3e b802 44bc ec6a 67bc
00000030: c014 8b3d 67b4 fe3d b4ff 093e c5ce 10bd
00000040: 2dc0 20bd 58f2 b03d 40ea a5bd 6698 dd3d
00000050: 3dff 4bbd 19b0 b73d d3b9 e13d 6680 95bd
00000060: 453c db3d f078 63bd bcff 8ebd d5c0 cd3d
00000070: d951 003e 631b a8bc d834 723d 0810 b7bc
00000080: b9d7 103e 13c8 79bd abf6 2a3e 8cc4 b23d
00000090: efb5 3d3e a8ee 6cbc 9093 d7bb 5d62 b03d
000000a0: 42e1 4d3e 86b9 81bd a97f 27bd 2a9a 813d
000000b0: 782f 133e eae2 a1bd d714 7abd 9402 3f3e
000000c0: 0ce4 083d 1b27 d53d fe6e ecbc 416f 053e
000000d0: c658 7bbd 64e7 81bc b6b5 003e 279e 04bd
000000e0: 82cf 093e cd07 0fbd 0cf6 9bbd 3ce9 013e
000000f0: 0b4c a3bd 3f63 31bd 65d0 d13d 400d cb3a
00000100: e035 363e 5ca4 a53d 36f9 c03d d23b 9dbd
00000110: 90f1 e13d 7619 8f3c 13a0 52bd af67 a43c
00000120: 80b2 7dbb 0265 683d b283 3e3c 331c b0bd
00000130: b64b 6dbd deb6 483c 8c5a a4bc e0d6 6fbc
00000140: 26c4 8c3d 3be7 c03d 901c be3d 0f9f 99bd
00000150: e1c2 903c 09f2 f1bc 3ea6 6dbd 24f7 e93d
00000160: 4137 d33d 6e3f c23d a5b3 4f3d 2572 1a3e
00000170: 052f e83c 4cad 98bd 3e26 54bd 5dd3 6fbd
00000180: 6a49 ff3d b1b4 963d a760 073e 7cf9 bbbc
00000190: dac6 7fbd 5c6d 9e3c 56b1 c23d 6bc8 afbd
000001a0: 9f83 f03d 1cbe 8cbd 40b6 c23b b1a9 a7bd
000001b0: 7954 d0bc 3432 893d b897 173e 934e 103e
000001c0: f086 57bc e8c6 07bc 15bd 123e e8d9 77bd
000001d0: b319 703d 96fc d13d 83b5 0b3e 56d5 0b3e
000001e0: 1af6 dc3d 9b1d 42bd 6cd3 083c c09c 543d
000001f0: 828a 263e 0762 be3d f801 323e ec17 e73d
00000200: 41a7 353e 73d7 033e b968 bf3d b964 223e
00000210: 3727 88bd 6705 763c d6bb ddbc e3e5 c33d
00000220: 4aff abbd d30d ef3d 197e a4bd 39ac f63d
00000230: cf1e 083e cbc2 043e 86a8 9fbd cadf 393d
00000240: 31a3 c63c 0c4b a0bc f0e1 e33d 675b f5bb
00000250: 0cbd 4a3e 1778 41bd b433 d73d 5d98 063e
00000260: 783f 973c 44f1 7dbc 10c5 adbc bd70 823d
00000270: 274d 1a3e 8bba 0b3e bbba 233e 96b0 873b
00000280: 94f8 953c 9030 71bd f6ff e23d d68d 713c
00000290: a0dd 183e 2079 7dbd dc43 a5bc 432f 2dbd
000002a0: 87f0 823d bb5d 323e a5a8 0c3e a626 273e
000002b0: 7b4e fe3d 6421 debc 4453 153e 4a2c d53c
000002c0: 41c2 68bd 05df 10bd 6d4a 06bd 40e1 d93d
000002d0: 9c45 fe3d 55bd 313e 69a9 0a3e b7c6 82bd
000002e0: 809f 6cba 4b12 d23d 6f8b 353e 4ae0 123e
000002f0: 72c0 073e e4cd 4c3e 9772 cb3d 3c06 2e3e
00000300: 04c5 8cbb 2073 6ebc 578f 99bd 001d b2bd
00000310: 4c93 c4bb c57b f43d 9749 383e 5c86 003e
00000320: 1091 fe3d 5128 13bd 323c 5c3d fef1 d5bc
00000330: 6acc 173e 1633 4c3d 734d 5b3e 61dc 913d
00000340: 5a0b 34bd 0ebe 3f3e d071 983d 809c 053e
00000350: f310 d33c ba19 0f3e 0fe6 23bd 7585 1b3e
00000360: 0f5a 6ebd 28b9 293d e41e c23d 65c9 97bd
00000370: 5b37 aa3d b4f0 cc3d c5e6 203e 4648 ad3d
00000380: 501d aabc 1017 79bc e41e 4c3d eb2c a73d
00000390: 7684 093e bb6f 963d fc23 2ebc 1681 813d
000003a0: 22b4 afbd 4451 94bd c04d 233e b9e6 1abd
000003b0: 55a0 9f3d 30e2 20bc abf6 a53d 672b 8bbd
000003c0: da9c b93d 2e6b 123e 1362 21bd 5c62 813d
000003d0: ac6e 703c 09cf 933d 2cb4 8a3d 1a2f 61bd
000003e0: 4974 fb3d 2a01 0c3e 30f4 c03d 6f43 213e
000003f0: e081 6a3b f553 a1bd 12f3 8a3d aa6d e13d
-0.009473346 -0.021531105 -0.02487582 -0.08123468 0.18784907 0.030600725 0.092875116 0.16385671
0.08607257 0.13891086 -0.011963539 -0.014124613 0.06791067 0.12436753 0.13476449 -0.03535344
-0.039245773 0.086399734 -0.0810132 0.10820083 -0.04980396 0.08969135 0.11021771 -0.07299881
0.10704855 -0.055535257 -0.06982371 0.100465454 0.12531222 -0.020520872 0.059132427 -0.022346511
0.14144792 -0.06098182 0.16695659 0.087288946 0.18526433 -0.014461197 -0.00657887 0.08612511
0.2010546 -0.06334214 -0.04089323 0.063282326 0.14373577 -0.079046085 -0.06105503 0.18653327
0.033420607 0.104078494 -0.028861519 0.13030721 -0.061363958 -0.015857406 0.12569317 -0.03237739
0.13458064 -0.03491955 -0.07615289 0.12686628 -0.079734884 -0.04330754 0.10244826 0.001549162
0.17793989 0.0808799 0.09422533 -0.076774254 0.110324025 0.017468195 -0.05142219 0.020068971
-0.003871113 0.056736954 0.011628078 -0.085991286 -0.05793353 0.01225063 -0.020062707 -0.014638633
0.0687335 0.09419104 0.092827916 -0.07501041 0.01767105 -0.029534357 -0.05801987 0.114240915
0.10313273 0.094847545 0.05070843 0.15082605 0.028342733 -0.07454929 -0.051794283 -0.05855118
0.124651745 0.07358683 0.13220464 -0.022946112 -0.0624455 0.019339256 0.095064804 -0.085831486
0.11743855 -0.06872198 0.005942136 -0.08186663 -0.025430905 0.066990286 0.1480397 0.14092474
-0.01315473 -0.008287169 0.14329942 -0.060510546 0.05861826 0.10253255 0.1364346 0.136556
0.10789128 -0.047391515 0.008351188 0.0519073 0.16263774 0.09296041 0.17383564 0.112838596
0.17739584 0.12875156 0.09346146 0.15858735 -0.06648105 0.015015936 -0.027067106 0.09565332
-0.08398302 0.11672559 -0.08031864 0.120445676 0.13293003 0.12964933 -0.07795815 0.045379438
0.024247738 -0.019567035 0.111270785 -0.0074877026 0.19798678 -0.047233667 0.105079085 0.1314406
0.018462881 -0.015499417 -0.02121213 0.06369159 0.15068494 0.13645379 0.15989201 0.0041409237
0.018307008 -0.058884203 0.11083977 0.014743289 0.14928293 -0.061883092 -0.02017396 -0.0422814
0.06393533 0.17418568 0.13736208 0.16323337 0.12417313 -0.027115531 0.14582545 0.026022095
-0.05682588 -0.035368938 -0.03278582 0.10638666 0.12415621 0.1735738 0.13541187 -0.06385558
-0.0009026453 0.10257395 0.17728971 0.14343372 0.13257006 0.20000416 0.09933966 0.16994566
-0.004295947 -0.014553815 -0.07498043 -0.086969376 -0.0059990045 0.1193767 0.17996822 0.12551254
0.12430012 -0.03592712 0.053768344 -0.026116367 0.14824072 0.049853407 0.21416263 0.07122112
-0.04395614 0.18724844 0.07443583 0.13047981 0.025764918 0.13974658 -0.040014323 0.15187629
-0.058191355 0.041436344 0.09478548 -0.0741146 0.083113395 0.10006848 0.15713032 0.08461051
-0.02076593 -0.015203252 0.049834147 0.08162864 0.13429436 0.0734553 -0.0106286965 0.06323449
-0.085792795 -0.07242063 0.15947628 -0.03781769 0.07794253 -0.009819552 0.08103689 -0.06795388
0.0906312 0.14298698 -0.03940017 0.06317589 0.014674824 0.07217223 0.06772646 -0.05497656
0.12278039 0.13672319 0.09421575 0.1574838 0.0035782978 -0.07877342 0.06784643 0.11007245
