pyrotch学习/wr20-20-200000epoch.pth (torch, 817871 bytes, 8 tensors)

weight f4 [200, 100]
0	0x3d3c44a0	0.045963883
1	0x3ca05cf8	0.019575581
2	0x3da9d224	0.08292034
3	0x3dbe8a28	0.09303695
4	0xbd5cf6db	-0.053946357
5	0xbb359b76	-0.002771107
6	0x3dadfb21	0.08495165
7	0xbdab3972	-0.08360566
8	0xbd27894f	-0.040902432
9	0xbc8f3e96	-0.017485898
10	0x3d416c4c	0.04722242
11	0xbdb4a00c	-0.08819589
12	0xbd4961db	-0.049165588
13	0xbd734c04	-0.059398666
14	0x3ccdc2fb	0.025117388
15	0xbd661d4a	-0.056180276
16	0x3d93939a	0.07205887
17	0xbcb6c228	-0.022309378
18	0xbd197871	-0.037468378
19	0x3d476759	0.048682544
20	0x3ccac16b	0.024750432
21	0x3d3ed942	0.046593912
22	0x3d9d9bf3	0.076957606
23	0xbd7f86f8	-0.062384576
24	0x3d9d0963	0.07667806
25	0xbd851305	-0.06497768
26	0x3db16bf9	0.08663172
27	0x3d9c588b	0.07634076
28	0xbd38519f	-0.044999715
29	0xbd05ad62	-0.032636054
30	0x3c20aeb4	0.0098072775
31	0xbd911f13	-0.07086005
32	0x3ce9c9e1	0.028538646
33	0xbd4c8542	-0.049931772
34	0xbdc1018f	-0.094241254
35	0xbd200bc7	-0.03907373
36	0x3db6856d	0.08912168
37	0x3dca7897	0.09886282
38	0x3cbf1253	0.023324167
39	0x3d8edae9	0.069753475
40	0xbd5d8ef1	-0.054091398
41	0x3d602477	0.054722276
42	0x3c93d1a2	0.018044297
43	0x3d2454e6	0.040120028
44	0xbca557c3	-0.02018345
45	0x38b0d4cd	8.431971e-05
46	0x3d39d443	0.045368444
47	0x3db3dba1	0.08782125
48	0x3dbe8028	0.093017876
49	0x3d6b825c	0.057497367
50	0x3d37c9d5	0.044870216
51	0xbdbf0a16	-0.093280956
52	0x3da06754	0.07832208
53	0x3d990667	0.07471924
54	0x3d458469	0.04822198
55	0xbcd35062	-0.025795165
56	0xbdc59e29	-0.09649307
57	0xbd720f1a	-0.059096433
58	0x3db4a6cc	0.088208765
59	0x3d7577d0	0.059928715
60	0x3da9eee0	0.08297515
61	0xbdb45e5c	-0.0880706
62	0x3d0f380c	0.03496556
63	0x3ce7e832	0.028308962
64	0xbdc31881	-0.09526158
65	0x3da0c664	0.0785034
66	0xbdbd2d2a	-0.0923713
67	0xbd62eb05	-0.055399913
68	0xbd9ebca3	-0.07750823
69	0x3d77ef2e	0.060530834
70	0xbda004db	-0.07813426
71	0xb901e7b9	-0.00012388722
72	0x3d9b606f	0.075867526
73	0x3d917fc0	0.071044445
74	0xbd901931	-0.07036055
75	0xbc3d8237	-0.01156669
76	0x3d868f7d	0.06570337
77	0x3db6aaa8	0.08919269
78	0xbc8565c2	-0.016283873
79	0xbd2308e3	-0.039803397
80	0x3d7635c4	0.06010987
81	0x3d0c4b67	0.034251597
82	0xbb84a6e8	-0.004048217
83	0x3daf0835	0.08546487
84	0xbd5f5b8d	-0.05453067
85	0xbc66a291	-0.014076845
86	0x3d943b81	0.07237912
87	0x3dc529f3	0.09627142
88	0xbbe62f1b	-0.0070246584
89	0x3bea7b18	0.007155787
90	0xbccc3ded	-0.024931872
91	0xbcab45c0	-0.020907283
92	0x3d6c8afd	0.057749737
93	0x3d8c6e9d	0.06857035
94	0x3d0ea5b7	0.034826007
95	0xbdb60dcb	-0.088893496
96	0xbda25b9d	-0.0792763
97	0xbc5d0eef	-0.01349233
98	0x3d2b3fc8	0.041808873
99	0xbda40fdb	-0.08010837
100	0xbb12b9a0	-0.0022388473
101	0x3db9086b	0.09034809
102	0x3dc57709	0.09641845
103	0xbd8b373d	-0.06797645
104	0x3d5f0832	0.054451175
105	0x3c971760	0.018443763
106	0xbd960b46	-0.07326369
107	0xbc59abe8	-0.013285615
108	0x3c0b34d0	0.008496478
109	0xbd963d22	-0.07335879
110	0xbb56fd60	-0.0032804832
111	0xbdb5c01a	-0.08874531
112	0xbd951d0d	-0.072809316
113	0xbd2fa1e0	-0.042878985
114	0xbdcbb88d	-0.0994731
115	0xbb0a19a0	-0.0021072403
116	0x3c6568b0	0.01400201
117	0x3d066dde	0.03281962
118	0x3c602398	0.013680361
119	0xbdc720c7	-0.09723049
120	0xbd8d44a5	-0.068978585
121	0x3d82ca5b	0.063862525
122	0x3d28dffe	0.04122924
123	0xbcf259c8	-0.029583827
124	0x3d8a7d33	0.06762161
125	0xbc691118	-0.014225267
126	0x3dc119f9	0.09428782
127	0xbd97dd5d	-0.074152686
128	0xbab94400	-0.0014134645
129	0xbdb7a5f8	-0.08967203
130	0x3c2df290	0.010616913
131	0xbdcc1877	-0.09965604
132	0xbd6a3933	-0.057183456
133	0x3d95b2ff	0.073095314
134	0xbd9491f5	-0.072544016
135	0x3c93e06c	0.018051349
136	0x3dbc0c25	0.09182004
137	0xbd88ab70	-0.06673324
138	0xbb4c5f60	-0.0031184778
139	0xbb921660	-0.0044582337
140	0x3c96b094	0.018394746
141	0xbdc80127	-0.09765845
142	0xbd845e8a	-0.064633444
143	0xbd366fd7	-0.044540253
144	0xbd9cdabd	-0.076589085
145	0x3d655b96	0.055995546
146	0xbd75f46a	-0.060047545
147	0xbd092bc6	-0.03348901
148	0xbc4b3240	-0.012402117
149	0xbd0dca3a	-0.034616686
150	0xbd192600	-0.037389755
151	0x3d45b0ee	0.048264436
152	0x3d857a63	0.06517484
153	0xbc9a7b08	-0.018857494
154	0xbd0328dc	-0.03202139
155	0x3da02739	0.07819981
156	0x3d3cf0d2	0.0461281
157	0xbd1f542a	-0.038898624
158	0x3d9f4a09	0.07777793
159	0x3c84c6d8	0.016208097
160	0x3dc6a0eb	0.096986614
161	0xbc9bd3c0	-0.019021869
162	0x3cc41414	0.023935355
163	0x3d860c29	0.06545288
164	0x3da68e81	0.08132649
165	0xbc9a63d8	-0.018846437
166	0xbd2b3df0	-0.041807115
167	0x3d8ec02b	0.06970247
168	0x3c5431b0	0.0129513
169	0x3cec1b64	0.028821655
170	0xbdc37312	-0.09543432
171	0xbdaa2416	-0.08307664
172	0xbdbdec98	-0.09273642
173	0x3d4e56aa	0.050375618
174	0xbd86f54e	-0.06589757
175	0xbd2fdd8a	-0.042935885
176	0xbdc74c7d	-0.09731386
177	0xbda60302	-0.081060424
178	0x3d086fb6	0.03330966
179	0x39838200	0.00025083125
180	0xbd9b59db	-0.07585498
181	0xbd6ac6da	-0.057318546
182	0xbd2e5c37	-0.04256841
183	0x3d29987e	0.041405194
184	0x3d599a72	0.053125806
185	0x3dbde119	0.092714496
186	0x3d9596c1	0.07304145
187	0x3dc36333	0.09540405
188	0x3d84d211	0.064853795
189	0x3d993fe9	0.07482893
190	0xbc8e31a8	-0.017357662
191	0x3d7c91d6	0.061662517
192	0x3d5abde2	0.053403743
193	0x3db11ab1	0.08647669
194	0x3d661662	0.05617369
195	0x3c2ab968	0.010420181
196	0x3d22dc0a	0.039760627
197	0xbd20ba90	-0.03924042
198	0x3da008a1	0.07814146
199	0x3cc4668c	0.02397468
200	0xbcd876ad	-0.026423777
201	0x3d5b3c08	0.053524047
202	0x3da8a5a8	0.082347214
203	0xbd52b1d0	-0.051439106
204	0x3daad5dc	0.08341572
205	0x3b81036f	0.003937177
206	0xbd4819e9	-0.048852835
207	0xbdc81908	-0.09770399
208	0xbd5efb67	-0.054438975
209	0x3d8fd037	0.07022136
210	0xbd70e9e2	-0.058816798
211	0xbd5f37f8	-0.054496735
212	0x3c9778ca	0.018490214
213	0xbdf0e73c	-0.117628545
214	0xbd90c670	-0.07069099
215	0xbe04646a	-0.1292893
216	0xbd3b725d	-0.045763362
217	0xbbc5cb7b	-0.0060362197
218	0x3cb2d40d	0.02182963
219	0xbcec876c	-0.028873168
220	0xbc6bf926	-0.014402663
221	0xbdc3547c	-0.095375985
222	0x3cde4d68	0.02713652
223	0xbd9b61b2	-0.07586993
224	0x3d7c5578	0.061604947
225	0xbdd49752	-0.103804246
226	0x3bde6cbd	0.006787865
227	0xbdb4a009	-0.08819587
228	0xbd2d6ee6	-0.04234209
229	0xbd264319	-0.040591333
230	0x3c2a874c	0.010408234
231	0xbcad5ad2	-0.02116147
232	0x3da63be7	0.08116894
233	0xbd8daad0	-0.069173455
234	0x3d77c184	0.060487285
235	0x3e00251b	0.12514155
236	0x3d65c2d6	0.056094013
237	0x3d916916	0.07100122
238	0x3dfa0cfa	0.12209506
239	0x3d284455	0.04108079
240	0xbd8145c5	-0.063121356
241	0x3c1d5a3f	0.009604036
242	0xbd5972bc	-0.053087935
243	0x3c3c09b0	0.011476919
244	0x3b849a04	0.0040466804
245	0x3ca2432b	0.019807419
246	0xbd94a044	-0.07257131
247	0xbd97a736	-0.0740494
248	0xbc880a8c	-0.016606592
249	0xbc1f0873	-0.009706604
250	0x3dca4644	0.09876683
251	0x3cb81e5a	0.02247541
252	0x3d8c2c7a	0.06844421
253	0xbd236d74	-0.039899305
254	0x3d92ec07	0.07173925
255	0x3d961c70	0.07329643

bias f4 [200]
0	0xbd8331b1	-0.06405962
1	0xbd829378	-0.06375784
2	0x3e391ec6	0.18078145
3	0x3e141716	0.14461932
4	0x3e15688b	0.14590661
5	0xbd867476	-0.06565182
6	0x3bd4c865	0.0064936155
7	0x3e8c7ceb	0.27439055
8	0xbd7def43	-0.061995756
9	0x3ca3be28	0.019988135
10	0xbdbe2b1d	-0.09285567
11	0x3d898377	0.06714528
12	0xbd857b60	-0.065176725
13	0x3e0aa998	0.13541257
14	0x3da69779	0.0813436
15	0x3d994125	0.074831285
16	0xbcbb17c0	-0.022838473
17	0xbc624518	-0.013810419
18	0xbdafd2da	-0.085851386
19	0xbcfdbe54	-0.030974545
20	0x3e24caee	0.16093037
21	0x3d6e8f14	0.05824192
22	0xbc9ddeac	-0.019271217
23	0x3e878d56	0.26475018
24	0x3e2c091d	0.16800351
25	0x3e4dc10f	0.20093177
26	0xbd539570	-0.051656187
27	0x3e875033	0.26428375
28	0x3ca489d8	0.02008526
29	0x3c81f5ee	0.015864339
30	0xbcb0d7f1	-0.021587344
31	0x3d4ee483	0.050510895
32	0xbd360d6d	-0.044446398
33	0xbd55a726	-0.05216136
34	0x3d9c7c2b	0.07640871
35	0x3cec3226	0.028832506
36	0x3e3ef991	0.1864989
37	0xbd0d59e0	-0.03450954
38	0xbdb02d95	-0.08602444
39	0x3d8d2aaf	0.06892907
40	0x3d94e390	0.072699666
41	0x3c578a98	0.013155602
42	0x3e369065	0.1782852
43	0x3d8cfedd	0.06884549
44	0xbda36532	-0.07978286
45	0xbde35707	-0.111005835
46	0xbd74cb83	-0.059764396
47	0xbdb10a3b	-0.086445294
48	0x3d938f53	0.07205071
49	0xbd4263e0	-0.04745853
50	0x3c3cd873	0.011526215
51	0x3e18f855	0.14938481
52	0xbd49c75a	-0.049262382
53	0xbd3e8453	-0.046512913
54	0x3d5ea2dc	0.054354534
55	0xbd7c936d	-0.061664034
56	0x3db3342f	0.087501876
57	0xbd00f7b4	-0.031486228
58	0xbd4d78dd	-0.050164092
59	0xbcf7c880	-0.030246973
60	0xbd8d856e	-0.06910215
61	0x3db47f1e	0.08813308
62	0xbd30b687	-0.04314282
63	0xbd857487	-0.065163665
64	0x3e7828ec	0.2423436
65	0xbd9107ca	-0.07081564
66	0xbd94b006	-0.07260136
67	0xbd228e80	-0.03968668
68	0xbe7d09a7	-0.24710713
69	0xbc67e5d8	-0.01415392
70	0x3e33c484	0.17555434
71	0xbde9c3c1	-0.1141429
72	0x3e37c7d4	0.17947322
73	0x3e1914cf	0.14949344
74	0x3e0cb514	0.13740951
75	0x3e75f0ab	0.24017589
76	0xbdb3e9eb	-0.08784851
77	0x3c99ac0c	0.018758796
78	0xbe3374b8	-0.17524993
79	0xbdc2aac5	-0.09505228
80	0x3e3222e1	0.17396118
81	0xbd9cdac5	-0.076589145
82	0x3d47d90e	0.048790984
83	0x3d6ca9e1	0.057779197
84	0x3dfdb438	0.123878896
85	0x3d17af42	0.037032373
86	0x3bf915f4	0.007601494
87	0x3adcd740	0.0016848817
88	0xbd0b9d74	-0.034085706
89	0x3e67246f	0.22572492
90	0x3db57ba1	0.08861471
91	0xbd7804fd	-0.060551632
92	0xbcec1e78	-0.028823122
93	0x3d2f43b2	0.04278917
94	0xbd706433	-0.058689307
95	0xbc065938	-0.008199982
96	0x3e379370	0.17927337
97	0x3e23258e	0.15932295
98	0x3cd7b963	0.026333516
99	0xbd810045	-0.062988795
100	0xbdab7a6b	-0.08372959
101	0xbc3b9bfd	-0.011450765
102	0xbdc46aea	-0.09590705
103	0xbcd134fd	-0.025537962
104	0x3d846f77	0.06466573
105	0x3e05b927	0.13058911
106	0x3e977955	0.29584756
107	0x3da5c038	0.080933034
108	0xbe8ab0bc	-0.27087963
109	0xbd88a72e	-0.06672512
110	0xbd3a6f7c	-0.045516476
111	0xbd13810c	-0.03601174
112	0xbe1c96b7	-0.15291868
113	0x3da7eb0a	0.08199127
114	0x3e18675b	0.14883177
115	0xbca739b4	-0.020413257
116	0x3ddde987	0.108355574
117	0x3d0b3042	0.03398157
118	0xbd383fd0	-0.04498273
119	0xbd15e8ca	-0.036598958
120	0xbd55a2ab	-0.052157085
121	0x3d625a38	0.05526182
122	0xbd779c63	-0.060451876
123	0x3ce6b84c	0.028164051
124	0xbd924c7a	-0.07143493
125	0xbe685275	-0.22687705
126	0x3b31e533	0.002714467
127	0xbd912a90	-0.07088196
128	0x3ed257f9	0.41082743
129	0xbdf30d24	-0.11867741
130	0x3ec2945f	0.38003823
131	0x3e25bb14	0.16184646
132	0xbd8deca6	-0.06929903
133	0x3e8d8441	0.27639964
134	0xbd1bd7ad	-0.03804748
135	0x3cd30bfc	0.02576255
136	0x3e543a41	0.20725347
137	0x3d9e1e70	0.07720649
138	0x3c3310f7	0.010929338
139	0xbb367bc0	-0.0027844757
140	0xbdc34b97	-0.09535902
141	0xbd9c094b	-0.0761896
142	0x3c9e37c0	0.019313693
143	0xbdb14682	-0.086560264
144	0x39004600	0.00012233108
145	0x3c9d84d8	0.019228384
146	0xbcee51b8	-0.0290917
147	0xbe1bdf91	-0.15222003
148	0x3d9f3057	0.07772892
149	0x3e2e4283	0.1701756
150	0x3e947793	0.28997478
151	0x3e98a3a8	0.2981236
152	0xbd3da4a3	-0.046299588
153	0x3e9f556a	0.31119853
154	0xbbda5d20	-0.0066639334
155	0x3cc54f92	0.024085794
156	0x3e3d0c15	0.1846164
157	0xbdbdc031	-0.09265173
158	0xbd82375e	-0.06358217
159	0x3d472ca4	0.048626557
160	0x3e27c7cb	0.16384809
161	0x3e84b32d	0.2591795
162	0x3d80c6e7	0.062879376
163	0xbc917fc8	-0.017761126
164	0x3e795eeb	0.24352615
165	0x3e9f46fa	0.31108838
166	0xbd5244a2	-0.051334985
167	0x3eaa709c	0.3328904
168	0xbc1ebcb0	-0.009688541
169	0x3dbc008d	0.091797926
170	0xbc7ae328	-0.015312947
171	0xbd9b30bd	-0.075776555
172	0xbb773a4a	-0.0037723952
173	0xbc4239e8	-0.011854626
174	0xbd24e17d	-0.040254105
175	0x3dd9dbe5	0.10637645
176	0x3cb33b68	0.021878913
177	0xbda0640c	-0.078315824
178	0xbd956188	-0.07293993
179	0xbd19d76b	-0.037558954
180	0x3ccdc3ec	0.025117837
181	0x3cab83a0	0.020936787
182	0x3e88027d	0.26564398
183	0xbdb63e80	-0.0889864
184	0x3d9aa23e	0.075504765
185	0x3d8cce14	0.06875244
186	0xba8acf40	-0.001059033
187	0x3e3bd7e4	0.18344074
188	0xbd8c3ec8	-0.06847912
189	0x3e883264	0.26600945
190	0xbdb160c3	-0.08661034
191	0x3e4939d4	0.19650966
192	0x3ccfef5c	0.02538269
193	0x3cb69141	0.02228606
194	0x3dead01c	0.11465475
195	0x3e06cf40	0.13164997
196	0x3e58e105	0.21179588
197	0xbd5e6080	-0.05429125
198	0x3ed38abc	0.41316783
199	0x3e1134b0	0.14180255

weight f4 [400, 200]
0	0xbd2e8fa7	-0.042617466
1	0x3d2dec24	0.04246153
2	0x3d533c4e	0.051571183
3	0x3b8c9cda	0.004291159
4	0xbc0a0c7f	-0.008425831
5	0xbd2230f8	-0.03959748
6	0x3d1d43db	0.03839479
7	0xbca40167	-0.0200202
8	0x3cc09c5c	0.023512058
9	0x3ce9b718	0.028529689
10	0x3d0024d2	0.031285115
11	0x3a3bfe80	0.00071714073
12	0xbd4437d1	-0.047904793
13	0x3ba8d7d5	0.0051526823
14	0xbbb11633	-0.0054042577
15	0xbcd33789	-0.025783317
16	0x3ca27978	0.019833311
17	0xbd8ff290	-0.07028687
18	0x3d1f031e	0.038821332
19	0x3d50d192	0.05098111
20	0xbbb4d83d	-0.0055189417
21	0x3d6c5cd1	0.057705704
22	0x3d6b986e	0.057518415
23	0xbca0baef	-0.019620387
24	0x3dbea050	0.09307921
25	0x3cb1c1fb	0.021698942
26	0x3d128d1a	0.035779096
27	0x3d130263	0.035890948
28	0xbd8bb065	-0.06820754
29	0x3c9fcf4a	0.019508023
30	0x3d596fd8	0.053085178
31	0x3d9d0c20	0.07668328
32	0x3d5a6ab8	0.05332443
33	0x3d348d79	0.04408023
34	0x3d73c013	0.059509348
35	0xbd248adf	-0.0401715
36	0xbdb8f22f	-0.09030568
37	0xbcbb5de6	-0.022871923
38	0x3b4a0ee3	0.0030831627
39	0xbd7eef16	-0.06223973
40	0x3d2fe8ee	0.04294675
41	0x3d07c4b6	0.033146583
42	0x3b7f7a7b	0.0038982916
43	0xbd1ca4e8	-0.038243204
44	0x3d51b832	0.051201053
45	0x3d24a1a3	0.04019321
46	0xbd5cd640	-0.053915262
47	0x3b34e420	0.0027601793
48	0x3ba5ac70	0.0050559565
49	0x3cffd9bc	0.031231754
50	0x3d9ff62e	0.07810627
51	0xbda688ca	-0.08131559
52	0x3d418714	0.04724796
53	0x3d02c206	0.031923316
54	0x3d84fe95	0.0649387
55	0x3d6b9d4a	0.05752305
56	0x3d9fb3b2	0.07797946
57	0x3d0f01c6	0.0349138
58	0xbb7d62e0	-0.003866367
59	0x3d5b4904	0.05353643
60	0x3b270060	0.0025482401
61	0x3d25d32a	0.040484585
62	0xbd641f9e	-0.055694215
63	0xbd2fd000	-0.042922974
64	0xbd1675f0	-0.036733568
65	0x3cb23f94	0.021758832
66	0x3dac596c	0.08415493
67	0x3d3f3090	0.046677172
68	0x3dec56a4	0.11539963
69	0xbcc1ffd2	-0.023681555
70	0x3da4d4ae	0.08048378
71	0xbc11ae11	-0.008891598
72	0x3d7f66ff	0.062354084
73	0xbc9e87e5	-0.019351909
74	0xbc359ea0	-0.011085182
75	0x3c477a5f	0.012175172
76	0xbbb57570	-0.0055376813
77	0x3cdb1c1f	0.026746808
78	0x3d56e30a	0.052462615
79	0xbcf552b8	-0.02994667
80	0xbd1367e8	-0.035987765
81	0xbca25efe	-0.019820686
82	0x3d5d9d0e	0.054104857
83	0x3aa74837	0.001276261
84	0x3d88dc9b	0.06682702
85	0x3dc15980	0.09440899
86	0x3d016837	0.031593528
87	0x3d522b50	0.051310837
88	0x3cd04a44	0.025426038
89	0xbd7f3900	-0.06231022
90	0xbc8b1ebc	-0.016982429
91	0x3da3fe29	0.080074616
92	0x3d6f841e	0.058475606
93	0x3d2c111a	0.042008497
94	0x3c151fe1	0.009101839
95	0x3db9a065	0.09063796
96	0xbcbc1719	-0.022960233
97	0x3d8c3e0c	0.06847772
98	0xbcbfe07a	-0.023422468
99	0xbd8baecf	-0.068204515
100	0xbc96dd18	-0.018415973
101	0x3d81b65a	0.06333609
102	0x3d789fde	0.060699336
103	0x3d1d2202	0.03836251
104	0xbc5b32b8	-0.0133787915
105	0x3d0f5ce5	0.0350007
106	0xbd28aaff	-0.0411787
107	0x3c9f0927	0.019413544
108	0xbc97a43e	-0.018510934
109	0x3d6730e2	0.056443103
110	0xbd8b56df	-0.06803679
111	0x3d8d27b5	0.06892339
112	0x3d9290f6	0.07156555
113	0x3cd08fe6	0.025459241
114	0xbd62e356	-0.055392586
115	0x3cd73cb0	0.026274055
116	0x3d62e6a6	0.055395745
117	0xbd20ff3b	-0.039305907
118	0x3d3d3c20	0.046199918
119	0xbbafa790	-0.005360551
120	0xbd110232	-0.035402484
121	0x3d3d43e5	0.046207327
122	0x3d4ad65a	0.049520828
123	0x3cc30ad0	0.023808867
124	0x3d808a5f	0.06276392
125	0xba213987	-0.0006150235
126	0x3d67e030	0.056610286
127	0xbd79261b	-0.060827356
128	0xbd50719e	-0.050889604
129	0x3ccb6051	0.0248262
130	0x3c798172	0.015228616
131	0xbd3b970c	-0.045798346
132	0xbc64b9ec	-0.013960343
133	0xbc3fa012	-0.011695879
134	0x3ce08c8c	0.027410768
135	0xbd033ba7	-0.03203931
136	0xbcfa2dd7	-0.030539436
137	0x3bcef65f	0.006315991
138	0x3d857713	0.06516852
139	0x3d1dee88	0.03855756
140	0xbc07a598	-0.008279227
141	0xbcaafb4a	-0.020871777
142	0x3d862fa7	0.06552058
143	0x3cc25052	0.02371994
144	0xbc124a1c	-0.008928802
145	0xbb44fee0	-0.0030059144
146	0x3ba46980	0.0050174594
147	0x3dafc9df	0.08583426
148	0xbb274aa5	-0.002552667
149	0x3d8439cf	0.064563386
150	0x3c430778	0.011903636
151	0xbc0e82b5	-0.008698155
152	0x3c3abea8	0.011397995
153	0x3cb5a22e	0.02217206
154	0xbd2f4e74	-0.042799428
155	0x3c5d1c02	0.013495447
156	0xbc7b5b56	-0.0153416
157	0x3d5a2e63	0.053266894
158	0x3d5b548c	0.053547427
159	0x3bd574df	0.0065141763
160	0x3d0a7213	0.033800196
161	0xbcbf22f1	-0.023332091
162	0x3cd6ee10	0.026236564
163	0xbd36ab9a	-0.044597246
164	0xbd334978	-0.043771237
165	0x3c9e95f2	0.019358609
166	0xbd41f1c5	-0.04734971
167	0xbd870280	-0.06592274
168	0xbd12fda5	-0.035886426
169	0x3d2cf24a	0.042223252
170	0xbd241b54	-0.040065125
171	0xbd707dfa	-0.05871389
172	0x3d4af69f	0.049551602
173	0x3d88df4b	0.06683215
174	0x3cf8c744	0.030368455
175	0xbd91e2aa	-0.07123311
176	0xbc48b1ec	-0.012249451
177	0x3bcf535d	0.0063270763
178	0x3cd24e98	0.025672242
179	0x3d871105	0.06595043
180	0xbd20fb99	-0.039302442
181	0x3cf313b4	0.029672481
182	0x3ce28c58	0.027654812
183	0xbd64c0ef	-0.05584806
184	0xbcc496e7	-0.023997737
185	0xbd146355	-0.036227543
186	0x3d087672	0.033316083
187	0xbd0d0b83	-0.034434807
188	0x3c38eec8	0.011287399
189	0x3d8958ce	0.06706391
190	0x3d5740b8	0.052551955
191	0xbd7aaf01	-0.061202053
192	0xbd589b3f	-0.05288243
193	0xbcde05b0	-0.027102321
194	0x3d973f23	0.07385089
195	0xbd9510c6	-0.0727859
196	0xbcbfffda	-0.02343743
197	0xbd0709b6	-0.032968245
198	0xbd0468b7	-0.032326426
199	0x3c623585	0.013806705
200	0x3d76227a	0.060091473
201	0x3d67a002	0.05654908
202	0x3cc1112a	0.023567755
203	0xbd2cccf0	-0.04218763
204	0xbd7bf1be	-0.06150984
205	0x3d238c98	0.039929003
206	0x3c7d9280	0.015476823
207	0xb9bfdfae	-0.00036597013
208	0x3c723e38	0.014785342
209	0xbd2db28e	-0.04240661
210	0xbc5f0554	-0.01361211
211	0xbcb331d6	-0.02187435
212	0xbd8eee77	-0.06979077
213	0x3cb92881	0.022602322
214	0x3d999562	0.07499196
215	0xbbea7529	-0.00715508
216	0xbd24be0d	-0.04022031
217	0xbd1dc84f	-0.038521107
218	0x3d62a44e	0.055332474
219	0xbd46aa69	-0.04850236
220	0xbcbc254f	-0.022967009
221	0x3cd1504b	0.025550982
222	0xbbd00a90	-0.0063489154
223	0x3d58735e	0.052844398
224	0x3d775b8a	0.060390033
225	0x3cc4e906	0.024036895
226	0xbd887939	-0.066637464
227	0xbcb049b5	-0.021519521
228	0x3d2bb1ac	0.041917488
229	0x3d89b7a5	0.067244805
230	0xbd1bc448	-0.038028985
231	0xbcf97149	-0.030449526
232	0x3d7c7f42	0.0616448
233	0xbbc0e963	-0.005887197
234	0xbd87fad0	-0.066396356
235	0x3d8bc1df	0.06824087
236	0x3ceaac41	0.02864659
237	0xbd263510	-0.040577948
238	0xbcc3b4ae	-0.023889866
239	0xbd0b78c5	-0.03405072
240	0xbb9a45e1	-0.0047080372
241	0xbc0c0184	-0.008545283
242	0x3d54143a	0.051777102
243	0xbd00c335	-0.031436164
244	0x3cc205e8	0.023684457
245	0xbccb6b9e	-0.02483159
246	0x3d6b23ca	0.057407178
247	0xbcc863b2	-0.0244616
248	0xbaf29340	-0.0018507019
249	0xbd36f5a4	-0.044667855
250	0xbd86784f	-0.06565916
251	0xbc8e3f39	-0.017364131
252	0xbd26ddc6	-0.040738843
253	0xbd527206	-0.051378272
254	0x3cae97a0	0.021312535
255	0x3d6fa256	0.058504425

bias f4 [400]
0	0xbd4c0cf8	-0.049817055
1	0x3d1092c7	0.035296228
2	0x3db034c8	0.08603817
3	0x3c64afa8	0.013957895
4	0xbd4c3a96	-0.04986056
5	0xbc2b8538	-0.010468774
6	0x3d911f12	0.07086004
7	0x3da01f14	0.07818428
8	0x3d57c5a5	0.052678723
9	0x3ddf874c	0.10914478
10	0xbd403efa	-0.04693506
11	0xbca1351f	-0.01967865
12	0xbd4a9490	-0.049458086
13	0x3ce6aa0e	0.02815726
14	0xbd8c4182	-0.06848432
15	0x3cf9cffb	0.03049468
16	0x3e26e255	0.16297276
17	0xbc6b3ecc	-0.014358234
18	0x3dcd2a60	0.10017848
19	0xbd5e1b2d	-0.054225136
20	0x3e4f06b8	0.20217407
21	0xbcf97aac	-0.030454002
22	0x3b05bd14	0.0020406889
23	0xbd49a4ca	-0.04922942
24	0xbd85e41a	-0.065376475
25	0x3db2d6e9	0.08732397
26	0xbd04dd23	-0.032437455
27	0xbcc9b7b2	-0.024623726
28	0xbdb29e72	-0.08721627
29	0xbd4b7470	-0.04967159
30	0xba89bb1c	-0.0010508033
31	0x3d518c8c	0.051159427
32	0x3c727c90	0.014800206
33	0xbd5a1d04	-0.053250328
34	0x3d981afe	0.07427023
35	0x3d80488e	0.06263839
36	0x3c994d74	0.01871369
37	0xbd072b70	-0.03300041
38	0xbd11198a	-0.035424747
39	0xbd411054	-0.047134712
40	0xbcaca227	-0.021073414
41	0xbc5f0348	-0.013611622
42	0xbd694f38	-0.056960315
43	0xbd824dba	-0.063624814
44	0xbd3cb100	-0.046067238
45	0x3cfbfef9	0.030761229
46	0x3c341288	0.010990746
47	0x3dfb185c	0.122605056
48	0x3e066037	0.1312264
49	0xbd8cfd85	-0.068842925
50	0xbd6af468	-0.05736199
51	0x3cfa5715	0.030559102
52	0xbb3b32e6	-0.0028564273
53	0xbd3c20b9	-0.045929644
54	0x3d275f18	0.040862173
55	0x3da604e9	0.08106405
56	0x3de8b52c	0.11362681
57	0xbd4d2c78	-0.050091237
58	0x3d252e32	0.04032726
59	0xbbeb2103	-0.007175566
60	0xbcfe4e07	-0.031043066
61	0x3db7154f	0.08939611
62	0x3e535479	0.20637693
63	0x3d55df4f	0.052214917
64	0xbd839f38	-0.06426853
65	0x3c43ae48	0.011943407
66	0xbd88d9e7	-0.066821866
67	0xbd197451	-0.037464444
68	0x3d3de8bb	0.046364527
69	0x3e33787c	0.1752643
70	0xbd8fc68d	-0.070202924
71	0x3c39340c	0.011303913
72	0xbd8be97d	-0.06831644
73	0xbd6b6a69	-0.057474528
74	0xbd0ef36c	-0.034900114
75	0xbcde047e	-0.027101751
76	0xbd693abb	-0.056940775
77	0xbd8b1a2c	-0.06792101
78	0xbd47a346	-0.048739694
79	0xbd830ac3	-0.06398537
80	0x3e074d51	0.13213088
81	0x3dcca360	0.09992099
82	0x3cf44fee	0.02982327
83	0xbd825dd3	-0.06365552
84	0x3e2342ee	0.159435
85	0x3e080f20	0.1328702
86	0x3d06124e	0.0327323
87	0xbd47432f	-0.048648056
88	0x3d854d69	0.065089054
89	0x3ce5e4f4	0.028063275
90	0x3df6633c	0.12030646
91	0x3e14ff7c	0.14550585
92	0x3e3701cf	0.17871784
93	0x3e1433d0	0.1447289
94	0x3dde56c7	0.10856395
95	0xbc1fe9ac	-0.009760302
96	0x3d40a9f6	0.047037087
97	0xbd6c3843	-0.057670843
98	0xbd8422da	-0.0645196
99	0x3d064f91	0.032790724
100	0x3b4fd537	0.003171278
101	0x3da0f7eb	0.078597866
102	0xbc00ea90	-0.007868424
103	0x3e009bf2	0.12559488
104	0xbd79c97b	-0.060983162
105	0x3deab1b4	0.114596754
106	0x3ce7f220	0.028313696
107	0x3d60ce4e	0.054884247
108	0x3dd0cdec	0.101955265
109	0xbd46b41e	-0.048511617
110	0xbd205cf6	-0.039151154
111	0x3e38c03e	0.18042085
112	0x3c015d19	0.007895731
113	0x3e399b86	0.18125734
114	0xbc8cedfb	-0.017203322
115	0x3d33bdcb	0.043882173
116	0xbd56759d	-0.05235826
117	0x3e311aa2	0.17295316
118	0xbd89dfe3	-0.06732156
119	0xbcedc7c0	-0.029025912
120	0xbd839eb4	-0.064267546
121	0xbdbdf06a	-0.09274371
122	0xbd08d676	-0.03340765
123	0x3cb6ecfc	0.0223298
124	0x3d28e5bd	0.04123472
125	0xbcf8c7e8	-0.03036876
126	0x3cce2269	0.025162892
127	0x3e05bf9a	0.13061371
128	0x3e4f5310	0.2024653
129	0x3d806442	0.06269123
130	0x3d052d25	0.032513756
131	0x3e3b1cd4	0.18272716
132	0x3dd1cd8a	0.102442816
133	0x3cfaf6a3	0.030635184
134	0xbd24ac47	-0.04020336
135	0xbd5ad9d7	-0.053430405
136	0x3d9adb93	0.07561412
137	0xbd765184	-0.060136333
138	0x3cad41c4	0.021149524
139	0x3d577fb9	0.05261204
140	0x3db272ec	0.08713326
141	0x3e256ee2	0.1615558
142	0x3c94f1ae	0.018181648
143	0xbbcea358	-0.006306093
144	0xbc75ef52	-0.015010672
145	0x3d6bca16	0.05756577
146	0xbd39878b	-0.04529528
147	0x3e32f7f3	0.17477398
148	0x3e75a83e	0.2398996
149	0x3d36782b	0.044548195
150	0x3db890af	0.09011971
151	0xbc3b8080	-0.011444211
152	0x3bee1d00	0.0072666407
153	0x3d23d704	0.039999977
154	0x3cd584c8	0.026064292
155	0x3b53990b	0.0032287266
156	0xbd83ec6f	-0.064415805
157	0x3dee92df	0.11649107
158	0xbd88a604	-0.0667229
159	0x3bd3a890	0.006459303
160	0x3c0ee4a2	0.0087215025
161	0x3dc9fbb0	0.09862459
162	0xbcd21480	-0.02564454
163	0x3e2d600d	0.16931172
164	0xbd19c7b9	-0.037543986
165	0x3e0decd6	0.13859877
166	0x3ccb3fcf	0.0248107
167	0x3decf939	0.11570973
168	0xbd03dade	-0.03219115
169	0x3d2de250	0.042452157
170	0x3ba31428	0.004976768
171	0xbd2bb920	-0.041924596
172	0x3d9bb90f	0.076036565
173	0x3d042551	0.03226215
174	0xbd6bc6fc	-0.057562813
175	0x3e3a13b3	0.18171577
176	0xbd8baba8	-0.0681985
177	0xbce24666	-0.02762146
178	0xbd3f97a9	-0.046775494
179	0xbce94aca	-0.028478045
180	0xbcaa4730	-0.020785898
181	0xbd76ff85	-0.060302276
182	0xbc70d178	-0.014698379
183	0x3e147a92	0.14499882
184	0xbd404524	-0.046940938
185	0xbd1a5e48	-0.03768757
186	0xbcd54fed	-0.026039088
187	0x3d3f922f	0.04677027
188	0xbd178621	-0.03699315
189	0xbc5a23e8	-0.013314225
190	0xbd63bb1e	-0.05559837
191	0x3e490119	0.19629325
192	0xbda7ca8c	-0.081929296
193	0xbcf980fa	-0.030457009
194	0x3d43469c	0.04767476
195	0x3d62cf45	0.05537345
196	0x3dc234fd	0.09482763
197	0x3be508ee	0.00698959
198	0x3e32c774	0.17458898
199	0x3d59bf7f	0.05316114
200	0xbd8486ad	-0.06471
201	0xbd3b7c68	-0.04577294
202	0xbcf18dfe	-0.029486652
203	0xbc040f6f	-0.00806032
204	0x3bce9ae4	0.0063050855
205	0x3d1e017a	0.038575627
206	0x3d4883be	0.048953764
207	0x3e44323c	0.19159788
208	0x3c9d96e4	0.01923699
209	0x3d090cd6	0.033459507
210	0x3e14b563	0.14522319
211	0x3d40341f	0.046924707
212	0x3e1f6267	0.15564881
213	0xbcfdea5f	-0.030995546
214	0xbdaf7937	-0.08568042
215	0x3d36eb21	0.04465783
216	0xbca981db	-0.020691803
217	0xbd803773	-0.06260576
218	0xbd62ab60	-0.055339217
219	0xbd478bfa	-0.048717476
220	0xbd7126e3	-0.058874976
221	0xbd8e721f	-0.069553606
222	0x3e08280d	0.13296528
223	0xbc2588a0	-0.010103375
224	0xbb2adc60	-0.0026071295
225	0x3b20f223	0.0024558387
226	0x3c520518	0.012818597
227	0x3e17790f	0.14792274
228	0x3d22ce6c	0.03974764
229	0xbcbf0b60	-0.023320854
230	0xbd794b8b	-0.06086306
231	0x3d030b59	0.031993244
232	0xbd964b60	-0.073385954
233	0xbd8570f7	-0.06515687
234	0xbd889475	-0.06668941
235	0xbd8620cd	-0.06549225
236	0x3e0ce05a	0.13757458
237	0x3c7e3416	0.015515348
238	0x3d2651fc	0.04060553
239	0x3d0461a8	0.032319695
240	0x3c9c6adc	0.019093923
241	0x3d2f80c4	0.04284741
242	0x3deb9e88	0.11504847
243	0xbbfd21cb	-0.0077249757
244	0x3ba487ff	0.005021095
245	0xbd8804d1	-0.06641544
246	0x3d0bf986	0.03417351
247	0x3d4940d9	0.04913411
248	0xbd434a53	-0.047678303
249	0xbd2c86fa	-0.04212091
250	0xbcf388b2	-0.029728267
251	0x3e47b3ab	0.19502132
252	0xbd2a86a9	-0.04163233
253	0x3dec4960	0.11537433
254	0xbd678326	-0.056521557
255	0x3e53e7ec	0.2069394

weight f4 [128, 400]
0	0xbcdaab4c	-0.026693009
1	0xbd437ed2	-0.047728367
2	0x3c2077ca	0.009794185
3	0x3d278331	0.0408966
4	0x3c2d9514	0.010594625
5	0xbcfafa60	-0.030636966
6	0x3d69c3c5	0.057071466
7	0x3cb45bb1	0.022016378
8	0xbd32772c	-0.043570682
9	0x3d2f9902	0.04287053
10	0x3d3edb7f	0.046596047
11	0x3d2c7323	0.04210199
12	0x3d2d2c4d	0.042278577
13	0x3d33a29d	0.043856252
14	0xbd2d8a70	-0.042368352
15	0x3cf12a24	0.02943904
16	0x3d145096	0.036209665
17	0x3d2a9ae3	0.041651618
18	0x3cebf86f	0.028804986
19	0x3cd177ae	0.025569763
20	0x3c0aeb52	0.008478956
21	0xbd8d157b	-0.06888863
22	0x3d175074	0.03694196
23	0x3d05fe11	0.032713
24	0x3d379e25	0.044828553
25	0xbd83fac5	-0.06444315
26	0xbd0c70c4	-0.03428723
27	0xbd34aef8	-0.044112176
28	0x3c124b3b	0.008929069
29	0xbd132650	-0.03592521
30	0xbd6d9d84	-0.058011547
31	0x3ce1dc99	0.02757101
32	0x3c813e82	0.015776876
33	0x3c6d92d4	0.014500339
34	0x3a472938	0.00075973896
35	0x3bd3c697	0.0064628827
36	0x3ce94512	0.028475318
37	0xbd16416e	-0.036683492
38	0x3d0d8fb9	0.034560893
39	0x3cd8ed6d	0.026480401
40	0xbcd090fd	-0.02545976
41	0x3c573f1c	0.013137605
42	0xbd4bd284	-0.04976131
43	0x3c5bd1f4	0.013416756
44	0x3c041f08	0.008064039
45	0x3c72f209	0.0148282135
46	0xbca655e5	-0.02030463
47	0x3b1cf98d	0.0023952455
48	0x3bf7392b	0.0075446567
49	0xbcfc6b9d	-0.030813033
50	0xbd07fa54	-0.033197716
51	0xbcb4a882	-0.022053007
52	0xbd85dc48	-0.06536156
53	0xbd1ece6c	-0.038771078
54	0x3cc35060	0.023842037
55	0x3c5dd26d	0.013538939
56	0xbc738d81	-0.01486528
57	0xbc479a34	-0.012182761
58	0xbb5e304d	-0.0033903301
59	0xbca654f6	-0.020304184
60	0xbc2f61ea	-0.010704497
61	0x3ccbd0d6	0.024879854
62	0x3cfce479	0.030870663
63	0x3bd72b01	0.0065664058
64	0x3ce5df2a	0.028060514
65	0x3d410c8b	0.047131103
66	0xbafb01c0	-0.0019150302
67	0xbcf80013	-0.030273473
68	0x3d1cfe3f	0.038328405
69	0x3d41eb5c	0.047343597
70	0xbd2eb9f7	-0.04265782
71	0xbcd70bba	-0.026250709
72	0x3d10245f	0.035190936
73	0xbccb705a	-0.024833847
74	0xbc84eea0	-0.016227067
75	0xbcd51517	-0.026011033
76	0xbc493dac	-0.01228277
77	0xbcda1663	-0.026622003
78	0xbd476f83	-0.04869033
79	0x3cb7e030	0.022445768
80	0xbd579249	-0.052629743
81	0xbd352a23	-0.044229638
82	0x3d42828d	0.047487784
83	0xbd1c39df	-0.038141128
84	0xbd544ff3	-0.051834058
85	0x3d31f57b	0.043447
86	0xbad7a314	-0.0016451799
87	0xbbb5230b	-0.005527859
88	0xbd69fc5f	-0.057125445
89	0xbc8af3ba	-0.016961921
90	0xbd3f20fe	-0.046662323
91	0x3d5cd2b3	0.053911876
92	0x3d44737b	0.047961693
93	0xbd49c59e	-0.049260728
94	0xbcf98e27	-0.030463291
95	0x3b16f7e0	0.0023035929
96	0x3c2553fd	0.010090825
97	0xbc91ccdc	-0.01779788
98	0x3b29a450	0.0025885291
99	0x3b3097f8	0.002694605
100	0xbcad93dc	-0.021188669
101	0x3cb85b5e	0.022504505
102	0xbb09e560	-0.002104126
103	0x3d6cbafb	0.057795506
104	0x3d0e2a4f	0.034708317
105	0x3cca2ccb	0.024679562
106	0x3d34fe3e	0.044187777
107	0x3c112e0f	0.008861079
108	0x3d0d6eae	0.03452938
109	0xbd227d71	-0.03967041
110	0x3d47983b	0.048729163
111	0x3ce0d9a4	0.02744753
112	0x3d49119d	0.049089063
113	0x3c328f20	0.0108983815
114	0x3c974184	0.018463857
115	0x3d3a59ce	0.0454958
116	0x3c0bbbe5	0.008528684
117	0x3d64b799	0.055839155
118	0xbc19c428	-0.009385146
119	0x3b2fb4a0	0.0026810542
120	0x3d032417	0.03201684
121	0xbd120178	-0.035645932
122	0xbcfcd72a	-0.030864317
123	0x3b86b34c	0.0041107293
124	0x3d1106df	0.035406943
125	0x3d08687f	0.03330278
126	0xbc0bfe53	-0.008544522
127	0x3d45d840	0.048301935
128	0x3d9a622b	0.07538255
129	0xbd8f4239	-0.06995053
130	0xb9d61d48	-0.00040839077
131	0x3d3719a1	0.044702176
132	0x3d8406fc	0.06446645
133	0x3c7575df	0.014981716
134	0xbd4ddf08	-0.050261527
135	0xbc844764	-0.016147323
136	0x3d591dd2	0.053006954
137	0x3ce6e8aa	0.028187115
138	0xbcd6b4aa	-0.026209194
139	0x3d56961b	0.052389245
140	0x3d3ec781	0.04657698
141	0x3dacc5fe	0.084362015
142	0xbcc9819e	-0.02459794
143	0xbcef8195	-0.029236594
144	0x3d11ca05	0.03559305
145	0xbd0d8941	-0.034554724
146	0xbbcb0e68	-0.0061967857
147	0x3a43f2e0	0.0007474851
148	0x3d5b591a	0.05355177
149	0xbd05b224	-0.03264059
150	0xbcbfaf4a	-0.023399014
151	0xbafd7d60	-0.0019339733
152	0x3d2f791c	0.04284011
153	0x3c86660f	0.016406087
154	0x3d1d7a79	0.038446877
155	0xbcf6ea06	-0.030140888
156	0xbcfb617d	-0.030686134
157	0x3ceb1d1e	0.028700408
158	0xbd3eb8e5	-0.046563048
159	0xbcab1fc0	-0.020889163
160	0xba223aec	-0.00061885896
161	0x3dab36ac	0.08360037
162	0xbd231503	-0.03981496
163	0x3d5c2ca2	0.053753503
164	0xbc794bf8	-0.015215866
165	0x3d47060c	0.04858975
166	0xbb870a2b	-0.004121085
167	0xbc3dea25	-0.011591469
168	0xbd35459a	-0.04425583
169	0x39939a0a	0.00028152793
170	0xbc0128cf	-0.007883265
171	0x3b129030	0.0022363774
172	0xbcffc63f	-0.03122246
173	0xbcee453c	-0.029085748
174	0xbcdeabcd	-0.02718153
175	0x3d169864	0.036766425
176	0xbd033ac2	-0.032038458
177	0xbc7e2eb4	-0.015514065
178	0x3d17d36b	0.03706686
179	0xbd40d9e3	-0.047082793
180	0x3ba01718	0.0048855655
181	0xbd840159	-0.064455695
182	0xbd2d312b	-0.04228322
183	0x3d26488a	0.040596522
184	0xbd3220ad	-0.043488193
185	0xbc42bf08	-0.011886366
186	0x3b18da06	0.0023323311
187	0x3d06c63f	0.032903906
188	0x3bd29600	0.006426573
189	0xbd2f656d	-0.042821337
190	0x3b4309d0	0.0029760487
191	0x3d34844c	0.04407148
192	0xbd4823d8	-0.04886231
193	0xbca53063	-0.020164674
194	0x3cf92b10	0.030416042
195	0xbbd7c8d3	-0.0065852194
196	0x3c84b531	0.01619968
197	0xbbac6472	-0.0052609975
198	0x3af9ab91	0.0019048323
199	0x3d043182	0.032273777
200	0x3b9b4bf0	0.004739277
201	0xbcb9c1a3	-0.022675341
202	0x3d213caf	0.039364513
203	0x3d0a4600	0.033758163
204	0xbc579ce5	-0.013159965
205	0xbc63abe6	-0.013895964
206	0x3d38fc32	0.045162387
207	0xbba87bce	-0.005141712
208	0x3d2f1351	0.04274303
209	0x3ce5d2a2	0.02805454
210	0xbc852118	-0.016251132
211	0x3c257b91	0.010100261
212	0x3d8f4a37	0.06996577
213	0x3d1325e0	0.035924792
214	0x3d0381da	0.032106258
215	0xbcb3915e	-0.021919902
216	0x3d435f1a	0.047698118
217	0xbc84b3ec	-0.016199075
218	0x3d4315b5	0.047628123
219	0x3c874ee2	0.016517106
220	0xbc189a50	-0.009314135
221	0x3c5194e4	0.012791846
222	0x3d806546	0.062693164
223	0x3d086e81	0.03330851
224	0x3d213a61	0.039362315
225	0xbd6dabfb	-0.05802534
226	0xbd087e72	-0.033323713
227	0x3cee53cc	0.029092692
228	0xbb04828c	-0.0020219414
229	0x3ca0adc2	0.019614104
230	0x3c8b07f3	0.016971564
231	0x3d52500e	0.051345877
232	0xbcb029c0	-0.021504283
233	0x3c6ad4ac	0.0143329315
234	0xbc2f2b4e	-0.010691477
235	0x3cd811ee	0.026375737
236	0xbd1c69f7	-0.038186993
237	0xbcde6278	-0.027146563
238	0x3d09a4f5	0.03360458
239	0xbd390a43	-0.045175802
240	0xbb90f680	-0.0044239163
241	0xbd2ac9b7	-0.041696277
242	0x3d951913	0.07280173
243	0xbcf7169d	-0.03016215
244	0xbd61d450	-0.055134118
245	0x3ca9f326	0.020745825
246	0x3c8343aa	0.016023476
247	0xbc986ecf	-0.018607525
248	0x3bff4e35	0.0077913054
249	0x3c7aeb24	0.015314851
250	0xbc0c15a6	-0.008550083
251	0xbcabcf0d	-0.020972753
252	0x3ce0a306	0.027421486
253	0x3da38afb	0.07985493
254	0xbd179c38	-0.037014216
255	0x3d8a70d4	0.067598015

bias f4 [128]
0	0x3d6fcf14	0.058547094
1	0xbcd6b8d3	-0.026211178
2	0x3e115097	0.14190899
3	0x3da0d022	0.07852198
4	0xbd3dfe9f	-0.046385404
5	0x3e0c26f0	0.13686728
6	0x3cd55f32	0.02604637
7	0x3e100b7f	0.14066885
8	0x3cde1392	0.027108941
9	0x3cfafbf0	0.030637711
10	0xbc95831f	-0.018251
11	0x3ba66b28	0.005078692
12	0xbbb76c18	-0.0055976026
13	0x3d4247c2	0.047431715
14	0xbceeab59	-0.02913444
15	0xbd3e5e50	-0.046476662
16	0xbc22d2b4	-0.009937931
17	0xbc46273c	-0.012094315
18	0xbcb3ee47	-0.021964205
19	0xbda281dd	-0.07934926
20	0x3e31c655	0.17360814
21	0x3ca2b6be	0.019862529
22	0x3df979a1	0.12181402
23	0x3c92be65	0.017913053
24	0x3e69a734	0.22817689
25	0xbc9f5eaa	-0.019454319
26	0xbcbb871d	-0.022891575
27	0xbd0fb1de	-0.035081737
28	0xbd0e88fd	-0.03479861
29	0x3e20f837	0.15719686
30	0xbc6e6088	-0.014549382
31	0xbd003f7d	-0.031310547
32	0x3d3af7ce	0.04564648
33	0x3ba29800	0.0049619675
34	0xbd051d22	-0.032498486
35	0x3cf09473	0.029367661
36	0x3e2214e1	0.15828277
37	0xbc533c20	-0.012892753
38	0x3da84ba3	0.082175516
39	0x3c8609ba	0.01636206
40	0xbd7b87e1	-0.06140888
41	0xbd3bb2ba	-0.045824744
42	0x3c96ddc0	0.018416286
43	0xbbbf3661	-0.00583534
44	0xb9db1d00	-0.00041792542
45	0x3c6976bc	0.0142495
46	0x3e18f391	0.14936663
47	0xbcdd5083	-0.02701593
48	0x3e12badf	0.14329098
49	0xbdb3b4fe	-0.08774756
50	0x3cd42576	0.025896769
51	0xbc8d0832	-0.017215822
52	0xbd41424b	-0.047182363
53	0xbd195875	-0.037437875
54	0xbd3d5100	-0.046219826
55	0xbd258d54	-0.040417984
56	0x3e684dfd	0.22686
57	0x3d405936	0.04696008
58	0x3e564151	0.20923354
59	0x3daccf0e	0.0843793
60	0x3c0b2c73	0.008494484
61	0x3bfdbca4	0.007743435
62	0x3d8fa90d	0.07014666
63	0x3d634dc2	0.055494078
64	0x3dba331c	0.090917796
65	0xbd52fda2	-0.051511414
66	0x3c2290d8	0.009922229
67	0x3bcfc9c0	0.006341189
68	0x3ceceadc	0.028920583
69	0x3e2ecd30	0.1707046
70	0x3d2c96b8	0.042135924
71	0x3e08da7b	0.13364594
72	0x3de9d5c0	0.11417723
73	0x3e90f93d	0.28315154
74	0xbb88a5b0	-0.004170142
75	0xbd148dfe	-0.036268227
76	0x3e8d3319	0.27578047
77	0x3ccf7d64	0.025328346
78	0xba856537	-0.0010177259
79	0xbd4ef402	-0.050525673
80	0x3e46f4da	0.19429341
81	0x3caa8c16	0.020818751
82	0x3d969581	0.07352734
83	0x3e321865	0.17392118
84	0xbc867076	-0.016411047
85	0xbd3a8977	-0.045541253
86	0x3c74c61a	0.014939809
87	0x3dbb211e	0.09137176
88	0x3bb47114	0.005506644
89	0x3e223ec5	0.15844257
90	0x3e548c01	0.20756532
91	0xbbb777dc	-0.005599005
92	0x3e9426f6	0.28935975
93	0x3d2a5608	0.041585952
94	0x3bb305a3	0.0054633184
95	0x3d72a520	0.059239507
96	0xba6caba4	-0.0009028262
97	0x3d91cf32	0.071195975
98	0x3e0e4817	0.13894688
99	0xbc484680	-0.01222384
100	0xbbfe68d5	-0.007763962
101	0xbcd998e0	-0.026562154
102	0xbb3a6b20	-0.00284452
103	0xbd2f7813	-0.04283912
104	0x3a59b580	0.00083049387
105	0x3e14ba89	0.14524283
106	0x3e0326ae	0.12807724
107	0xbca5c773	-0.020236706
108	0xbc101e95	-0.008796354
109	0xbce7480a	-0.028232593
110	0x3d114c9b	0.035473447
111	0x3dedf3cb	0.116187654
112	0x3d98f9b0	0.07469499
113	0x3c4edac6	0.012625402
114	0xbbf7cfaa	-0.0075625973
115	0x3dac9f3c	0.08428809
116	0x3d957b3c	0.07298896
117	0x3d1adb3f	0.037806746
118	0x3d12d0d7	0.035843696
119	0xbd3ff165	-0.04686107
120	0x3be96a7d	0.00712329
121	0xbcd1ed35	-0.025625804
122	0xbd6dc578	-0.05804965
123	0xbc580558	-0.013184868
124	0x3e2d6fa9	0.16937126
125	0xbd641766	-0.055686377
126	0x3e8653b8	0.26235747
127	0x3df909a0	0.12160039

weight f4 [400, 128]
0	0xbdad9c99	-0.08477134
1	0xbd653b3f	-0.055964705
2	0x3ce79ed0	0.02827397
3	0x3d81aa86	0.06331353
4	0xbd4497d9	-0.047996376
5	0xbd0a2fdb	-0.033737045
6	0xbc8d47bc	-0.01724612
7	0xbdaba74e	-0.0838152
8	0x3d20e2a2	0.039278634
9	0x3d724c4a	0.059154786
10	0x3de4793d	0.11155937
11	0x3da279fd	0.07933424
12	0xbc2abcc0	-0.010420978
13	0x3daef320	0.08542466
14	0x3d77625a	0.06039653
15	0xbd209d74	-0.03921266
16	0x3bbc79d0	0.005751826
17	0x3dbe8674	0.09302989
18	0xb9942400	-0.00028255582
19	0x3ccdb1ea	0.02510925
20	0xbca22bfa	-0.01979636
21	0xbdb619ca	-0.088916376
22	0x3cadb34f	0.021203665
23	0xbcbedcab	-0.023298582
24	0xbdda6964	-0.10664633
25	0xbd50b65e	-0.05095517
26	0x3ca5a8e4	0.020222135
27	0x3db7e93b	0.08980032
28	0xbd08d39e	-0.03340494
29	0xbd1cec38	-0.038311213
30	0x3cb988f4	0.022648312
31	0xbd85e7aa	-0.06538327
32	0xbc92c7c4	-0.017917521
33	0x3d8c0003	0.0683594
34	0xbccb313a	-0.024803746
35	0x3dbe74cf	0.09299623
36	0xbd95d943	-0.0731683
37	0xbd7879d2	-0.060663052
38	0x3d25934c	0.040423676
39	0x3e048862	0.12942651
40	0xbd7c7692	-0.061636515
41	0xbdaabd0c	-0.08336839
42	0xbda6f335	-0.08151857
43	0xbd607648	-0.0548003
44	0x3a55c180	0.0008154139
45	0xbb7b0a80	-0.003830582
46	0x3d182cda	0.03715215
47	0xbd901b2e	-0.07036434
48	0x3db61ac8	0.08891827
49	0x3dc1435c	0.09436676
50	0xbcbddb68	-0.02317591
51	0x3d2d64a5	0.04233231
52	0xbbbde620	-0.0057952553
53	0x3d81db79	0.06340689
54	0x399b0600	0.00029568374
55	0x3d456522	0.04819215
56	0xbd625d7c	-0.055264935
57	0xbdac0469	-0.08399279
58	0x3ceb9331	0.02875671
59	0x3ccb74e6	0.024836015
60	0x3b9d7571	0.00480526
61	0x3d9cd812	0.076584
62	0x3c3463f1	0.011010156
63	0xbd46d839	-0.04854605
64	0x3ccb44fd	0.02481317
65	0xbcb46e18	-0.022025153
66	0xbd825f45	-0.063658275
67	0x3d6461f2	0.05575747
68	0xbcd0e326	-0.025498938
69	0x3d0c14ee	0.034199648
70	0x3dae37ad	0.08506713
71	0xbd801bdb	-0.06255313
72	0xbbeee332	-0.0072902674
73	0xbd57465b	-0.05255733
74	0xbd40b31e	-0.04704582
75	0xbd8534ac	-0.06504187
76	0xbc6ab574	-0.014325488
77	0xbd8be88a	-0.06831463
78	0xbcbd1dbd	-0.02308547
79	0x3af02c31	0.0018323717
80	0x3d7bbd7e	0.06146001
81	0x3cbd6898	0.023121163
82	0x3d47f0c9	0.048813615
83	0xbd1cd83e	-0.038292162
84	0x39d21500	0.00040069968
85	0xbd3b1055	-0.045669872
86	0x3d82168d	0.063519575
87	0xbcc02474	-0.023454882
88	0x3c2cdab7	0.010550193
89	0x3d9eecb7	0.077599935
90	0xbc3d9a16	-0.0115723815
91	0x3d932293	0.07184329
92	0xbd9cdf61	-0.07659794
93	0x3d98e3db	0.07465335
94	0x3d3ee96c	0.046609327
95	0x3d913e48	0.07091957
96	0x3b3d433a	0.0028879181
97	0xbd781ef6	-0.0605764
98	0x3d58f2ed	0.052966047
99	0x3c337016	0.010952016
100	0xbc3b32c0	-0.011425674
101	0xbd7510e0	-0.059830546
102	0x3d11451e	0.035466306
103	0xbd1ad6ee	-0.03780263
104	0xbd3b0c00	-0.04566574
105	0x3d732b1b	0.05936728
106	0x3d61f1ef	0.055162366
107	0x3d645c22	0.055751927
108	0x3d805bef	0.06267535
109	0xbd7920f7	-0.060822453
110	0x3d980209	0.07422263
111	0xbdc4e3c4	-0.09613755
112	0x3ca76f0a	0.02043869
113	0x3d29c8e6	0.041451357
114	0x3df774f8	0.12082857
115	0xbd77bab8	-0.060480803
116	0xbdbcf2ce	-0.09225999
117	0x3dadae1b	0.084804736
118	0x3d6a809a	0.05725155
119	0x3c19b079	0.009380453
120	0x3d0e4490	0.034733355
121	0xbd8e10a5	-0.069367684
122	0x3dc00a55	0.09376971
123	0x3da52845	0.080643214
124	0x3d2c617c	0.042085156
125	0x3ca79eee	0.020461526
126	0xbd455e39	-0.04818556
127	0xbcd9dcee	-0.026594605
128	0x3d280efe	0.041029923
129	0x3c2a6bd0	0.010401681
130	0xbcfcaef8	-0.03084515
131	0xbd86ced9	-0.06582422
132	0x3cedfbd0	0.029050738
133	0xbd1bb62c	-0.03801553
134	0xbd23ec2e	-0.04002016
135	0xbd5a4243	-0.05328585
136	0x3b4d4d20	0.0031326488
137	0xbd037a29	-0.032098923
138	0x3c691050	0.014225081
139	0xbda32331	-0.079656966
140	0x3bf02cf0	0.0073295757
141	0x3d8ee5cb	0.06977423
142	0x3c21aef0	0.0098683685
143	0xbca32aa0	-0.019917786
144	0xbb6fc380	-0.0036585033
145	0xbd84c13f	-0.06482171
146	0xbbf5b2a0	-0.0074981004
147	0xbd4680cb	-0.04846267
148	0xbd91d37a	-0.07120414
149	0x3daeb6b5	0.08530942
150	0x3da6fb2d	0.08153377
151	0xbcf5f764	-0.030025192
152	0xbd2ceb4b	-0.04221658
153	0xbdade851	-0.084915765
154	0xbd413ecd	-0.047179032
155	0xbcfea0ae	-0.031082477
156	0x3d8f4145	0.06994871
157	0xbdac81c6	-0.0842319
158	0x3da2bbaf	0.07945954
159	0x3d184a9a	0.03718052
160	0xbd910050	-0.07080138
161	0x3d8beb49	0.068319865
162	0xbd715128	-0.058915287
163	0xbcd3cf40	-0.02585566
164	0x3c8617cc	0.01636877
165	0xbc742020	-0.014900237
166	0x3daf5eb9	0.08562989
167	0xbda80a89	-0.082051344
168	0xbd730610	-0.059331954
169	0xbd642669	-0.055700693
170	0xbd9ba362	-0.07599522
171	0xbdb1fe50	-0.086910844
172	0xbd40876e	-0.047004156
173	0x3bc3da50	0.0059769526
174	0x3d7d4c62	0.061840422
175	0x3d36a5e6	0.044591807
176	0xbdaef596	-0.085429356
177	0xbdb17519	-0.08664913
178	0xbc9ea1cc	-0.01936426
179	0xbd612bc9	-0.054973397
180	0x3ccae678	0.0247681
181	0x3c2f7048	0.010707922
182	0xbd6090d7	-0.05482563
183	0x3daba6c9	0.08381421
184	0x3d97ceed	0.07412515
185	0xbda9e630	-0.08295858
186	0xbd7db871	-0.061943475
187	0xbd3a90a7	-0.045548107
188	0xbd318d4c	-0.04334764
189	0x3db4e4e7	0.08832722
190	0xbd4ddb3b	-0.050257903
191	0x3d59e496	0.053196512
192	0x3da49679	0.08036513
193	0xbc6a9ef0	-0.01432012
194	0xbd804c8c	-0.062646
195	0x3d91840b	0.07105263
196	0xbd8e1e92	-0.069394246
197	0xbd9bc2ac	-0.0760549
198	0x3b9b43b0	0.0047382936
199	0xbd46bef9	-0.04852197
200	0xbcd5c666	-0.02609558
201	0x3d9280db	0.071534835
202	0x3ca5ff50	0.020263344
203	0xbd6968f4	-0.056984857
204	0xbd75d2a2	-0.06001533
205	0x3b341980	0.002748102
206	0x3d9da41b	0.07697316
207	0xbda1fae1	-0.079091795
208	0x3dac85d1	0.08423961
209	0x3d21328a	0.03935484
210	0xbc969b50	-0.018384606
211	0x3bf9cb00	0.0076230764
212	0x3d2ad70e	0.041709
213	0x3d260412	0.040531226
214	0x3da317cd	0.07963524
215	0x3db2af71	0.08724869
216	0x3d776cb2	0.060406394
217	0xbd8eb5f1	-0.06968296
218	0x3d97907d	0.07400606
219	0xbd3f9e95	-0.046782095
220	0xbd2d047e	-0.042240612
221	0xbd37e262	-0.04489363
222	0x3c9568c0	0.018238425
223	0xbd5c898f	-0.053842124
224	0x3cbac7ac	0.02280029
225	0xbd8cd6ac	-0.06876883
226	0x3ce5a4c0	0.02803266
227	0x3d9b2d8d	0.075770475
228	0xbd0ea1d0	-0.034822285
229	0xbc942930	-0.018086046
230	0x3d005790	0.031333506
231	0x3da1441d	0.0787432
232	0xbcbacda8	-0.022803143
233	0xbd6b1bde	-0.057399623
234	0x3d823f3b	0.063597165
235	0xbc9ef4e4	-0.019403882
236	0xbd8136aa	-0.063092545
237	0x3d3b5c1a	0.04574213
238	0xbae3c340	-0.0017376915
239	0xbd925642	-0.071453586
240	0xbbdf03b0	-0.0068058595
241	0x3da5d131	0.08096541
242	0xbccadfbc	-0.024764888
243	0xbd84b1d2	-0.06479229
244	0x3d477d7a	0.04870365
245	0x3c092ef0	0.008373007
246	0x3db063c9	0.086127825
247	0xbd97b030	-0.07406652
248	0x3b825780	0.003977716
249	0xbd5b47a9	-0.053535137
250	0xbd891ed3	-0.066953324
251	0xbd60e319	-0.054904077
252	0xbd85bcbf	-0.06530141
253	0x3d1f2aaa	0.038859047
254	0xbd95f476	-0.07322018
255	0xbda72c8a	-0.08162792

bias f4 [400]
0	0xbca7e814	-0.020496406
1	0xbd42fa2e	-0.04760187
2	0xbb4491c0	-0.00299941
3	0xbd219f55	-0.03945859
4	0x3dcfc61f	0.101452105
5	0x3e10c82c	0.1413886
6	0x3e0a2fee	0.13494846
7	0xbd1c0967	-0.038094904
8	0xbd8847fe	-0.066543564
9	0x3de9de26	0.114193246
10	0x3dedfe20	0.11620736
11	0xbd88a229	-0.066715546
12	0xbd0ee083	-0.03488208
13	0xbd933a4b	-0.07188853
14	0xbd657923	-0.056023728
15	0x3c118a48	0.0088830665
16	0xbd4c30e9	-0.04985133
17	0x3dcd6d53	0.100306176
18	0x3cedb423	0.02901656
19	0xbda748b6	-0.081681654
20	0xbd85a3ed	-0.06525407
21	0x3d944e61	0.07241512
22	0x3d5fefe9	0.054672156
23	0x3dd6a61a	0.104809
24	0x3deb8f6f	0.11501967
25	0xbda4b6d2	-0.08042683
26	0x3de32a48	0.11092049
27	0x3da9752a	0.082743004
28	0x3df8aaa6	0.121419236
29	0x3def9f22	0.11700274
30	0xbc506fc8	-0.012721963
31	0xbd945796	-0.07243268
32	0x3c895cb8	0.016767845
33	0x3e47dcd5	0.19517834
34	0xbd8e33d3	-0.069434784
35	0x3d30ba01	0.043146137
36	0xb8f4ed64	-0.00011679044
37	0x3ded1f70	0.11578262
38	0x3d8ba03d	0.068176724
39	0x3e110f84	0.14166075
40	0x3e132109	0.1436807
41	0xbd1e0588	-0.038579494
42	0x3c1e8357	0.009674869
43	0xbc8cf767	-0.017207814
44	0xbcc83ac8	-0.024442092
45	0x3d80bad4	0.06285635
46	0x3d89a68f	0.06721222
47	0xbda17034	-0.07882729
48	0x3dce5e13	0.10076537
49	0xbcb6e398	-0.022325322
50	0x3de7fbc6	0.11327319
51	0xbd8de4f1	-0.06928433
52	0x3e104b94	0.14091331
53	0xbd62287a	-0.055214383
54	0x3dbb955d	0.09159348
55	0xbd924f7c	-0.07144067
56	0xbd85a939	-0.06526417
57	0x3e00eab8	0.12589538
58	0x3dbd1037	0.09231608
59	0xbdb062c4	-0.08612588
60	0x3e10c8fd	0.14139171
61	0xbd53c300	-0.05169964
62	0xbd94d795	-0.072676815
63	0xbd1abb4b	-0.037776273
64	0xbc8e4f24	-0.017371722
65	0x3d2cbc12	0.042171545
66	0xbdb167bd	-0.08662365
67	0x3d6b1542	0.05739332
68	0xbcf369ee	-0.029713597
69	0xbcc170c2	-0.023613337
70	0x3dcabad2	0.098989144
71	0x3dee9223	0.11648967
72	0x3e02deee	0.12780353
73	0xbae290f1	-0.0017285628
74	0x3e38d254	0.18048984
75	0xbce80b9d	-0.02832585
76	0x3ccaf4a6	0.02477486
77	0xbc23a19b	-0.00998726
78	0xbd89ad58	-0.06722516
79	0xbd61c3b6	-0.055118285
80	0x3cc99fa8	0.024612263
81	0x3d2e85fa	0.04260824
82	0x3ccf34a2	0.025293652
83	0x3c871d8d	0.016493583
84	0xbd10e2f1	-0.03537268
85	0x3e1f3595	0.15547784
86	0xbdce4702	-0.100721374
87	0x3e2bddb3	0.1678379
88	0x3d9cec3e	0.07662247
89	0x3d8c9f80	0.0686636
90	0x3d8dbfad	0.06921325
91	0xbc5a9943	-0.0133422045
92	0x3d6a326f	0.057177003
93	0xbd03120d	-0.031999636
94	0x3bd58b49	0.006516848
95	0xba6f1611	-0.00091204146
96	0x3dabf04d	0.08395443
97	0xbd2c7035	-0.042099196
98	0x3dc12a88	0.0943194
99	0xbd9c490d	-0.07631121
100	0x3d9c1c52	0.07622589
101	0x3dc31fbe	0.09527539
102	0x3d8db486	0.06919198
103	0x3d13c3d8	0.036075443
104	0x3dc9abd4	0.09847227
105	0xbd6eb20c	-0.058275267
106	0xbdb1a093	-0.08673205
107	0x3dd91354	0.1059939
108	0xba271636	-0.0006373854
109	0xbd1aeb48	-0.037822038
110	0x3e00b89a	0.1257042
111	0x3e084300	0.13306808
112	0xbdaf9c39	-0.08574719
113	0xbc95eb25	-0.018300602
114	0x3c9cc7c2	0.01913822
115	0x3d0f6bd5	0.035014946
116	0x3e036956	0.12833151
117	0x3df65820	0.12028527
118	0x3e1e800c	0.15478534
119	0x3e3ba1db	0.18323462
120	0x3e1d1949	0.15341677
121	0x3dc4c4af	0.09607827
122	0xbd2d4bf4	-0.042308763
123	0x3cb01a3d	0.021496886
124	0x3ccb4048	0.024810925
125	0x3def6a8f	0.11690246
126	0xbce86f0b	-0.028373262
127	0x3e252ea0	0.16131067
128	0xbb376625	-0.0027984467
129	0x3b7ee98a	0.0038896524
130	0x3dee71bd	0.116427876
131	0x3c1a76a6	0.009427702
132	0x3b1ee5a1	0.0024245756
133	0xbdb594e6	-0.08866291
134	0x3d6f21ba	0.058381774
135	0x3e1aee9f	0.15130089
136	0x3dd99c98	0.10625571
137	0xbcc88f4c	-0.024482392
138	0xbd76f3ee	-0.060291223
139	0x3db63213	0.0889627
140	0xbc9b4428	-0.018953398
141	0x3dde644d	0.108589746
142	0x3db6ab2f	0.089193694
143	0xbd997bef	-0.074943416
144	0x3a295de4	0.0006460829
145	0xbcfe8428	-0.031068876
146	0x3d0e22bb	0.03470109
147	0x3cc4476a	0.023959834
148	0x3deeadab	0.11654218
149	0x3da9a55e	0.082834944
150	0x3ccb1b22	0.024793211
151	0x3dc7a997	0.097491436
152	0x3c6cc268	0.014450647
153	0x3e38348b	0.17988794
154	0xbd674976	-0.056466542
155	0x3d01b68e	0.03166824
156	0x3d6af801	0.05736542
157	0xbb10bc00	-0.0022084713
158	0xbd3f06cc	-0.04663734
159	0x3bc3fb10	0.0059808567
160	0xbca53eed	-0.020171607
161	0xbccc335c	-0.024926834
162	0xbd2e43ac	-0.042545006
163	0xbc282eed	-0.010265094
164	0x3e2a2750	0.16616559
165	0xbd77aafd	-0.0604658
166	0x3df025d3	0.117259644
167	0xbcb147d2	-0.021640692
168	0x3d26e96c	0.040749952
169	0xbcaca56f	-0.021074979
170	0x3d45c804	0.048286453
171	0xbd2925ae	-0.0412957
172	0x3e3186d8	0.17336595
173	0x3d30d179	0.04316852
174	0x3c8e6a8c	0.01738479
175	0x3c9eda58	0.019391224
176	0x3db221be	0.08697842
177	0x3a9fa900	0.0012181103
178	0x3da98c3e	0.08278702
179	0x3dcee3b8	0.10102028
180	0xbbf3ea2d	-0.0074436874
181	0x3e0061b4	0.12537271
182	0x3e37c229	0.1794516
183	0xbdcbe119	-0.09955043
184	0x3e0c4d41	0.13701345
185	0x3e10ddf0	0.14147162
186	0x3d24386a	0.040092863
187	0xbc52c8a8	-0.012865223
188	0xbdababd8	-0.08382386
189	0x3df63e45	0.12023596
190	0x3dd130ce	0.10214387
191	0x3bb7a367	0.005604196
192	0x3d6b1b7c	0.057399258
193	0xbd3fdede	-0.046843402
194	0xbbabbaad	-0.0052407593
195	0x3dacc669	0.08436281
196	0x3e012739	0.12612619
197	0xbd831ea2	-0.06402327
198	0x3e2b9765	0.16756971
199	0x3e260891	0.16214205
200	0x3aec26ae	0.0018016899
201	0x3d05ae57	0.032636967
202	0xbda199c7	-0.07890659
203	0x3dc3b513	0.095560215
204	0xbd458359	-0.048220966
205	0x3d8c0427	0.068367295
206	0xbbf0a09f	-0.0073433663
207	0x3ba1d7be	0.0049390486
208	0x3e11d3d6	0.14240965
209	0x3e2759c9	0.16342844
210	0xbd8604c0	-0.06543875
211	0x3a950178	0.0011368236
212	0x3dbb6387	0.09149843
213	0x3dbd20d7	0.09234779
214	0xbc0d91af	-0.008640691
215	0x3cbaed67	0.02281828
216	0x3dbbfdb7	0.09179252
217	0x3dc5f87c	0.09666535
218	0x3d70f2e7	0.0588254
219	0x3d81c0e5	0.0633562
220	0x3d8fd6b3	0.070233725
221	0xbc86f13d	-0.016472453
222	0x3d8e759f	0.06956028
223	0x3d67a0c2	0.056549795
224	0x3db366b9	0.08759827
225	0x3db5c495	0.08875386
226	0xbdc39961	-0.09550739
227	0x3d89f318	0.067358196
228	0x3d8e7fca	0.069579676
229	0xbd3a1a95	-0.045435507
230	0x3e0c5244	0.13703257
231	0xbd2878c6	-0.041130804
232	0x3dd09ad8	0.10185784
233	0x3e0321cd	0.12805863
234	0x3e11450b	0.14186494
235	0xbda4632c	-0.08026728
236	0xbd856297	-0.06512945
237	0xbc4db751	-0.012555913
238	0xbd673859	-0.05645022
239	0xbd420a16	-0.0473729
240	0xbd6c912c	-0.057755634
241	0xbd274de6	-0.040845774
242	0x3da0cdbc	0.07851741
243	0x3dd905ff	0.10596847
244	0xbcf456dc	-0.029826574
245	0x3c5c10f5	0.013431777
246	0x3c187bab	0.0093068285
247	0xbd79f026	-0.06102004
248	0x3da9d7e8	0.08293134
249	0x3dcba795	0.09944073
250	0x3dbe7734	0.0930008
251	0xbc745e9b	-0.014915134
252	0xbcbebaa0	-0.02328235
253	0x3bf16b90	0.007367559
254	0x3dc82a9f	0.09773754
255	0xbc437442	-0.0119295735
